mlsys26_contest/blob/workloads/gdn/gdn_prefill_qk4_v8_d128_k_last/gdn_prefill_qk4_v8_d128_k_last_17775095-78aa-4d5c-8107-5544fe57f3a7.safetensors (safetensors, 584 bytes, 4 tensors)

A_log f4 [8]
00000000: 0000 bd3f 0000 dd3f 0000 b13f 0000 da3f
00000010: 0000 753e 0000 1abf 0000 ad3f 0000 87bf
1.4765625 1.7265625 1.3828125 1.703125 0.23925781 -0.6015625 1.3515625 -1.0546875

dt_bias f4 [8]
00000000: 0000 eb3e 0000 cec0 0000 29c0 0000 4cc0
00000010: 0000 a6c0 0000 83c0 0000 ec3f 0000 c1c0
0.45898438 -6.4375 -2.640625 -3.1875 -5.1875 -4.09375 1.84375 -6.03125

a bf16 [6, 8]
00000000: 8fbf b43f 163f 9d3f 0640 1640 afbe 3440
00000010: ec3e 2340 c43f da3f 7b40 7540 f93e 1140
00000020: e5bd 0f3f 3bbe 8cbe 3840 2a40 15bf 9abe
00000030: 473e fa3f e7be 41bf fd3f d03f 1f3e f93f
00000040: a03d 603f b2bf 91bf 8140 7c40 a73e b33f
00000050: ef3e 1640 33bd d93e a93f 8c3f 223f 1a40
-1.1171875 1.40625 0.5859375 1.2265625 2.09375 2.34375 -0.34179688 2.8125
0.4609375 2.546875 1.53125 1.703125 3.921875 3.828125 0.48632812 2.265625
-0.111816406 0.55859375 -0.18261719 -0.2734375 2.875 2.65625 -0.58203125 -0.30078125
0.19433594 1.953125 -0.45117188 -0.75390625 1.9765625 1.625 0.15527344 1.9453125
0.078125 0.875 -1.390625 -1.1328125 4.03125 3.9375 0.32617188 1.3984375
0.46679688 2.34375 -0.043701172 0.42382812 1.3203125 1.09375 0.6328125 2.40625

b bf16 [6, 8]
00000000: 8140 67be 7540 8040 6a40 8440 8e40 1740
00000010: 8f40 edbd 3c40 1a40 2740 3240 0141 9e3f
00000020: 8a40 59bf 2440 d93f 2f40 3240 f140 00bf
00000030: e840 11bf 0440 433f 9e3f bc3f fa40 aebf
00000040: b640 0ebf 1540 e73f 5740 5140 f540 973d
00000050: e240 943e 1f40 0140 4640 4440 f840 dcbd
4.03125 -0.22558594 3.828125 4.0 3.65625 4.125 4.4375 2.359375
4.46875 -0.115722656 2.9375 2.40625 2.609375 2.78125 8.0625 1.234375
4.3125 -0.84765625 2.5625 1.6953125 2.734375 2.78125 7.53125 -0.5
7.25 -0.56640625 2.0625 0.76171875 1.234375 1.46875 7.8125 -1.359375
5.6875 -0.5546875 2.328125 1.8046875 3.359375 3.265625 7.65625 0.07373047
7.0625 0.2890625 2.484375 2.015625 3.09375 3.0625 7.75 -0.107421875
