mlsys26_contest/blob/workloads/gdn/gdn_prefill_qk4_v8_d128_k_last/gdn_prefill_qk4_v8_d128_k_last_da0b52da-28f8-4dd2-afcb-52521af78817.safetensors (safetensors, 64584 bytes, 4 tensors)

A_log f4 [8]
00000000: 0000 2ebe 0000 1640 0000 ab3f 0000 0c40
00000010: 0000 70bf 0000 8cbf 0000 e23f 0000 e3be
-0.16992188 2.34375 1.3359375 2.1875 -0.9375 -1.09375 1.765625 -0.44335938

dt_bias f4 [8]
00000000: 0000 05c0 0000 b4c0 0000 8ac0 0000 5bc0
00000010: 0000 73c0 0000 53c0 0000 8cc0 0000 c8c0
-2.078125 -5.625 -4.3125 -3.421875 -3.796875 -3.296875 -4.375 -6.25

a bf16 [2005, 8]
00000000: 993f 1440 0b40 2d3f b93f 1f40 6c3f 8340
00000010: 213f bc3f 1d40 a93f 3540 2140 0b40 8540
00000020: b7bd 733e 973f 293f dd3f ba3f 8b3f a53f
00000030: ad3f a53f 313e 923e 4340 5040 0b3f 8f3f
00000040: 393f 783f ed3e 023d 8140 8e40 073f 993f
00000050: 583f a63f 8b3f fb3e 4c40 6940 5f3f 3640
00000060: 953f e73f 0740 8b3f dd3f 863f cd3f 3440
00000070: 393f c83f a43c 08be fd3f 143f df3e 903f
00000080: b9be 8f3f bc3f 8d3d ae3f c53f 3b3f 6140
00000090: 76bf 613c ed3f 803f 86bf 5dbf d93f 7440
000000a0: 06c0 99bf 603d 253f 28c0 3cc0 463f 2b40
000000b0: d3bf 79bf 2b3e 32bf 0740 d33f 56bd 883f
000000c0: c6bf 83bf cabe 95bf 1fc0 07c0 efbd 1940
000000d0: 95bf 11bf 783f 07be 15c0 05c0 ae3e 0340
000000e0: e5bf 6bbf 0f3e 08bf 31c0 29c0 f0bd f03f
000000f0: 1fc0 ecbf 88bf 40bf 28c0 23c0 81bf 8f3f
00000100: 29bf 61bf 86be f5be 5cbf 7cbf 7fbd 2240
00000110: 5dbf ea3e 0540 003f 34bf 4cbf 783f 8140
00000120: bc3f 1a40 1a40 593f 113f e03d 2040 a840
00000130: d33f bb3f 8a3f 473f d33f 3e40 8c3f 893f
00000140: ad3f 6b3f aabf 1fbe a63f 1740 d2be 833f
00000150: 9d3f 653f a2bf 8a3e 0240 1840 6dbf a2bd
00000160: 223e a73e 0cc0 95bf 0240 0940 9bbf 25be
00000170: 78be 823f ef3e d4be 833f 033f 303f 7840
00000180: 813f 953f 2840 bf3f 16be 2cbf 0340 1340
00000190: 0a3f 8e3f 8e3f 653f e2bd 0dbe a13f 35be
000001a0: ee3e 993e d2be 7d3d 29bf 02bf 7dbe 86bf
000001b0: cd3e 963e af3d 033f 82be 13bf 41be 6dbf
000001c0: 7dbe 8bbe 0ebf 0f3e 853e 903c 8cbf b1bf
000001d0: 0e3f 293f 0d3f 49be 913f 6f3f 8abe 883f
000001e0: 44be 5f3d 9c3f a93f 4cbe 04bf 683f ab3f
000001f0: ecbf 91bf 0f3e 24bc 32c0 24c0 693e 4fbf
1.1953125 2.3125 2.171875 0.67578125 1.4453125 2.484375 0.921875 4.09375
0.62890625 1.46875 2.453125 1.3203125 2.828125 2.515625 2.171875 4.15625
-0.08935547 0.23730469 1.1796875 0.66015625 1.7265625 1.453125 1.0859375 1.2890625
1.3515625 1.2890625 0.17285156 0.28515625 3.046875 3.25 0.54296875 1.1171875
0.72265625 0.96875 0.46289062 0.03173828 4.03125 4.4375 0.52734375 1.1953125
0.84375 1.296875 1.0859375 0.49023438 3.1875 3.640625 0.87109375 2.84375
1.1640625 1.8046875 2.109375 1.0859375 1.7265625 1.046875 1.6015625 2.8125
0.72265625 1.5625 0.020019531 -0.1328125 1.9765625 0.578125 0.43554688 1.125
-0.36132812 1.1171875 1.46875 0.068847656 1.359375 1.5390625 0.73046875 3.515625
-0.9609375 0.01373291 1.8515625 1.0 -1.046875 -0.86328125 1.6953125 3.8125
-2.09375 -1.1953125 0.0546875 0.64453125 -2.625 -2.9375 0.7734375 2.671875
-1.6484375 -0.97265625 0.16699219 -0.6953125 2.109375 1.6484375 -0.052246094 1.0625
-1.546875 -1.0234375 -0.39453125 -1.1640625 -2.484375 -2.109375 -0.11669922 2.390625
-1.1640625 -0.56640625 0.96875 -0.13183594 -2.328125 -2.078125 0.33984375 2.046875
-1.7890625 -0.91796875 0.13964844 -0.53125 -2.765625 -2.640625 -0.1171875 1.875
-2.484375 -1.84375 -1.0625 -0.75 -2.625 -2.546875 -1.0078125 1.1171875
-0.66015625 -0.87890625 -0.26171875 -0.47851562 -0.859375 -0.984375 -0.06225586 2.53125
-0.86328125 0.45703125 2.078125 0.5 -0.703125 -0.796875 0.96875 4.03125
1.46875 2.40625 2.40625 0.84765625 0.56640625 0.109375 2.5 5.25
1.6484375 1.4609375 1.078125 0.77734375 1.6484375 2.96875 1.09375 1.0703125
1.3515625 0.91796875 -1.328125 -0.15527344 1.296875 2.359375 -0.41015625 1.0234375
1.2265625 0.89453125 -1.265625 0.26953125 2.03125 2.375 -0.92578125 -0.07910156
0.15820312 0.32617188 -2.1875 -1.1640625 2.03125 2.140625 -1.2109375 -0.16113281
-0.2421875 1.015625 0.46679688 -0.4140625 1.0234375 0.51171875 0.6875 3.875
1.0078125 1.1640625 2.625 1.4921875 -0.14648438 -0.671875 2.046875 2.296875
0.5390625 1.109375 1.109375 0.89453125 -0.11035156 -0.13769531 1.2578125 -0.17675781
0.46484375 0.29882812 -0.41015625 0.061767578 -0.66015625 -0.5078125 -0.24707031 -1.046875
0.40039062 0.29296875 0.08544922 0.51171875 -0.25390625 -0.57421875 -0.18847656 -0.92578125
-0.24707031 -0.27148438 -0.5546875 0.13964844 0.25976562 0.017578125 -1.09375 -1.3828125
0.5546875 0.66015625 0.55078125 -0.19628906 1.1328125 0.93359375 -0.26953125 1.0625
-0.19140625 0.05444336 1.21875 1.3203125 -0.19921875 -0.515625 0.90625 1.3359375
-1.84375 -1.1328125 0.13964844 -0.010009766 -2.78125 -2.5625 0.22753906 -0.80859375

b bf16 [2005, 8]
00000000: 69be 193e df3e 8e3e 89bf 0c3e f8bb 4b40
00000010: 833e 123f a33f bd3f 9b3f b63f 8a3f 2b3f
00000020: 04bd 993d 963f 2f40 e03d 0d3f 9a3f bdbd
00000030: 44bf 33bf 033e 933f cfbe d93d ff3c 82be
00000040: 83bd 32be 46bf 323f 663f b63f da3d 13bf
00000050: 1a3f 8d3e c5bf 8c3e 933f cb3f 17bf 0bbf
00000060: cb3e d3bd 5b3e f03f 443f 833f a83e c5be
00000070: 66be 72bd 2bbc c03f f7be 9abe b83e 05be
00000080: 6b3f 403f 62bf 03bf 013f 313f 1ebf d5be
00000090: 163f dfbd 2c3f 853f 323f a53f e33e 23bf
000000a0: 85be 1dbf bf3f 4140 24bf 93be a73f bbbe
000000b0: 91bf 47bf 333e a23f a5bf 96bf 9b3c 14bf
000000c0: 87bf 53bf b0be c43d 86bf 03bf 49bf 27bf
000000d0: 35be 1abf a4bd ba3f 95bf 83bf 06be 02bf
000000e0: 0a3d 51bf 003f 0040 5fbf 03bf a8be 76bf
000000f0: 91bf a6bf ffbe ba3f 00c0 d0bf 0bbf 75bf
00000100: f3be 25bf 13bf a93e a8bf a6bf c7be 07bf
00000110: 2f3f 363e 6f3e 223f 59bc 153d 99bd a5be
00000120: 0dbf bfbe 993f 833f 29bf 55bf 843f a83d
00000130: 2b3d 433f db3f 4140 4e3f 8d3f d13f 023f
00000140: 18bd 05bf dabe f03f 49bf f4be acbe 99bf
00000150: 6d3f 383e a73d 2e40 903f 813f a2be 5cbe
00000160: 623f 243f b4bf 343f bc3f 9f3f 17bf 74bf
00000170: 8f3f 9d3e 68bf 38bf 703f 483f 71bf 52bf
00000180: 273f 643f 1c3f 803f 293f 0b3f 8c3f f03d
00000190: 4e3e 253f 0040 3e40 6f3e 0e3f e93f 75be
000001a0: 373e ecbd 6bbe c63f e3be fdbe e43a 5cbf
000001b0: 203f bf3e 49bf b13f e9be 11bf 803c 96bf
000001c0: e63e 8b3e 5a3e 1140 c03e da3e 553e 10bf
000001d0: 9d3f e43e d4bf 7fbe a03f 823f 6cbf a1bf
000001e0: 6e3f 053c 093f 1140 d93e 1b3f 923e 56bf
000001f0: 9cbe e3be 6c3f c53f 24bd a73e 813e 60bf
-0.22753906 0.14941406 0.43554688 0.27734375 -1.0703125 0.13671875 -0.0075683594 3.171875
0.25585938 0.5703125 1.2734375 1.4765625 1.2109375 1.421875 1.078125 0.66796875
-0.032226562 0.07470703 1.171875 2.734375 0.109375 0.55078125 1.203125 -0.092285156
-0.765625 -0.69921875 0.12792969 1.1484375 -0.40429688 0.10595703 0.03112793 -0.25390625
-0.063964844 -0.17382812 -0.7734375 0.6953125 0.8984375 1.421875 0.10644531 -0.57421875
0.6015625 0.27539062 -1.5390625 0.2734375 1.1484375 1.5859375 -0.58984375 -0.54296875
0.39648438 -0.103027344 0.21386719 1.875 0.765625 1.0234375 0.328125 -0.38476562
-0.22460938 -0.05908203 -0.010437012 1.5 -0.48242188 -0.30078125 0.359375 -0.12988281
0.91796875 0.75 -0.8828125 -0.51171875 0.50390625 0.69140625 -0.6171875 -0.41601562
0.5859375 -0.10888672 0.671875 1.0390625 0.6953125 1.2890625 0.44335938 -0.63671875
-0.25976562 -0.61328125 1.4921875 3.015625 -0.640625 -0.28710938 1.3046875 -0.36523438
-1.1328125 -0.77734375 0.17480469 1.265625 -1.2890625 -1.171875 0.018920898 -0.578125
-1.0546875 -0.82421875 -0.34375 0.095703125 -1.046875 -0.51171875 -0.78515625 -0.65234375
-0.17675781 -0.6015625 -0.080078125 1.453125 -1.1640625 -1.0234375 -0.13085938 -0.5078125
0.033691406 -0.81640625 0.5 2.0 -0.87109375 -0.51171875 -0.328125 -0.9609375
-1.1328125 -1.296875 -0.49804688 1.453125 -2.0 -1.625 -0.54296875 -0.95703125
-0.47460938 -0.64453125 -0.57421875 0.33007812 -1.3125 -1.296875 -0.38867188 -0.52734375
0.68359375 0.17773438 0.23339844 0.6328125 -0.013244629 0.036376953 -0.07470703 -0.32226562
-0.55078125 -0.37304688 1.1953125 1.0234375 -0.66015625 -0.83203125 1.03125 0.08203125
0.041748047 0.76171875 1.7109375 3.015625 0.8046875 1.1015625 1.6328125 0.5078125
-0.037109375 -0.51953125 -0.42578125 1.875 -0.78515625 -0.4765625 -0.3359375 -1.1953125
0.92578125 0.1796875 0.08154297 2.71875 1.125 1.0078125 -0.31640625 -0.21484375
0.8828125 0.640625 -1.40625 0.703125 1.46875 1.2421875 -0.58984375 -0.953125
1.1171875 0.30664062 -0.90625 -0.71875 0.9375 0.78125 -0.94140625 -0.8203125
0.65234375 0.890625 0.609375 1.0 0.66015625 0.54296875 1.09375 0.1171875
0.20117188 0.64453125 2.0 2.96875 0.23339844 0.5546875 1.8203125 -0.23925781
0.17871094 -0.115234375 -0.22949219 1.546875 -0.44335938 -0.49414062 0.001739502 -0.859375
0.625 0.37304688 -0.78515625 1.3828125 -0.45507812 -0.56640625 0.015625 -1.171875
0.44921875 0.27148438 0.21289062 2.265625 0.375 0.42578125 0.20800781 -0.5625
1.2265625 0.4453125 -1.65625 -0.24902344 1.25 1.015625 -0.921875 -1.2578125
0.9296875 0.008117676 0.53515625 2.265625 0.42382812 0.60546875 0.28515625 -0.8359375
-0.3046875 -0.44335938 0.921875 1.5390625 -0.040039062 0.32617188 0.25195312 -0.875
