mlsys26_contest/blob/workloads/gdn/gdn_prefill_qk4_v8_d128_k_last/gdn_prefill_qk4_v8_d128_k_last_4c97e5d8-0194-49fd-9869-7dc2c097919d.safetensors (safetensors, 262752 bytes, 4 tensors)

A_log f4 [8]
00000000: 0000 33be 0000 893e 0000 f33f 0000 5440
00000010: 0000 d03f 0000 85bf 0000 be3f 0000 aebf
-0.17480469 0.26757812 1.8984375 3.3125 1.625 -1.0390625 1.484375 -1.359375

dt_bias f4 [8]
00000000: 0000 e8bf 0000 6ac0 0000 cec0 0000 b2c0
00000010: 0000 ffbf 0000 89c0 0000 b7c0 0000 70c0
-1.8125 -3.65625 -6.4375 -5.5625 -1.9921875 -4.28125 -5.71875 -3.75

a bf16 [8192, 8]
00000000: cf3f cf3f 1240 963f 403f 8440 763f 7e40
00000010: 8d3f 423f 233f 8d3f 7ebf e93f 453f ad3f
00000020: d13f 4c3e 9dbe d43e f1be 583f 423e c73d
00000030: b53f 693f 4e3e 843f fa3e f23f 8a3f e73e
00000040: 0f40 393f 0b3e c53e 50be a33f 743f 2c3f
00000050: bf3f 843c 8f3e d63e 8b3f fb3f e73e 70be
00000060: fb3f 423f 593f 8a3d c6be 653f ab3f 533f
00000070: a13e 593e 583f e03e 663e 0f40 c53e e03e
00000080: 5b3f c23f c33f fd3e fc3d 983f fa3e f53e
00000090: e03f a5bd e33d 22bf 993e 01bc 013f 823e
000000a0: eb3e 75bf 853d 79bf 5e3f 983f 86be ffbe
000000b0: 0f40 10be 503f 0fbf 753f cc3f 413f 3c3f
000000c0: 6abf 7dbf 053e 77bf ccbc 92bf 063f 91bd
000000d0: a73e 88be 4c3f c7bc 3ebe 973e b23e 2cbe
000000e0: 8ebf bfbf 0bbe 61bf b9bc 443f be3e 6e3d
000000f0: 133d e73c d43f 4fbf a6be 903f 323f 193f
00000100: 303f 033f 0140 213d 443f 0940 613f a33f
00000110: a33e 8ebf 103f 3cbf e13e 1e3f bcbe 9dbf
00000120: c83f c3bf 34be 29bf 703f 11bf 133e 73bf
00000130: c8be ccbf d9be 53bf 1abf 1cc0 d1be 61bf
00000140: 96be afbe 36bf 93be c6bf a7bf cbbe a2bf
00000150: 6dbf c5bf 8a3e 30bf 6abf 84bf 91be 3ebf
00000160: 64bf b0bf c03e 81bf 8f3e 2abf cebe 89bf
00000170: 89be 24be 7b3f 6fbf a4bd 1dbf 943f f53e
00000180: b53e 37bd b83f 13be 493f d0bc 09bb 3c3e
00000190: 4140 993f 9d3f 3f3f df3f a23f 0340 0f40
000001a0: 0940 1dbf 9fbe a83e c73f c5bf 203e 91bf
000001b0: ea3e efbf f8bf a6bf 073f 1cc0 12bf a2bf
000001c0: b33f 4ebf 32bf b8bf 64be d73d 073f 6fbe
000001d0: 1840 42bf 10be 26bf 823f 883f 4c3f b33e
000001e0: 3a3f b4bf dcbe f2be 643e 013f 5ebe c9bf
000001f0: d33f e8be 9b3f 15be 803f a3bf 83be 2dbf
1.6171875 1.6171875 2.28125 1.171875 0.75 4.125 0.9609375 3.96875
1.1015625 0.7578125 0.63671875 1.1015625 -0.9921875 1.8203125 0.76953125 1.3515625
1.6328125 0.19921875 -0.30664062 0.4140625 -0.47070312 0.84375 0.18945312 0.09716797
1.4140625 0.91015625 0.20117188 1.03125 0.48828125 1.890625 1.078125 0.45117188
2.234375 0.72265625 0.13574219 0.38476562 -0.203125 1.2734375 0.953125 0.671875
1.4921875 0.016113281 0.27929688 0.41796875 1.0859375 1.9609375 0.45117188 -0.234375
1.9609375 0.7578125 0.84765625 0.06738281 -0.38671875 0.89453125 1.3359375 0.82421875
0.31445312 0.21191406 0.84375 0.4375 0.22460938 2.234375 0.38476562 0.4375
0.85546875 1.515625 1.5234375 0.49414062 0.123046875 1.1875 0.48828125 0.47851562
1.75 -0.080566406 0.110839844 -0.6328125 0.29882812 -0.007873535 0.50390625 0.25390625
0.45898438 -0.95703125 0.064941406 -0.97265625 0.8671875 1.1875 -0.26171875 -0.49804688
2.234375 -0.140625 0.8125 -0.55859375 0.95703125 1.59375 0.75390625 0.734375
-0.9140625 -0.98828125 0.12988281 -0.96484375 -0.024902344 -1.140625 0.5234375 -0.07080078
0.32617188 -0.265625 0.796875 -0.024291992 -0.18554688 0.29492188 0.34765625 -0.16796875
-1.109375 -1.4921875 -0.13574219 -0.87890625 -0.022583008 0.765625 0.37109375 0.05810547
0.035888672 0.028198242 1.65625 -0.80859375 -0.32421875 1.125 0.6953125 0.59765625
0.6875 0.51171875 2.015625 0.03930664 0.765625 2.140625 0.87890625 1.2734375
0.31835938 -1.109375 0.5625 -0.734375 0.43945312 0.6171875 -0.3671875 -1.2265625
1.5625 -1.5234375 -0.17578125 -0.66015625 0.9375 -0.56640625 0.14355469 -0.94921875
-0.390625 -1.59375 -0.42382812 -0.82421875 -0.6015625 -2.4375 -0.40820312 -0.87890625
-0.29296875 -0.34179688 -0.7109375 -0.28710938 -1.546875 -1.3046875 -0.39648438 -1.265625
-0.92578125 -1.5390625 0.26953125 -0.6875 -0.9140625 -1.03125 -0.28320312 -0.7421875
-0.890625 -1.375 0.375 -1.0078125 0.27929688 -0.6640625 -0.40234375 -1.0703125
-0.26757812 -0.16015625 0.98046875 -0.93359375 -0.080078125 -0.61328125 1.15625 0.47851562
0.35351562 -0.044677734 1.4375 -0.14355469 0.78515625 -0.025390625 -0.002090454 0.18359375
3.015625 1.1953125 1.2265625 0.74609375 1.7421875 1.265625 2.046875 2.234375
2.140625 -0.61328125 -0.31054688 0.328125 1.5546875 -1.5390625 0.15625 -1.1328125
0.45703125 -1.8671875 -1.9375 -1.296875 0.52734375 -2.4375 -0.5703125 -1.265625
1.3984375 -0.8046875 -0.6953125 -1.4375 -0.22265625 0.10498047 0.52734375 -0.23339844
2.375 -0.7578125 -0.140625 -0.6484375 1.015625 1.0625 0.796875 0.34960938
0.7265625 -1.40625 -0.4296875 -0.47265625 0.22265625 0.50390625 -0.21679688 -1.5703125
1.6484375 -0.453125 1.2109375 -0.14550781 1.0 -1.2734375 -0.25585938 -0.67578125

b bf16 [8192, 8]
00000000: 0e40 3ec0 213f a5bf 9f40 5fbf 58bf 40bf
00000010: cebe 33bf a7be 4dbe 9e3f e1bf 713f 1d3f
00000020: 9ebe b8bf f1bf bdbe a03f 19c0 353f 7a3e
00000030: 91bc 6dbf 02c0 cabd cf3f 88bf f63d 11bf
00000040: 4bbf 81bf 26c0 26be 803f 9abf 3a3d f0be
00000050: 8f3f b6bf c7bf 87be 8240 5f3e a43e ddbe
00000060: 9bbf 34bf 12c0 93be e63f c7bf 943d 2fbf
00000070: 933f f3bf 06c0 38bf 1f40 993e adbe 61bf
00000080: 87bf 7d3f e0bd 593f 0440 1bbf 1dbe 03bf
00000090: 08be 713e b0bf 323f dd3f 94bf 253f 263e
000000a0: 753f f5bf c0bf febe 1740 d5be 26bf 72bf
000000b0: 453f a9bf d4bf babe 8840 67be ccbe 36bf
000000c0: 96bf 30be 4abf 68be 8d40 cbbf 43be 39bf
000000d0: 08bf 22bd 0fbf d73e 2040 a7bf 8ebe 1dbf
000000e0: 9a3d c1bf a3bf 2ebf 8040 91be 0ebf 92bf
000000f0: 84bf 84be 09bf 353d 8f3f 20bf 8cbf b4bf
00000100: a7bf babe 1ebe e53e 4e3f bc3d e6be 4dbf
00000110: 8fbe 3cbf 75bf 9cbe e43f acbf 01bf 82bf
00000120: 953e 83bf a7bf d9bc 1b40 e7bf f2be 82bf
00000130: 89be e6bf d8bf 84bf 4840 36c0 33bf a5bf
00000140: a8bf 6fbf 25c0 fcbe 7140 05c0 edbe 96bf
00000150: d5be 66bf 89bf c5be e23f 3fc0 96bf ebbf
00000160: 33bf d9bf 9ebf 3fbf 8340 c8bf a5bf f0bf
00000170: b4bf 6dbf e4bf 30bf 8d3f 1cc0 b3bf eebf
00000180: 41bf 8ebf 96bf 07bf 5f40 adbf ccbf d5bf
00000190: 26c0 f73e 76bf 413e 283f ae3e 4cbf 63bf
000001a0: 8bbf fa3e 28bf aa3e a73f 8dbf 6fbe 3bbf
000001b0: 44be dbbf c3bf 93bf 5640 2ec0 bb3e e73d
000001c0: 8abf f3bf 33c0 88bf 4940 b9bf e2be 78bf
000001d0: 04bf 04bf d2bf abbb 1440 75bf d7be 79bf
000001e0: 903f cfbf 83bf 12bf 1840 87bf e33c efbe
000001f0: 4c3f d4bf ebbf d1be 9b40 adbf 22be 5bbf
2.21875 -2.96875 0.62890625 -1.2890625 4.96875 -0.87109375 -0.84375 -0.75
-0.40234375 -0.69921875 -0.32617188 -0.20019531 1.234375 -1.7578125 0.94140625 0.61328125
-0.30859375 -1.4375 -1.8828125 -0.36914062 1.25 -2.390625 0.70703125 0.24414062
-0.017700195 -0.92578125 -2.03125 -0.09863281 1.6171875 -1.0625 0.12011719 -0.56640625
-0.79296875 -1.0078125 -2.59375 -0.16210938 1.0 -1.203125 0.045410156 -0.46875
1.1171875 -1.421875 -1.5546875 -0.26367188 4.0625 0.21777344 0.3203125 -0.43164062
-1.2109375 -0.703125 -2.28125 -0.28710938 1.796875 -1.5546875 0.072265625 -0.68359375
1.1484375 -1.8984375 -2.09375 -0.71875 2.484375 0.29882812 -0.33789062 -0.87890625
-1.0546875 0.98828125 -0.109375 0.84765625 2.0625 -0.60546875 -0.15332031 -0.51171875
-0.1328125 0.23535156 -1.375 0.6953125 1.7265625 -1.15625 0.64453125 0.16210938
0.95703125 -1.9140625 -1.5 -0.49609375 2.359375 -0.41601562 -0.6484375 -0.9453125
0.76953125 -1.3203125 -1.65625 -0.36328125 4.25 -0.22558594 -0.3984375 -0.7109375
-1.171875 -0.171875 -0.7890625 -0.2265625 4.40625 -1.5859375 -0.19042969 -0.72265625
-0.53125 -0.03955078 -0.55859375 0.41992188 2.5 -1.3046875 -0.27734375 -0.61328125
0.07519531 -1.5078125 -1.2734375 -0.6796875 4.0 -0.28320312 -0.5546875 -1.140625
-1.03125 -0.2578125 -0.53515625 0.044189453 1.1171875 -0.625 -1.09375 -1.40625
-1.3046875 -0.36328125 -0.15429688 0.44726562 0.8046875 0.091796875 -0.44921875 -0.80078125
-0.27929688 -0.734375 -0.95703125 -0.3046875 1.78125 -1.34375 -0.50390625 -1.015625
0.29101562 -1.0234375 -1.3046875 -0.026489258 2.421875 -1.8046875 -0.47265625 -1.015625
-0.26757812 -1.796875 -1.6875 -1.03125 3.125 -2.84375 -0.69921875 -1.2890625
-1.3125 -0.93359375 -2.578125 -0.4921875 3.765625 -2.078125 -0.46289062 -1.171875
-0.41601562 -0.8984375 -1.0703125 -0.38476562 1.765625 -2.984375 -1.171875 -1.8359375
-0.69921875 -1.6953125 -1.234375 -0.74609375 4.09375 -1.5625 -1.2890625 -1.875
-1.40625 -0.92578125 -1.78125 -0.6875 1.1015625 -2.4375 -1.3984375 -1.859375
-0.75390625 -1.109375 -1.171875 -0.52734375 3.484375 -1.3515625 -1.59375 -1.6640625
-2.59375 0.48242188 -0.9609375 0.18847656 0.65625 0.33984375 -0.796875 -0.88671875
-1.0859375 0.48828125 -0.65625 0.33203125 1.3046875 -1.1015625 -0.23339844 -0.73046875
-0.19140625 -1.7109375 -1.5234375 -1.1484375 3.34375 -2.71875 0.36523438 0.11279297
-1.078125 -1.8984375 -2.796875 -1.0625 3.140625 -1.4453125 -0.44140625 -0.96875
-0.515625 -0.515625 -1.640625 -0.005218506 2.3125 -0.95703125 -0.41992188 -0.97265625
1.125 -1.6171875 -1.0234375 -0.5703125 2.375 -1.0546875 0.027709961 -0.46679688
0.796875 -1.65625 -1.8359375 -0.40820312 4.84375 -1.3515625 -0.15820312 -0.85546875
