mlsys26_contest/blob/workloads/gdn/gdn_prefill_qk4_v8_d128_k_last/gdn_prefill_qk4_v8_d128_k_last_de7af853-9c30-4e68-a0b7-6c6cd001b0ca.safetensors (safetensors, 584 bytes, 4 tensors)

A_log f4 [8]
000000 00 00 46 bd 00 00 a6 3e 00 00 ff 3f 00 00 5a 40
       -0.048339844 0.32421875 1.9921875 3.40625
000010 00 00 c0 3f 00 00 95 bf 00 00 bc 3f 00 00 94 bf
       1.5 -1.1640625 1.46875 -1.15625

dt_bias f4 [8]
000000 00 00 ec bf 00 00 64 c0 00 00 cb c0 00 00 af c0
       -1.84375 -3.5625 -6.34375 -5.46875
000010 00 00 fd bf 00 00 85 c0 00 00 b6 c0 00 00 70 c0
       -1.9765625 -4.15625 -5.6875 -3.75

a bf16 [6, 8]
000000 15 40 b8 3f c9 3f 6d 3f a3 bf 60 40 07 40 6c 40
       2.328125 1.4375 1.5703125 0.92578125 -1.2734375 3.5 2.109375 3.6875
000010 91 3f c6 3f 2f 40 df 3f 4d bf 89 40 4f 40 97 40
       1.1328125 1.546875 2.734375 1.7421875 -0.80078125 4.28125 3.234375 4.71875
000020 38 bf 10 3f 28 40 48 3f 92 bf 25 40 ed 3f 3b 40
       -0.71875 0.5625 2.625 0.78125 -1.140625 2.578125 1.8515625 2.921875
000030 aa 3f 24 3f 1b 40 2f 3f 08 bf d8 3f 60 3f 01 40
       1.328125 0.640625 2.421875 0.68359375 -0.53125 1.6875 0.875 2.015625
000040 5c 3e 3c 3f 4b 40 17 bd 87 be 55 40 92 3f eb 3f
       0.21484375 0.734375 3.171875 -0.036865234 -0.26367188 3.328125 1.140625 1.8359375
000050 13 40 4b 3f 8f 3f d1 3e b9 3f a9 3f 96 3f df 3f
       2.296875 0.79296875 1.1171875 0.40820312 1.4453125 1.3203125 1.171875 1.7421875

b bf16 [6, 8]
000000 38 3e a8 bf a3 be b9 bf 2f 40 8f bf 12 3f f6 3d
       0.1796875 -1.3125 -0.31835938 -1.4453125 2.734375 -1.1171875 0.5703125 0.12011719
000010 fa 3f e1 bf 8c 3f 57 3d a0 40 9f 3d 9b 3f a7 3f
       1.953125 -1.7578125 1.09375 0.052490234 5.0 0.07763672 1.2109375 1.3046875
000020 13 bf 90 bf 4d be 8f 3c 9a 40 7b bf 15 3f 25 3f
       -0.57421875 -1.125 -0.20019531 0.017456055 4.8125 -0.98046875 0.58203125 0.64453125
000030 80 bf a9 3e 99 3e 94 3f b6 3e b9 bf 98 bd e8 ba
       -1.0 0.33007812 0.29882812 1.15625 0.35546875 -1.4453125 -0.07421875 -0.0017700195
000040 6e 3f a7 bf f7 be 02 bf 3c 40 3b bc be be 18 bf
       0.9296875 -1.3046875 -0.48242188 -0.5078125 2.9375 -0.011413574 -0.37109375 -0.59375
000050 d3 bf 3d 3f 9c 3f a6 3f b9 bd 9f bf d2 be e6 be
       -1.6484375 0.73828125 1.21875 1.296875 -0.09033203 -1.2421875 -0.41015625 -0.44921875
