mlsys26_contest/blob/workloads/gdn/gdn_prefill_qk4_v8_d128_k_last/gdn_prefill_qk4_v8_d128_k_last_cfba415c-04aa-4d36-948d-bc163aac2425.safetensors (safetensors, 262824 bytes, 4 tensors)

A_log f4 [8]
00000000: 0000 b33f 0000 9a3f 0000 0d40 0000 173e
00000010: 0000 bc3f 0000 1ebf 0000 e83f 0000 aebf
1.3984375 1.203125 2.203125 0.14746094 1.46875 -0.6171875 1.8125 -1.359375

dt_bias f4 [8]
00000000: 0000 16c0 0000 5bc0 0000 81c0 0000 d4bf
00000010: 0000 50c0 0000 0340 0000 b4c0 0000 2ac0
-2.34375 -3.421875 -4.03125 -1.65625 -3.25 2.046875 -5.625 -2.65625

a bf16 [8192, 8]
00000000: e73e d33e 8dbd 1fbe a53f ad3f 60be 9dbf
00000010: fc3f 3dbf 8a3f 0340 d23f 7940 54be a6bf
00000020: 333e e3bf 8bbf a5bf 713e f83f 6ebf d5bf
00000030: 88be 1fc0 dcbf 09c0 fa3f c93f 90bf 1dc0
00000040: 213f c1be 44bf febe 963f cf3e b13e 91bf
00000050: 7b3f 71bf 353f 233f e33f 4540 e5bf 41c0
00000060: 153f 0cc0 003f 2f3f 8b3f 2240 4ebf 4bc0
00000070: 0e3f 13c0 67be 0fbf af3f 2240 11bf 10c0
00000080: cebe c4bf 5bbf aabf 983f 823f e7be 31c0
00000090: 2abf a5bf 23bf ccbe d83f a73f 9dbe 06c0
000000a0: 57bf 4dbf 07bf 05bf 673f fd3d 28bf babf
000000b0: 503f c9bf 3a3f bc3e 953f 3f40 90bf eabf
000000c0: 293e cdbf 57be 0bbe b63f c93e 5b3f 47bc
000000d0: 34bf 0ec0 a7bf cabf c23e f83f 9bbf 10c0
000000e0: a33f 9b3f bf3e 6f3e 1a40 3a40 af3f e73f
000000f0: b33f 3240 c33f f63f bd3f cb3f aa3f 8f3f
00000100: 323e b13f 623f 573f 933f 773f 5b3f ac3f
00000110: bf3f 9f3f f03f 0140 e73f 1d40 b4bf 03c0
00000120: 6e3e debd 863f 863f 863f 6e40 9dbf 49c0
00000130: ef3e fd3f 433f 153f c43f f03f 863e c1be
00000140: e03f 1e40 9a3f a63f c63f f43f 2ebf b53e
00000150: 573f 5f3f 843f 9e3f 833f 8f3f b5bf 81bf
00000160: 833f b03d f63e 223f 6f3f 843f c5bf ddbf
00000170: 583f 68bf a03e 1dbe 613f 1840 c6bf 20c0
00000180: 433e 8b3b 3fbe 11bf 5e3f 923f 67bf e7bf
00000190: a6bf a4bf 05bf 01bf 1c3e 393f edbf 6cc0
000001a0: c73d a93d 453c e8bd 9d3f 183f a4be 5cbf
000001b0: a43f 213f 753f a63f af3f 9f3f 7ebf c8bf
000001c0: 9f3f 503c 9a3f c33f 833f cd3f 63bf e1bf
000001d0: e73e 7dbf 283f ba3e 7d3f 2240 aabe 9ebf
000001e0: d93e 933e a73e 863c 833f 893f 46be a3bf
000001f0: f43e e93d e93e 0c3f 4a3f c23f cbbe 88bf
0.45117188 0.41210938 -0.068847656 -0.15527344 1.2890625 1.3515625 -0.21875 -1.2265625
1.96875 -0.73828125 1.078125 2.046875 1.640625 3.890625 -0.20703125 -1.296875
0.17480469 -1.7734375 -1.0859375 -1.2890625 0.23535156 1.9375 -0.9296875 -1.6640625
-0.265625 -2.484375 -1.71875 -2.140625 1.953125 1.5703125 -1.125 -2.453125
0.62890625 -0.37695312 -0.765625 -0.49609375 1.171875 0.40429688 0.34570312 -1.1328125
0.98046875 -0.94140625 0.70703125 0.63671875 1.7734375 3.078125 -1.7890625 -3.015625
0.58203125 -2.1875 0.5 0.68359375 1.0859375 2.53125 -0.8046875 -3.171875
0.5546875 -2.296875 -0.22558594 -0.55859375 1.3671875 2.53125 -0.56640625 -2.25
-0.40234375 -1.53125 -0.85546875 -1.328125 1.1875 1.015625 -0.45117188 -2.765625
-0.6640625 -1.2890625 -0.63671875 -0.3984375 1.6875 1.3046875 -0.30664062 -2.09375
-0.83984375 -0.80078125 -0.52734375 -0.51953125 0.90234375 0.123535156 -0.65625 -1.453125
0.8125 -1.5703125 0.7265625 0.3671875 1.1640625 2.984375 -1.125 -1.828125
0.16503906 -1.6015625 -0.20996094 -0.13574219 1.421875 0.39257812 0.85546875 -0.012145996
-0.703125 -2.21875 -1.3046875 -1.578125 0.37890625 1.9375 -1.2109375 -2.25
1.2734375 1.2109375 0.37304688 0.23339844 2.40625 2.90625 1.3671875 1.8046875
1.3984375 2.78125 1.5234375 1.921875 1.4765625 1.5859375 1.328125 1.1171875
0.17382812 1.3828125 0.8828125 0.83984375 1.1484375 0.96484375 0.85546875 1.34375
1.4921875 1.2421875 1.875 2.015625 1.8046875 2.453125 -1.40625 -2.046875
0.23242188 -0.10839844 1.046875 1.046875 1.046875 3.71875 -1.2265625 -3.140625
0.46679688 1.9765625 0.76171875 0.58203125 1.53125 1.875 0.26171875 -0.37695312
1.75 2.46875 1.203125 1.296875 1.546875 1.90625 -0.6796875 0.35351562
0.83984375 0.87109375 1.03125 1.234375 1.0234375 1.1171875 -1.4140625 -1.0078125
1.0234375 0.0859375 0.48046875 0.6328125 0.93359375 1.03125 -1.5390625 -1.7265625
0.84375 -0.90625 0.3125 -0.15332031 0.87890625 2.375 -1.546875 -2.5
0.19042969 0.0042419434 -0.18652344 -0.56640625 0.8671875 1.140625 -0.90234375 -1.8046875
-1.296875 -1.28125 -0.51953125 -0.50390625 0.15234375 0.72265625 -1.8515625 -3.6875
0.09716797 0.08251953 0.012023926 -0.11328125 1.2265625 0.59375 -0.3203125 -0.859375
1.28125 0.62890625 0.95703125 1.296875 1.3671875 1.2421875 -0.9921875 -1.5625
1.2421875 0.0126953125 1.203125 1.5234375 1.0234375 1.6015625 -0.88671875 -1.7578125
0.45117188 -0.98828125 0.65625 0.36328125 0.98828125 2.53125 -0.33203125 -1.234375
0.42382812 0.28710938 0.32617188 0.016357422 1.0234375 1.0703125 -0.19335938 -1.2734375
0.4765625 0.11376953 0.45507812 0.546875 0.7890625 1.515625 -0.39648438 -1.0625

b bf16 [8192, 8]
00000000: bc3e 793f ca3f 2f3e c43f 9740 e93f c83f
00000010: ab3f 6abf 0240 d53f 8440 7340 c33f 013f
00000020: 1940 24c0 483f dd3f 8b40 2240 57bf f4bf
00000030: d13f 7ec0 51bd 80be a340 1a40 e2bf 1cc0
00000040: b83f 44bf 143f 2c3d 6d40 7240 333e 70be
00000050: d53e 7e3e 6a3f 7d3f 2940 b040 9a3f 843e
00000060: 3940 1bc0 0440 2940 2f40 9740 1c3c 24bf
00000070: dd3f bfbf cf3f 1340 5d40 a140 6dbe 6dbf
00000080: 4d3f 49c0 463e bf3e 9640 7540 96bf e4bf
00000090: e23f e8bf 5e3f d23e 5440 8640 f2be c5bf
000000a0: 31bf 323e 413e 06be 4840 6c40 e4be 99bf
000000b0: 2e3e 263d de3f 5d3f 2340 a940 a33d 98be
000000c0: ab3f 3dc0 b53f 9d3f 7240 2540 e4be 91bf
000000d0: 933f 90bf 0e3f 323f 2d40 8240 1cbe 18bf
000000e0: 333f 17c0 233f d43e 7440 4540 4a3d 21bf
000000f0: 4c3f 393f b03f 313f e53f 4440 a73f a53f
00000100: 563e 8cbe 863f 8c3e 0740 2640 a33f 573f
00000110: ac3e 113e ae3f 8f3e c93f a640 c73f 983f
00000120: 1f40 bcbf cd3f a33f 8340 9c40 113e 67be
00000130: 9e3f 7dbf ff3f 973f 9040 3840 983f 003d
00000140: da3e e33e ab3f 933e 2840 9940 9b3f 6d3f
00000150: a73d 3bbd 3f3f aa3e 8540 9f40 dd3e 253b
00000160: 3abe 4b3e 973f 343f 3840 6840 323e d2be
00000170: 293f 93be 893f 813f 1e40 9240 933e b9be
00000180: 2240 0dbf 0240 8e3f 6940 1540 2cbe 43bf
00000190: b83f c7bd 8d3e 903e 4840 7940 ddbe 3abf
000001a0: 973f f2bf c43f ac3f 8740 3940 33bf aabf
000001b0: 18be 0d3e 1f3f 923e 4240 a640 3e3e a1be
000001c0: 71bd b33e d33f c03f da3f a140 023f 8bbc
000001d0: a53e c9bf 163f af3f 4d40 8140 b7be 5abf
000001e0: ab3f c7bf e63f 7a3f 6f40 2d40 893e 25bf
000001f0: 2cbf 593f 3c3f 8a3e 5b40 a140 d23e 63be
0.3671875 0.97265625 1.578125 0.17089844 1.53125 4.71875 1.8203125 1.5625
1.3359375 -0.9140625 2.03125 1.6640625 4.125 3.796875 1.5234375 0.50390625
2.390625 -2.5625 0.78125 1.7265625 4.34375 2.53125 -0.83984375 -1.90625
1.6328125 -3.96875 -0.05102539 -0.25 5.09375 2.40625 -1.765625 -2.4375
1.4375 -0.765625 0.578125 0.041992188 3.703125 3.78125 0.17480469 -0.234375
0.41601562 0.24804688 0.9140625 0.98828125 2.640625 5.5 1.203125 0.2578125
2.890625 -2.421875 2.0625 2.640625 2.734375 4.71875 0.009521484 -0.640625
1.7265625 -1.4921875 1.6171875 2.296875 3.453125 5.03125 -0.23144531 -0.92578125
0.80078125 -3.140625 0.19335938 0.37304688 4.6875 3.828125 -1.171875 -1.78125
1.765625 -1.8125 0.8671875 0.41015625 3.3125 4.1875 -0.47265625 -1.5390625
-0.69140625 0.17382812 0.18847656 -0.13085938 3.125 3.6875 -0.4453125 -1.1953125
0.16992188 0.040527344 1.734375 0.86328125 2.546875 5.28125 0.079589844 -0.296875
1.3359375 -2.953125 1.4140625 1.2265625 3.78125 2.578125 -0.4453125 -1.1328125
1.1484375 -1.125 0.5546875 0.6953125 2.703125 4.0625 -0.15234375 -0.59375
0.69921875 -2.359375 0.63671875 0.4140625 3.8125 3.078125 0.049316406 -0.62890625
0.796875 0.72265625 1.375 0.69140625 1.7890625 3.0625 1.3046875 1.2890625
0.20898438 -0.2734375 1.046875 0.2734375 2.109375 2.59375 1.2734375 0.83984375
0.3359375 0.14160156 1.359375 0.27929688 1.5703125 5.1875 1.5546875 1.1875
2.484375 -1.46875 1.6015625 1.2734375 4.09375 4.875 0.14160156 -0.22558594
1.234375 -0.98828125 1.9921875 1.1796875 4.5 2.875 1.1875 0.03125
0.42578125 0.44335938 1.3359375 0.28710938 2.625 4.78125 1.2109375 0.92578125
0.08154297 -0.045654297 0.74609375 0.33203125 4.15625 4.96875 0.43164062 0.0025177002
-0.18164062 0.19824219 1.1796875 0.703125 2.875 3.625 0.17382812 -0.41015625
0.66015625 -0.28710938 1.0703125 1.0078125 2.46875 4.5625 0.28710938 -0.36132812
2.53125 -0.55078125 2.03125 1.109375 3.640625 2.328125 -0.16796875 -0.76171875
1.4375 -0.09716797 0.27539062 0.28125 3.125 3.890625 -0.43164062 -0.7265625
1.1796875 -1.890625 1.53125 1.34375 4.21875 2.890625 -0.69921875 -1.328125
-0.1484375 0.13769531 0.62109375 0.28515625 3.03125 5.1875 0.18554688 -0.31445312
-0.05883789 0.34960938 1.6484375 1.5 1.703125 5.03125 0.5078125 -0.016967773
0.32226562 -1.5703125 0.5859375 1.3671875 3.203125 4.03125 -0.35742188 -0.8515625
1.3359375 -1.5546875 1.796875 0.9765625 3.734375 2.703125 0.26757812 -0.64453125
-0.671875 0.84765625 0.734375 0.26953125 3.421875 5.03125 0.41015625 -0.22167969
