mlsys26_contest/blob/workloads/gdn/gdn_prefill_qk4_v8_d128_k_last/gdn_prefill_qk4_v8_d128_k_last_2c3f09d7-dcf9-4d29-ba58-3e3ae4c92f0a.safetensors (safetensors, 70008 bytes, 4 tensors)

A_log f4 [8]
-0.33203125 -1.359375 -0.9609375 -0.91015625 1.484375 -1.21875 -1.9921875 -2.25
00000000: 0000 aabe 0000 aebf 0000 76bf 0000 69bf
00000010: 0000 be3f 0000 9cbf 0000 ffbf 0000 10c0

dt_bias f4 [8]
-6.6875 -3.03125 -1.40625 -1.9765625 -4.71875 -2.78125 -7.0625 -5.96875
00000000: 0000 d6c0 0000 42c0 0000 b4bf 0000 fdbf
00000010: 0000 97c0 0000 32c0 0000 e2c0 0000 bfc0

a bf16 [2174, 8]
8.5 7.71875 4.0625 4.75 4.96875 6.40625 9.8125 9.6875
2.890625 3.328125 2.71875 3.09375 1.7265625 2.328125 3.703125 3.75
2.21875 3.125 3.046875 3.03125 1.8515625 2.8125 4.125 3.484375
5.15625 3.6875 4.8125 4.96875 2.40625 3.671875 5.53125 4.8125
1.6953125 1.140625 3.625 3.71875 0.75390625 2.328125 3.046875 2.5625
0.34375 0.3828125 3.1875 3.25 0.055664062 1.609375 3.984375 3.671875
1.5546875 1.1328125 2.6875 2.875 0.21777344 1.3125 4.75 4.5
3.265625 4.78125 5.0 5.15625 3.03125 5.1875 3.59375 3.21875
1.5234375 3.359375 3.765625 4.03125 1.9453125 3.125 1.6953125 1.0390625
0.6875 2.171875 4.21875 4.0625 1.2578125 2.4375 1.8828125 1.1015625
-0.6328125 0.9140625 0.890625 1.0234375 0.21289062 2.46875 0.609375 0.47265625
-0.90234375 -1.671875 0.58203125 0.59375 -1.7109375 -0.022705078 1.3125 1.0703125
0.51171875 1.09375 2.484375 2.625 0.5078125 1.2265625 1.8828125 1.328125
1.2265625 3.34375 3.984375 3.828125 1.9921875 3.375 1.0078125 0.32421875
3.59375 4.5625 4.21875 4.25 3.203125 4.25 2.796875 2.53125
0.59765625 2.3125 2.59375 2.796875 1.7890625 2.453125 1.0078125 0.67578125
1.390625 0.94140625 2.375 2.625 1.375 1.9453125 2.015625 1.5625
2.90625 2.640625 2.796875 2.75 1.375 3.171875 2.53125 2.078125
2.859375 4.8125 3.921875 4.53125 3.234375 3.65625 3.609375 2.578125
2.515625 3.5625 2.296875 2.609375 1.453125 3.34375 3.375 1.9453125
7.96875 6.375 3.5 4.46875 4.1875 5.875 8.75 9.0
4.5 5.09375 2.390625 2.25 2.546875 3.78125 3.796875 4.09375
5.25 2.96875 3.3125 3.296875 1.875 2.765625 5.28125 4.9375
4.15625 2.71875 3.96875 4.59375 2.046875 3.40625 4.6875 4.78125
0.8203125 0.8046875 2.203125 3.03125 1.3671875 1.3125 2.203125 1.8125
2.3125 1.375 2.421875 2.609375 1.09375 0.98046875 2.796875 2.140625
2.828125 3.078125 2.609375 2.921875 2.25 3.125 2.03125 2.59375
2.828125 3.1875 2.796875 3.3125 2.125 2.78125 0.66796875 0.62109375
0.62109375 3.5625 3.09375 3.78125 2.609375 3.71875 3.078125 3.203125
2.21875 3.875 3.625 3.625 1.6171875 3.265625 3.46875 2.890625
0.48632812 0.49023438 3.375 3.78125 0.20703125 1.3984375 5.03125 5.21875
0.33203125 1.3515625 2.0625 2.234375 -0.10595703 0.62890625 2.90625 2.78125
00000000: 0841 f740 8240 9840 9f40 cd40 1d41 1b41
00000010: 3940 5540 2e40 4640 dd3f 1540 6d40 7040
00000020: 0e40 4840 4340 4240 ed3f 3440 8440 5f40
00000030: a540 6c40 9a40 9f40 1a40 6b40 b140 9a40
00000040: d93f 923f 6840 6e40 413f 1540 4340 2440
00000050: b03e c43e 4c40 5040 643d ce3f 7f40 6b40
00000060: c73f 913f 2c40 3840 5f3e a83f 9840 9040
00000070: 5140 9940 a040 a540 4240 a640 6640 4e40
00000080: c33f 5740 7140 8140 f93f 4840 d93f 853f
00000090: 303f 0b40 8740 8240 a13f 1c40 f13f 8d3f
000000a0: 22bf 6a3f 643f 833f 5a3e 1e40 1c3f f23e
000000b0: 67bf d6bf 153f 183f dbbf babc a83f 893f
000000c0: 033f 8c3f 1f40 2840 023f 9d3f f13f aa3f
000000d0: 9d3f 5640 7f40 7540 ff3f 5840 813f a63e
000000e0: 6640 9240 8740 8840 4d40 8840 3340 2240
000000f0: 193f 1440 2640 3340 e53f 1d40 813f 2d3f
00000100: b23f 713f 1840 2840 b03f f93f 0140 c83f
00000110: 3a40 2940 3340 3040 b03f 4b40 2240 0540
00000120: 3740 9a40 7b40 9140 4f40 6a40 6740 2540
00000130: 2140 6440 1340 2740 ba3f 5640 5840 f93f
00000140: ff40 cc40 6040 8f40 8640 bc40 0c41 1041
00000150: 9040 a340 1940 1040 2340 7240 7340 8340
00000160: a840 3e40 5440 5340 f03f 3140 a940 9e40
00000170: 8540 2e40 7e40 9340 0340 5a40 9640 9940
00000180: 523f 4e3f 0d40 4240 af3f a83f 0d40 e83f
00000190: 1440 b03f 1b40 2740 8c3f 7b3f 3340 0940
000001a0: 3540 4540 2740 3b40 1040 4840 0240 2640
000001b0: 3540 4c40 3340 5440 0840 3240 2b3f 1f3f
000001c0: 1f3f 6440 4640 7240 2740 6e40 4540 4d40
000001d0: 0e40 7840 6840 6840 cf3f 5140 5e40 3940
000001e0: f93e fb3e 5840 7240 543e b33f a140 a740
000001f0: aa3e ad3f 0440 0f40 d9bd 213f 3a40 3240

b bf16 [2174, 8]
5.65625 1.8359375 3.328125 2.234375 2.828125 2.984375 5.03125 4.875
1.78125 2.796875 3.171875 2.84375 3.703125 2.9375 0.3671875 0.38085938
-0.84765625 0.421875 1.0625 0.80078125 0.38085938 0.796875 -1.5546875 -1.5078125
-0.13476562 0.38867188 1.046875 1.234375 1.75 0.8828125 -0.57421875 -0.20605469
1.03125 1.515625 1.7109375 1.765625 1.734375 2.03125 0.040039062 0.028198242
-0.06982422 -0.15136719 1.2265625 1.1796875 0.47070312 0.89453125 -0.33398438 -0.21582031
-0.16113281 -0.14648438 1.0703125 1.125 -0.12792969 0.76171875 -0.6796875 -0.671875
-0.40429688 0.87890625 0.5546875 0.79296875 1.1640625 0.69921875 -0.55859375 -0.38085938
0.25585938 0.875 1.6875 1.6640625 1.515625 0.94921875 -0.66015625 -0.43554688
-1.1171875 0.74609375 1.5390625 1.359375 2.09375 1.2734375 -1.671875 -1.5234375
-0.080078125 0.23828125 2.21875 2.125 1.1796875 1.0390625 -0.49804688 -0.515625
-2.21875 -1.0546875 2.28125 2.078125 -0.69140625 0.15820312 -2.109375 -2.03125
-0.8046875 -1.3125 1.078125 0.82421875 -0.68359375 -0.099609375 -1.4296875 -1.40625
-1.5 -0.83984375 0.78125 0.58984375 -0.54296875 -0.14746094 -1.609375 -1.4609375
-1.1015625 0.34179688 1.640625 1.4140625 0.50390625 1.265625 -1.0078125 -0.96875
0.10595703 0.7109375 1.109375 0.796875 1.3359375 0.67578125 -0.44140625 -0.4609375
-0.31054688 1.328125 2.140625 1.9375 2.234375 2.265625 -1.234375 -1.171875
-1.0 -0.030273438 1.265625 1.2421875 0.059326172 0.6015625 -1.453125 -1.3515625
0.13671875 1.171875 1.8984375 1.890625 1.9375 1.421875 -0.5 -0.5078125
-1.5 -0.29101562 1.1015625 1.078125 0.21875 -0.28710938 -1.453125 -1.3515625
5.96875 1.578125 3.828125 2.4375 2.28125 2.828125 5.34375 5.125
0.8984375 1.1015625 2.640625 2.171875 1.8515625 1.5625 0.15039062 0.3828125
-0.40039062 0.28320312 1.6328125 1.6328125 1.078125 0.703125 -0.26757812 0.025146484
1.5234375 0.96484375 1.9765625 1.7734375 1.5078125 1.859375 1.375 1.6015625
1.15625 0.22558594 0.8984375 0.875 1.109375 0.69140625 0.6796875 0.71484375
-0.34375 -1.15625 0.64453125 0.5078125 -1.0234375 -0.40625 -1.2265625 -0.92578125
0.921875 1.34375 2.984375 2.75 0.91796875 2.453125 0.6015625 0.65234375
0.44140625 -0.28710938 1.1640625 1.109375 -0.053466797 0.5390625 0.61328125 0.47265625
0.6484375 0.640625 1.3671875 1.3203125 1.0078125 0.6796875 -0.056396484 0.08203125
-1.078125 0.30664062 1.5078125 1.7109375 1.78125 0.8046875 -1.5625 -1.28125
-0.114746094 1.0703125 1.7109375 1.671875 0.59765625 1.6875 -0.30273438 -0.21679688
-0.42578125 -0.40234375 1.375 1.046875 -0.15332031 -0.29101562 0.8203125 0.9609375
00000000: b540 eb3f 5540 0f40 3540 3f40 a140 9c40
00000010: e43f 3340 4b40 3640 6d40 3c40 bc3e c33e
00000020: 59bf d83e 883f 4d3f c33e 4c3f c7bf c1bf
00000030: 0abe c73e 863f 9e3f e03f 623f 13bf 53be
00000040: 843f c23f db3f e23f de3f 0240 243d e73c
00000050: 8fbd 1bbe 9d3f 973f f13e 653f abbe 5dbe
00000060: 25be 16be 893f 903f 03be 433f 2ebf 2cbf
00000070: cfbe 613f 0e3f 4b3f 953f 333f 0fbf c3be
00000080: 833e 603f d83f d53f c23f 733f 29bf dfbe
00000090: 8fbf 3f3f c53f ae3f 0640 a33f d6bf c3bf
000000a0: a4bd 743e 0e40 0840 973f 853f ffbe 04bf
000000b0: 0ec0 87bf 1240 0540 31bf 223e 07c0 02c0
000000c0: 4ebf a8bf 8a3f 533f 2fbf ccbd b7bf b4bf
000000d0: c0bf 57bf 483f 173f 0bbf 17be cebf bbbf
000000e0: 8dbf af3e d23f b53f 013f a23f 81bf 78bf
000000f0: d93d 363f 8e3f 4c3f ab3f 2d3f e2be ecbe
00000100: 9fbe aa3f 0940 f83f 0f40 1140 9ebf 96bf
00000110: 80bf f8bc a23f 9f3f 733d 1a3f babf adbf
00000120: 0c3e 963f f33f f23f f83f b63f 00bf 02bf
00000130: c0bf 95be 8d3f 8a3f 603e 93be babf adbf
00000140: bf40 ca3f 7540 1c40 1240 3540 ab40 a440
00000150: 663f 8d3f 2940 0b40 ed3f c83f 1a3e c43e
00000160: cdbe 913e d13f d13f 8a3f 343f 89be ce3c
00000170: c33f 773f fd3f e33f c13f ee3f b03f cd3f
00000180: 943f 673e 663f 603f 8e3f 313f 2e3f 373f
00000190: b0be 94bf 253f 023f 83bf d0be 9dbf 6dbf
000001a0: 6c3f ac3f 3f40 3040 6b3f 1d40 1a3f 273f
000001b0: e23e 93be 953f 8e3f 5bbd 0a3f 1d3f f23e
000001c0: 263f 243f af3f a93f 813f 2e3f 67bd a83d
000001d0: 8abf 9d3e c13f db3f e43f 4e3f c8bf a4bf
000001e0: ebbd 893f db3f d63f 193f d83f 9bbe 5ebe
000001f0: dabe cebe b03f 863f 1dbe 95be 523f 763f
