mlsys26_contest/blob/workloads/gdn/gdn_prefill_qk4_v8_d128_k_last/gdn_prefill_qk4_v8_d128_k_last_60a2f9ce-2e86-438a-89d1-135d6321b90c.safetensors (safetensors, 9232 bytes, 4 tensors)

A_log f4 [8]
000000 00 00 cc bf 00 00 6c 40 00 00 18 40 00 00 19 40
       -1.59375 3.6875 2.375 2.390625
000010 00 00 87 3f 00 00 06 40 00 00 ad 3f 00 00 59 39
       1.0546875 2.09375 1.3515625 0.00020694733

dt_bias f4 [8]
000000 00 00 9a c0 00 00 e9 bf 00 00 cd c0 00 00 85 c0
       -4.8125 -1.8203125 -6.40625 -4.15625
000010 00 00 76 c0 00 00 7d c0 00 00 f3 bf 00 00 b8 bf
       -3.84375 -3.953125 -1.8984375 -1.4375

a bf16 [276, 8]
000000 8e 40 00 3e c9 3f 24 3f ce 3f 83 3f 7c bf 45 3f
       4.4375 0.125 1.5703125 0.640625 1.609375 1.0234375 -0.984375 0.76953125
000010 5e 40 04 3f a0 3f a6 3f a3 3f 68 3f a8 3e e4 3e
       3.46875 0.515625 1.25 1.296875 1.2734375 0.90625 0.328125 0.4453125
000020 21 40 49 bf 7c be 3c be c4 3e 32 bf c2 be 14 bf
       2.515625 -0.78515625 -0.24609375 -0.18359375 0.3828125 -0.6953125 -0.37890625 -0.578125
000030 32 40 2a 3e 9a 3f 55 3f b7 3f 2f 3d c3 3c 0d 3f
       2.78125 0.16601562 1.203125 0.83203125 1.4296875 0.04272461 0.023803711 0.55078125
000040 2e 40 99 be a4 3f ab 3f ed 3f f7 3f 6d 3f 57 3f
       2.71875 -0.29882812 1.28125 1.3359375 1.8515625 1.9296875 0.92578125 0.83984375
000050 51 40 30 3f 43 3f 67 3f 75 3f 5a be 09 3e 9f bf
       3.265625 0.6875 0.76171875 0.90234375 0.95703125 -0.21289062 0.13378906 -1.2421875
000060 5c 40 bb bf b5 3f 5c be e5 bc 75 be 53 bf b6 bf
       3.4375 -1.4609375 1.4140625 -0.21484375 -0.027954102 -0.23925781 -0.82421875 -1.421875
000070 92 40 af 3d de 3f 9d 3f 98 3f 12 bc 35 bf 87 be
       4.5625 0.08544922 1.734375 1.2265625 1.1875 -0.008911133 -0.70703125 -0.26367188
000080 7d 40 ba be e6 3f f0 bd 56 3f 98 bd 31 bf 2e 3e
       3.953125 -0.36328125 1.796875 -0.1171875 0.8359375 -0.07421875 -0.69140625 0.16992188
000090 7e 40 2b 3f 1d 40 87 3f d3 3f d8 3f 6b 3f c7 3f
       3.96875 0.66796875 2.453125 1.0546875 1.6484375 1.6875 0.91796875 1.5546875
0000a0 01 40 b4 3f a1 3f bf 3f 3c 3f 5d 3e f1 3f 01 40
       2.015625 1.40625 1.2578125 1.4921875 0.734375 0.21582031 1.8828125 2.015625
0000b0 25 40 22 3e 21 3f 45 3d ac bf ca bf 0f 3f 16 bf
       2.578125 0.15820312 0.62890625 0.048095703 -1.34375 -1.578125 0.55859375 -0.5859375
0000c0 27 40 92 bf b5 3f 1a 3f b1 be 45 bf fc be 72 bf
       2.609375 -1.140625 1.4140625 0.6015625 -0.34570312 -0.76953125 -0.4921875 -0.9453125
0000d0 19 40 01 bd 03 40 a0 3f 29 3f a9 3e 27 3f 9d 3f
       2.390625 -0.03149414 2.046875 1.25 0.66015625 0.33007812 0.65234375 1.2265625
0000e0 55 40 0e 40 b2 3f 8b 3f e5 bd 13 3f 8c 3f 72 3e
       3.328125 2.21875 1.390625 1.0859375 -0.111816406 0.57421875 1.09375 0.23632812
0000f0 f5 3f 40 3d 5d 3f 84 be ba bf b0 bf bd be da bf
       1.9140625 0.046875 0.86328125 -0.2578125 -1.453125 -1.375 -0.36914062 -1.703125
000100 a5 3f d9 3e 05 3f 4e 3f 32 be a8 3e 08 bf c4 bf
       1.2890625 0.42382812 0.51953125 0.8046875 -0.17382812 0.328125 -0.53125 -1.53125
000110 87 be 25 bc 74 3f 76 3f 01 3e 8f 3f 88 3f 4f 3f
       -0.26367188 -0.010070801 0.953125 0.9609375 0.12597656 1.1171875 1.0625 0.80859375
000120 19 3d 14 bf 52 bb 95 be 87 bf c3 be ba 3d 4a bf
       0.037353516 -0.578125 -0.0032043457 -0.29101562 -1.0546875 -0.38085938 0.09082031 -0.7890625
000130 04 3f 18 3f a5 be 38 3e a0 bf 9a bf 4f 3e 03 bf
       0.515625 0.59375 -0.32226562 0.1796875 -1.25 -1.203125 0.20214844 -0.51171875
000140 21 3f b1 be 1b bf 8e bf 21 c0 35 c0 2a bf 1c c0
       0.62890625 -0.34570312 -0.60546875 -1.109375 -2.515625 -2.828125 -0.6640625 -2.4375
000150 59 3f f1 be 63 3f 63 be 91 bf ad bf a7 bf e6 bf
       0.84765625 -0.47070312 0.88671875 -0.22167969 -1.1328125 -1.3515625 -1.3046875 -1.796875
000160 77 40 cc 3d 09 40 68 3f 78 3e f9 3e 86 bc 86 be
       3.859375 0.099609375 2.140625 0.90625 0.2421875 0.48632812 -0.016357422 -0.26171875
000170 d9 3f d2 3e 83 3e a2 3f 16 40 00 40 4c 3f e3 3f
       1.6953125 0.41015625 0.25585938 1.265625 2.34375 2.0 0.796875 1.7734375
000180 2a 40 dd bd 14 3f 32 3f ef 3f be 3f 9b 3f 8c 3f
       2.65625 -0.107910156 0.578125 0.6953125 1.8671875 1.484375 1.2109375 1.09375
000190 22 40 30 be 06 3f f8 3d 15 3f 8b 3e 3f 3e 1d bf
       2.53125 -0.171875 0.5234375 0.12109375 0.58203125 0.27148438 0.18652344 -0.61328125
0001a0 94 3f 70 bc 79 3e 56 3f d5 3e 99 be b6 bd 7c bf
       1.15625 -0.0146484375 0.24316406 0.8359375 0.41601562 -0.29882812 -0.08886719 -0.984375
0001b0 24 40 a6 bf 5c 3f 41 bf 01 3e a4 be 97 bf df bf
       2.5625 -1.296875 0.859375 -0.75390625 0.12597656 -0.3203125 -1.1796875 -1.7421875
0001c0 1a 40 0b bf 3e 3d c8 bd 1b 3f d7 3d 1e bf 4a bf
       2.40625 -0.54296875 0.04638672 -0.09765625 0.60546875 0.10498047 -0.6171875 -0.7890625
0001d0 03 40 df bd 0b 3f 97 3e 9c 3f fb 3e 8e 3e 43 3f
       2.046875 -0.10888672 0.54296875 0.29492188 1.21875 0.49023438 0.27734375 0.76171875
0001e0 8e 3f 1e 3e 02 3f 8f 3f 3a 40 13 40 8b 3f c0 3f
       1.109375 0.15429688 0.5078125 1.1171875 2.90625 2.296875 1.0859375 1.5
0001f0 c8 3f 2b 3f 8d 3e b3 3f 99 3f ad 3f b0 3f 96 3f
       1.5625 0.66796875 0.27539062 1.3984375 1.1953125 1.3515625 1.375 1.171875

b bf16 [276, 8]
000000 66 40 b0 40 dd bf 88 bf 8f 3e a7 be e5 3e fd 3e
       3.59375 5.5 -1.7265625 -1.0625 0.27929688 -0.32617188 0.44726562 0.49414062
000010 09 3f ee 40 06 3e e8 3d 39 3f dc 3f f4 3f 0a 40
       0.53515625 7.4375 0.13085938 0.11328125 0.72265625 1.71875 1.90625 2.15625
000020 26 bf de 40 b8 bf 88 be b7 bb a7 3d d1 3f ac 3f
       -0.6484375 6.9375 -1.4375 -0.265625 -0.005584717 0.08154297 1.6328125 1.34375
000030 5f 3e cf 40 7e bf 33 3e 9c bd a9 be 39 3f b3 3f
       0.21777344 6.46875 -0.9921875 0.17480469 -0.076171875 -0.33007812 0.72265625 1.3984375
000040 12 3f dd 40 6c bf de 3e 5f 3f 84 3f f3 3f 23 40
       0.5703125 6.90625 -0.921875 0.43359375 0.87109375 1.03125 1.8984375 2.546875
000050 0c 3d ec 40 97 bf d0 3e 0d 3f b1 3e 13 40 60 3f
       0.034179688 7.375 -1.1796875 0.40625 0.55078125 0.34570312 2.296875 0.875
000060 9e 3f de 40 c3 bf 1d bf 41 bf cc bc 7b 3f e5 3e
       1.234375 6.9375 -1.5234375 -0.61328125 -0.75390625 -0.024902344 0.98046875 0.44726562
000070 8a 3f ca 40 8c be 6e 3f a6 3f b8 3f 6d 3f b7 3e
       1.078125 6.3125 -0.2734375 0.9296875 1.296875 1.4375 0.92578125 0.35742188
000080 6c 3f c9 40 51 bf 74 be 6d 3f fc 3e 8b 3e 8a 3f
       0.921875 6.28125 -0.81640625 -0.23828125 0.92578125 0.4921875 0.27148438 1.078125
000090 47 3f d7 40 ed be fc 3d 6c 3f aa 3e a6 3f 06 40
       0.77734375 6.71875 -0.46289062 0.123046875 0.921875 0.33203125 1.296875 2.09375
0000a0 5e 3e e8 40 43 3d a1 3f 18 40 43 40 21 40 23 40
       0.21679688 7.25 0.047607422 1.2578125 2.375 3.046875 2.515625 2.546875
0000b0 81 3d e7 40 81 bf 9d 3e e2 3e 00 3f f9 3f de 3f
       0.06298828 7.21875 -1.0078125 0.30664062 0.44140625 0.5 1.9453125 1.734375
0000c0 2b 3f da 40 16 be 99 3e 46 3f a0 be e8 3e c3 bd
       0.66796875 6.8125 -0.14648438 0.29882812 0.7734375 -0.3125 0.453125 -0.095214844
0000d0 9f 3f d2 40 ca bd 8f 3f f6 3f bd 3f bf 3f d0 3f
       1.2421875 6.5625 -0.09863281 1.1171875 1.921875 1.4765625 1.4921875 1.625
0000e0 10 3f de 40 0f bf 3b 3f b8 3f 01 40 0b 40 b4 3f
       0.5625 6.9375 -0.55859375 0.73046875 1.4375 2.015625 2.171875 1.40625
0000f0 8d 3e e1 40 61 bf 2b be cc 3e 01 3f 7e 3f 16 3f
       0.27539062 7.03125 -0.87890625 -0.16699219 0.3984375 0.50390625 0.9921875 0.5859375
000100 c5 be d9 40 44 bf a2 3e 4e 3f 03 3e a7 3f c7 3c
       -0.38476562 6.78125 -0.765625 0.31640625 0.8046875 0.12792969 1.3046875 0.024291992
000110 cd 3e d9 40 5c bf 21 3f aa 3f 57 3f b4 3f c0 3f
       0.40039062 6.78125 -0.859375 0.62890625 1.328125 0.83984375 1.40625 1.5
000120 1e bf cb 40 b5 bf 27 3e 7c 3f 70 3f e3 3f 3e 3f
       -0.6171875 6.34375 -1.4140625 0.16308594 0.984375 0.9375 1.7734375 0.7421875
000130 fc be d8 40 2a bf a1 3e 88 3f 3a 3f c1 3f 13 3f
       -0.4921875 6.75 -0.6640625 0.31445312 1.0625 0.7265625 1.5078125 0.57421875
000140 43 bf d5 40 b5 bf 3a bf 52 3e db be 5a 3f 44 be
       -0.76171875 6.65625 -1.4140625 -0.7265625 0.20507812 -0.42773438 0.8515625 -0.19140625
000150 d2 be d6 40 3a bf 23 bf 53 3e c2 bf a8 be 75 bf
       -0.41015625 6.6875 -0.7265625 -0.63671875 0.20605469 -1.515625 -0.328125 -0.95703125
000160 5f 3f e4 40 b0 be 28 bf 12 bd bd bf dd be 8c bf
       0.87109375 7.125 -0.34375 -0.65625 -0.03564453 -1.4765625 -0.43164062 -1.09375
000170 fd bd df 40 79 be 17 3f 93 3f e8 3e 18 3f a5 3f
       -0.123535156 6.96875 -0.24316406 0.58984375 1.1484375 0.453125 0.59375 1.2890625
000180 5d 3e da 40 8a bf c1 be 1a 3f 03 3d ce 3f 27 40
       0.21582031 6.8125 -1.078125 -0.37695312 0.6015625 0.031982422 1.609375 2.609375
000190 dc 3e e1 40 c4 bf 2b bf bb be 98 bf e7 3f 4d 3f
       0.4296875 7.03125 -1.53125 -0.66796875 -0.36523438 -1.1875 1.8046875 0.80078125
0001a0 eb be df 40 0d be 84 3f c6 3f 9f 3f 1f 40 9c 3f
       -0.45898438 6.96875 -0.13769531 1.03125 1.546875 1.2421875 2.484375 1.21875
0001b0 d5 3e cf 40 56 bf 4b bf 4e bf ab bf 42 be 38 bf
       0.41601562 6.46875 -0.8359375 -0.79296875 -0.8046875 -1.3359375 -0.18945312 -0.71875
0001c0 f2 3e ca 40 b0 bf 26 bf 0d 3e 4a bc 7c be 01 bf
       0.47265625 6.3125 -1.375 -0.6484375 0.13769531 -0.012329102 -0.24609375 -0.50390625
0001d0 4b 3e d6 40 88 bf 2c bf 43 3e 50 bf d2 3e 60 3f
       0.19824219 6.6875 -1.0625 -0.671875 0.19042969 -0.8125 0.41015625 0.875
0001e0 8c be eb 40 88 bf 42 be 90 3e 20 be 89 3f cc 3f
       -0.2734375 7.34375 -1.0625 -0.18945312 0.28125 -0.15625 1.0703125 1.59375
0001f0 2c bf ea 40 a1 bf 08 3f c1 3f d2 3f 08 40 ed 3f
       -0.671875 7.3125 -1.2578125 0.53125 1.5078125 1.640625 2.125 1.8515625
