mlsys26_contest/blob/workloads/gdn/gdn_prefill_qk4_v8_d128_k_last/gdn_prefill_qk4_v8_d128_k_last_bdb3efc1-cde9-45dd-83e0-6ccdf2b4b3f4.safetensors (safetensors, 25232 bytes, 4 tensors)

A_log f4 [8]
000000 00 00 bd 3f 00 00 dd 3f 00 00 b1 3f 00 00 da 3f
       1.4765625 1.7265625 1.3828125 1.703125
000010 00 00 75 3e 00 00 1a bf 00 00 ad 3f 00 00 87 bf
       0.23925781 -0.6015625 1.3515625 -1.0546875

dt_bias f4 [8]
000000 00 00 eb 3e 00 00 ce c0 00 00 29 c0 00 00 4c c0
       0.45898438 -6.4375 -2.640625 -3.1875
000010 00 00 a6 c0 00 00 83 c0 00 00 ec 3f 00 00 c1 c0
       -5.1875 -4.09375 1.84375 -6.03125

a bf16 [775, 8]
000000 7c bf a1 3f 09 3f 93 3f 06 40 17 40 c2 be 34 40
       -0.984375 1.2578125 0.53515625 1.1484375 2.09375 2.359375 -0.37890625 2.8125
000010 03 40 d6 3f 95 3f 97 3f 68 40 65 40 36 bd 67 40
       2.046875 1.671875 1.1640625 1.1796875 3.625 3.578125 -0.044433594 3.609375
000020 6c 3f 16 40 01 3f 16 3f 41 40 34 40 b1 be 68 40
       0.921875 2.34375 0.50390625 0.5859375 3.015625 2.8125 -0.34570312 3.625
000030 5e 3f fd 3f 43 3f 78 3f 66 40 5b 40 d7 3e 1d 40
       0.8671875 1.9765625 0.76171875 0.96875 3.59375 3.421875 0.41992188 2.453125
000040 06 40 c3 3f 1b bf 51 bf e6 3f d5 3f 82 3f 99 3f
       2.09375 1.5234375 -0.60546875 -0.81640625 1.796875 1.6640625 1.015625 1.1953125
000050 1a 3f d3 be 0e 3f 70 3e 5c 40 66 40 3e 3f ab 3f
       0.6015625 -0.41210938 0.5546875 0.234375 3.4375 3.59375 0.7421875 1.3359375
000060 d8 3e ba 3e 7d bf e0 be 98 3f 9e 3f 9a bd 06 40
       0.421875 0.36328125 -0.98828125 -0.4375 1.1875 1.234375 -0.07519531 2.09375
000070 a1 3d fb 3f e9 3e 5e 3e 61 3f 49 3f 2f 3e 10 40
       0.07861328 1.9609375 0.45507812 0.21679688 0.87890625 0.78515625 0.17089844 2.25
000080 e6 3f a5 3f bf 3f 8a 3f bf be f0 be 9f 3e 87 40
       1.796875 1.2890625 1.4921875 1.078125 -0.37304688 -0.46875 0.31054688 4.21875
000090 e9 3f 74 3f 39 3f 56 3f b2 3f 9b 3f 7f 3f 83 3f
       1.8203125 0.953125 0.72265625 0.8359375 1.390625 1.2109375 0.99609375 1.0234375
0000a0 9a 3f 9a 3b 74 3e c7 3e ee 3f e5 3f c9 3e 3d 3f
       1.203125 0.004699707 0.23828125 0.38867188 1.859375 1.7890625 0.39257812 0.73828125
0000b0 9b 3e bd 3f c7 be 5c be 16 3f 98 3e 0b bf c6 3f
       0.30273438 1.4765625 -0.38867188 -0.21484375 0.5859375 0.296875 -0.54296875 1.546875
0000c0 db 3e ab 3f e6 3f 9d 3f f9 bc a8 be d7 be 54 40
       0.42773438 1.3359375 1.796875 1.2265625 -0.030395508 -0.328125 -0.41992188 3.3125
0000d0 d8 3e 2d 3e 0a 3f 34 3f 82 3f 84 3f c6 3d 4b 3f
       0.421875 0.16894531 0.5390625 0.703125 1.015625 1.03125 0.09667969 0.79296875
0000e0 71 3f 52 3f 97 3f 37 3f 32 bf 50 bf df bd 44 40
       0.94140625 0.8203125 1.1796875 0.71484375 -0.6953125 -0.8125 -0.10888672 3.0625
0000f0 49 3e 5e bf 40 3f 3f 3f 4a bf 72 bf 24 bf b4 3e
       0.19628906 -0.8671875 0.75 0.74609375 -0.7890625 -0.9453125 -0.640625 0.3515625
000100 ca 3f c0 bf ff be 0a bf cf bf e7 bf cc bd 1c 3f
       1.578125 -1.5 -0.49804688 -0.5390625 -1.6171875 -1.8046875 -0.099609375 0.609375
000110 d0 3f 5f bc 05 bd bc be 2d 3f 19 3f 5b be 4d 3d
       1.625 -0.01361084 -0.032470703 -0.3671875 0.67578125 0.59765625 -0.21386719 0.050048828
000120 8a bf ad 3f 0f 3f 97 3f 07 40 16 40 b6 be 2f 40
       -1.078125 1.3515625 0.55859375 1.1796875 2.109375 2.34375 -0.35546875 2.734375
000130 d1 3f 25 3f d5 3f aa 3f 1a 40 20 40 25 3d a5 3f
       1.6328125 0.64453125 1.6640625 1.328125 2.40625 2.5 0.040283203 1.2890625
000140 83 3f 25 be a3 3f 93 3f fc 3f ff 3f 61 be f3 3f
       1.0234375 -0.16113281 1.2734375 1.1484375 1.96875 1.9921875 -0.21972656 1.8984375
000150 ae 3f 1c 3f 87 3f 88 3d cc 3f e5 3f bc 3e 2f 40
       1.359375 0.609375 1.0546875 0.06640625 1.59375 1.7890625 0.3671875 2.734375
000160 bb 3f 57 bf a6 3f 22 3f f8 3f f7 3f 08 bf 74 3f
       1.4609375 -0.83984375 1.296875 0.6328125 1.9375 1.9296875 -0.53125 0.953125
000170 10 40 f7 be 0a 3f 9f 3e e1 bd 05 be 8a be 3d 40
       2.25 -0.48242188 0.5390625 0.31054688 -0.10986328 -0.12988281 -0.26953125 2.953125
000180 bf 3f fe 3e f2 3e 24 3d 44 3f 18 3f 73 be 55 40
       1.4921875 0.49609375 0.47265625 0.040039062 0.765625 0.59375 -0.23730469 3.328125
000190 17 40 ad 3f 3d 3f 82 3e 10 40 03 40 05 3f 39 40
       2.359375 1.3515625 0.73828125 0.25390625 2.25 2.046875 0.51953125 2.890625
0001a0 0a 40 c3 3f 01 3f 33 bc 4f 40 52 40 93 3f 36 40
       2.15625 1.5234375 0.50390625 -0.010925293 3.234375 3.28125 1.1484375 2.84375
0001b0 26 40 b4 3f d6 3e 8b bf e4 3e ee 3e 61 3f a5 40
       2.59375 1.40625 0.41796875 -1.0859375 0.4453125 0.46484375 0.87890625 5.15625
0001c0 ce 3f 1f bf 52 3f 29 3f f4 3f f9 3f c0 3e 06 40
       1.609375 -0.62109375 0.8203125 0.66015625 1.90625 1.9453125 0.375 2.09375
0001d0 13 40 8b bf af 3e 84 be f4 be 9a be a5 3e 11 40
       2.296875 -1.0859375 0.34179688 -0.2578125 -0.4765625 -0.30078125 0.32226562 2.265625
0001e0 27 40 ed be 41 3f 8f be 82 bf 89 bf 77 3f 3d 40
       2.609375 -0.46289062 0.75390625 -0.27929688 -1.015625 -1.0703125 0.96484375 2.953125
0001f0 2e 40 9d 3d 99 3f 3a 3f 4c be f9 bd 85 3f f7 3f
       2.71875 0.076660156 1.1953125 0.7265625 -0.19921875 -0.12158203 1.0390625 1.9296875

b bf16 [775, 8]
000000 84 40 4e be 79 40 83 40 6f 40 87 40 8f 40 1d 40
       4.125 -0.20117188 3.890625 4.09375 3.734375 4.21875 4.46875 2.453125
000010 b6 40 b9 be 1a 40 3e 40 5d 40 61 40 f8 40 9f 3f
       5.6875 -0.36132812 2.40625 2.96875 3.453125 3.515625 7.75 1.2421875
000020 c3 40 40 bf b1 3f 80 3f da 3f da 3f 01 41 64 3f
       6.09375 -0.75 1.3828125 1.0 1.703125 1.703125 8.0625 0.890625
000030 d4 40 cb be 08 40 24 40 48 40 46 40 fc 40 e2 3e
       6.625 -0.39648438 2.125 2.5625 3.125 3.09375 7.875 0.44140625
000040 c9 40 d0 3e 56 3f 07 bf b9 3f bd 3f fc 40 36 3c
       6.28125 0.40625 0.8359375 -0.52734375 1.4453125 1.4765625 7.875 0.011108398
000050 b7 40 98 bf e2 3f 67 3f 56 40 45 40 e9 40 80 bf
       5.71875 -1.1875 1.765625 0.90234375 3.34375 3.078125 7.28125 -1.0
000060 e4 40 28 be 9f 3f 91 3f 0c 40 05 40 f2 40 aa bf
       7.125 -0.1640625 1.2421875 1.1328125 2.1875 2.078125 7.5625 -1.328125
000070 e8 40 06 bf 70 3f b0 3f 2f 40 23 40 f6 40 3b bf
       7.25 -0.5234375 0.9375 1.375 2.734375 2.546875 7.6875 -0.73046875
000080 fd 40 76 3e 83 3f a3 3f 08 40 f2 3f fc 40 0a be
       7.90625 0.24023438 1.0234375 1.2734375 2.125 1.890625 7.875 -0.13476562
000090 d9 40 42 be bb 3f 3a 3f 07 40 03 40 f5 40 d8 3d
       6.78125 -0.18945312 1.4609375 0.7265625 2.109375 2.046875 7.65625 0.10546875
0000a0 ca 40 9f bf f7 3f f3 3f 09 40 07 40 e7 40 9e bf
       6.3125 -1.2421875 1.9296875 1.8984375 2.140625 2.109375 7.21875 -1.234375
0000b0 ce 40 c8 be a4 3f 54 3f 0b 40 03 40 fb 40 c5 bf
       6.4375 -0.390625 1.28125 0.828125 2.171875 2.046875 7.84375 -1.5390625
0000c0 ea 40 cf be 1b 40 ab 3f ef 3f dd 3f f6 40 69 bf
       7.3125 -0.40429688 2.421875 1.3359375 1.8671875 1.7265625 7.6875 -0.91015625
0000d0 c6 40 a2 bf f9 3f c3 3f e0 3f d5 3f f6 40 77 bf
       6.1875 -1.265625 1.9453125 1.5234375 1.75 1.6640625 7.6875 -0.96484375
0000e0 ed 40 4d bf a2 3f 38 3f 03 40 ec 3f f3 40 c4 bf
       7.40625 -0.80078125 1.265625 0.71875 2.046875 1.84375 7.59375 -1.53125
0000f0 c8 40 31 bf 1c 40 ce 3f 33 40 1f 40 f4 40 a6 be
       6.25 -0.69140625 2.4375 1.609375 2.796875 2.484375 7.625 -0.32421875
000100 d1 40 15 bf 9e 3f 37 3e f7 3f df 3f f9 40 50 bf
       6.53125 -0.58203125 1.234375 0.17871094 1.9296875 1.7421875 7.78125 -0.8125
000110 ce 40 8d bf f3 3f b2 3f 36 40 39 40 f6 40 8c bf
       6.4375 -1.1015625 1.8984375 1.390625 2.84375 2.890625 7.6875 -1.09375
000120 83 40 4a be 74 40 7f 40 6e 40 86 40 8e 40 1b 40
       4.09375 -0.19726562 3.8125 3.984375 3.71875 4.1875 4.4375 2.421875
000130 aa 40 11 bf 4a 40 01 40 0b 40 16 40 fc 40 9a 3f
       5.3125 -0.56640625 3.15625 2.015625 2.171875 2.34375 7.875 1.203125
000140 cb 40 f6 bf 0b 40 a9 3f d1 3f bb 3f f1 40 54 bf
       6.34375 -1.921875 2.171875 1.3203125 1.6328125 1.4609375 7.53125 -0.828125
000150 fa 40 4b bf 09 40 01 3f cf 3f cb 3f f5 40 77 3e
       7.8125 -0.79296875 2.140625 0.50390625 1.6171875 1.5859375 7.65625 0.24121094
000160 b7 40 f6 bf 18 40 ec 3f 1a 40 1f 40 f6 40 2d bf
       5.71875 -1.921875 2.375 1.84375 2.40625 2.484375 7.6875 -0.67578125
000170 fd 40 01 c0 e0 3f 8d 3f b7 3f b6 3f f9 40 a7 bf
       7.90625 -2.015625 1.75 1.1015625 1.4296875 1.421875 7.78125 -1.3046875
000180 dd 40 eb bf d4 3f 2a 3f 95 3f 89 3f 02 41 b7 be
       6.90625 -1.8359375 1.65625 0.6640625 1.1640625 1.0703125 8.125 -0.35742188
000190 cb 40 8b bf 47 40 25 40 17 40 18 40 f4 40 fe 3d
       6.34375 -1.0859375 3.109375 2.578125 2.359375 2.375 7.625 0.12402344
0001a0 d5 40 f8 3d 0b 40 37 40 63 40 59 40 f7 40 d6 3e
       6.65625 0.12109375 2.171875 2.859375 3.546875 3.390625 7.71875 0.41796875
0001b0 07 41 53 3f 4d 3f 8e 3f 4a 40 3c 40 fb 40 82 3d
       8.4375 0.82421875 0.80078125 1.109375 3.15625 2.9375 7.84375 0.06347656
0001c0 cc 40 77 3c fb 3f 24 40 3f 40 49 40 fa 40 93 bd
       6.375 0.015075684 1.9609375 2.5625 2.984375 3.140625 7.8125 -0.071777344
0001d0 c0 40 6d 3e ce 3f df 3f 08 40 07 40 f2 40 96 be
       6.0 0.23144531 1.609375 1.7421875 2.125 2.109375 7.5625 -0.29296875
0001e0 fc 40 b5 be 7f 3f 4d 3e 93 3f be 3f f9 40 09 bf
       7.875 -0.35351562 0.99609375 0.20019531 1.1484375 1.484375 7.78125 -0.53515625
0001f0 d2 40 2b bf 05 40 e0 3f f9 3f 01 40 ef 40 24 bf
       6.5625 -0.66796875 2.078125 1.75 1.9453125 2.015625 7.46875 -0.640625
