mlsys26_contest/blob/workloads/gdn/gdn_prefill_qk4_v8_d128_k_last/gdn_prefill_qk4_v8_d128_k_last_db06869f-b23e-40c4-84c0-7092252062a8.safetensors (safetensors, 944 bytes, 4 tensors)

A_log f4 [8]
0	0x3fb20000	1.390625
1	0x3fa40000	1.28125
2	0x400a0000	2.15625
3	0x3e830000	0.25585938
4	0x3f9b0000	1.2109375
5	0xbf6e0000	-0.9296875
6	0x40000000	2.0
7	0xbf670000	-0.90234375

dt_bias f4 [8]
0	0xc0120000	-2.28125
1	0xc0530000	-3.296875
2	0xc07b0000	-3.921875
3	0xbfd10000	-1.6328125
4	0xc0540000	-3.3125
5	0x3fd30000	1.6484375
6	0xc0a70000	-5.21875
7	0xc0150000	-2.328125

a bf16 [17, 8]
0	0x3efe	0.49609375
1	0x3fbe	1.484375
2	0x3f47	0.77734375
3	0x3f92	1.140625
4	0x3fc4	1.53125
5	0x402c	2.6875
6	0x4029	2.640625
7	0x4060	3.5
8	0x3f8c	1.09375
9	0x3fab	1.3359375
10	0x4006	2.09375
11	0x400f	2.234375
12	0x3f81	1.0078125
13	0x3f5b	0.85546875
14	0x401c	2.4375
15	0x4061	3.515625
16	0x3e8c	0.2734375
17	0x3de8	0.11328125
18	0x3f5a	0.8515625
19	0x3f3e	0.7421875
20	0x3cf4	0.029785156
21	0x3e88	0.265625
22	0x3feb	1.8359375
23	0x4042	3.03125
24	0xbf55	-0.83203125
25	0xbfaa	-1.328125
26	0xbe8f	-0.27929688
27	0xbf0a	-0.5390625
28	0xbfbd	-1.4765625
29	0xbfcc	-1.59375
30	0xbe1a	-0.15039062
31	0x3f0c	0.546875
32	0xbf39	-0.72265625
33	0xbfd7	-1.6796875
34	0xbe49	-0.19628906
35	0xbf21	-0.62890625
36	0xbe25	-0.16113281
37	0xbe18	-0.1484375
38	0x3eac	0.3359375
39	0x3f7d	0.98828125
40	0x3e2c	0.16796875
41	0xbfa0	-1.25
42	0x3e86	0.26171875
43	0xbe8f	-0.27929688
44	0xbf2f	-0.68359375
45	0xbf4f	-0.80859375
46	0x3d8a	0.06738281
47	0x3f07	0.52734375
48	0xbf7f	-0.99609375
49	0xc006	-2.09375
50	0xbf4d	-0.80078125
51	0xbfbf	-1.4921875
52	0xbf9c	-1.21875
53	0xbfa8	-1.3125
54	0xbf44	-0.765625
55	0xbf15	-0.58203125
56	0xbf3f	-0.74609375
57	0xbfdc	-1.71875
58	0xbeb2	-0.34765625
59	0xbf87	-1.0546875
60	0xbf05	-0.51953125
61	0xbf95	-1.1640625
62	0xbf0e	-0.5546875
63	0xbf36	-0.7109375
64	0x3e62	0.22070312
65	0xbf49	-0.78515625
66	0xbe08	-0.1328125
67	0xbf64	-0.890625
68	0xbe17	-0.14746094
69	0x3f61	0.87890625
70	0x3f26	0.6484375
71	0x3ec9	0.39257812
72	0xbd07	-0.032958984
73	0xbf28	-0.65625
74	0x3d11	0.03540039
75	0xbf72	-0.9453125
76	0x3ec5	0.38476562
77	0x3f30	0.6875
78	0x3fe0	1.75
79	0x3fc0	1.5
80	0x3f12	0.5703125
81	0x3f65	0.89453125
82	0x3d9f	0.07763672
83	0xbec7	-0.38867188
84	0x3f40	0.75
85	0x3fd4	1.65625
86	0x402b	2.671875
87	0x4036	2.84375
88	0x3f66	0.8984375
89	0x3f1f	0.62109375
90	0x3f72	0.9453125
91	0x3f59	0.84765625
92	0x3ee8	0.453125
93	0x3f51	0.81640625
94	0x3fce	1.609375
95	0x4011	2.265625
96	0x3f03	0.51171875
97	0xbf0c	-0.546875
98	0x3ecf	0.40429688
99	0x3e8e	0.27734375
100	0x3e5b	0.21386719
101	0x3f87	1.0546875
102	0x3ec2	0.37890625
103	0x3e85	0.25976562
104	0x3f1d	0.61328125
105	0xbed0	-0.40625
106	0xbe1b	-0.15136719
107	0xbee0	-0.4375
108	0xbe96	-0.29296875
109	0xbe6a	-0.22851562
110	0x3eec	0.4609375
111	0x3ed9	0.42382812
112	0x3f0e	0.5546875
113	0xbeb9	-0.36132812
114	0xbf57	-0.83984375
115	0xbf95	-1.1640625
116	0xbeb6	-0.35546875
117	0xbe26	-0.16210938
118	0x3ead	0.33789062
119	0x3e5b	0.21386719
120	0x3eee	0.46484375
121	0xbfad	-1.3515625
122	0xbfa3	-1.2734375
123	0xbfc6	-1.546875
124	0xbf5a	-0.8515625
125	0xbf36	-0.7109375
126	0xbed8	-0.421875
127	0xbf3c	-0.734375
128	0x3f1b	0.60546875
129	0xbf86	-1.046875
130	0xbedf	-0.43554688
131	0xbfbf	-1.4921875
132	0xbe88	-0.265625
133	0x3ff1	1.8828125
134	0x3f7a	0.9765625
135	0x3f03	0.51171875

b bf16 [17, 8]
0	0x3eb5	0.35351562
1	0x3f20	0.625
2	0x3fb4	1.40625
3	0x3f61	0.87890625
4	0x4000	2.0
5	0x4027	2.609375
6	0x3f1d	0.61328125
7	0x3f60	0.875
8	0xbf07	-0.52734375
9	0x3f01	0.50390625
10	0x3f68	0.90625
11	0x3efc	0.4921875
12	0x3f88	1.0625
13	0x406b	3.671875
14	0x3f7d	0.98828125
15	0x3fa9	1.3203125
16	0x3e45	0.19238281
17	0x3ee2	0.44140625
18	0x3f32	0.6953125
19	0x3f80	1.0
20	0x3ffb	1.9609375
21	0x4061	3.515625
22	0x3fce	1.609375
23	0x3fd0	1.625
24	0xbe97	-0.29492188
25	0xbf8c	-1.09375
26	0xbd9b	-0.075683594
27	0x3e65	0.22363281
28	0x3fb4	1.40625
29	0x4080	4.0
30	0x3f75	0.95703125
31	0x3f4c	0.796875
32	0xbf4f	-0.80859375
33	0xc003	-2.046875
34	0xbf9f	-1.2421875
35	0xbf7b	-0.98046875
36	0x4008	2.125
37	0x4091	4.53125
38	0x3e33	0.17480469
39	0xbdda	-0.10644531
40	0xbead	-0.33789062
41	0xbfd5	-1.6640625
42	0x3f87	1.0546875
43	0x3fa5	1.2890625
44	0x403a	2.90625
45	0x4096	4.6875
46	0x3f4c	0.796875
47	0x3f61	0.87890625
48	0xbf11	-0.56640625
49	0xc007	-2.109375
50	0x3f29	0.66015625
51	0x3f3d	0.73828125
52	0x4026	2.59375
53	0x407e	3.96875
54	0x3ec9	0.39257812
55	0x3f26	0.6484375
56	0xbf2a	-0.6640625
57	0xc047	-3.109375
58	0x3e1b	0.15136719
59	0x3e72	0.23632812
60	0x4080	4.0
61	0x408b	4.34375
62	0x3e2d	0.16894531
63	0x3c4e	0.012573242
64	0x3fc3	1.5234375
65	0xbf22	-0.6328125
66	0x3f21	0.62890625
67	0x3f5c	0.859375
68	0x4017	2.359375
69	0x408e	4.4375
70	0x3e08	0.1328125
71	0x3ee5	0.44726562
72	0x3fb8	1.4375
73	0xbff7	-1.9296875
74	0x3f6b	0.91796875
75	0x3f8a	1.078125
76	0x407a	3.90625
77	0x408c	4.375
78	0x3f20	0.625
79	0x3f1e	0.6171875
80	0x3f1b	0.60546875
81	0xbc0e	-0.008666992
82	0x3f3d	0.73828125
83	0x3f1a	0.6015625
84	0x402b	2.671875
85	0x4096	4.6875
86	0x3fb6	1.421875
87	0x3fba	1.453125
88	0x3e90	0.28125
89	0x3f45	0.76953125
90	0x3f38	0.71875
91	0x3f4d	0.80078125
92	0x403a	2.90625
93	0x40a6	5.1875
94	0x3fbc	1.46875
95	0x3fed	1.8515625
96	0x3e0a	0.13476562
97	0xbdfa	-0.12207031
98	0x3e88	0.265625
99	0x3e75	0.23925781
100	0x4061	3.515625
101	0x408d	4.40625
102	0x3f13	0.57421875
103	0x3f31	0.69140625
104	0x3f3c	0.734375
105	0xbef3	-0.47460938
106	0x3f6a	0.9140625
107	0x3f89	1.0703125
108	0x4036	2.84375
109	0x4099	4.78125
110	0x3f90	1.125
111	0x3f8a	1.078125
112	0xbd18	-0.037109375
113	0x3ecc	0.3984375
114	0xbe8f	-0.27929688
115	0x3e10	0.140625
116	0x4060	3.5
117	0x40a4	5.125
118	0x3fa3	1.2734375
119	0x3f97	1.1796875
120	0xbd32	-0.04345703
121	0xbe4e	-0.20117188
122	0xbe8d	-0.27539062
123	0xbdce	-0.10058594
124	0x4026	2.59375
125	0x4096	4.6875
126	0x3f6a	0.9140625
127	0x3f32	0.6953125
128	0x3e9a	0.30078125
129	0x3db0	0.0859375
130	0x3df7	0.12060547
131	0x3e9c	0.3046875
132	0x404e	3.21875
133	0x4093	4.59375
134	0xbe87	-0.26367188
135	0xbeac	-0.3359375
