mlsys26_contest/blob/workloads/gdn/gdn_prefill_qk4_v8_d128_k_last/gdn_prefill_qk4_v8_d128_k_last_e42f20b5-1f3e-468e-989c-cf5dc8f9bc69.safetensors (safetensors, 67672 bytes, 4 tensors)

A_log f4 [8]
1.078125 -0.114746094 0.057861328 0.53515625 3.296875 0.026855469 -0.47070312 1.90625
00000000: 0000 8a3f 0000 ebbd 0000 6d3d 0000 093f
00000010: 0000 5340 0000 dc3c 0000 f1be 0000 f43f

dt_bias f4 [8]
-7.78125 -6.25 -3.375 -3.65625 -5.6875 -6.71875 -3.40625 -5.28125
00000000: 0000 f9c0 0000 c8c0 0000 58c0 0000 6ac0
00000010: 0000 b6c0 0000 d7c0 0000 5ac0 0000 a9c0

a bf16 [2101, 8]
5.59375 4.09375 2.359375 1.671875 1.140625 2.796875 3.40625 1.2265625
3.03125 3.421875 2.234375 1.7109375 1.7421875 1.625 3.03125 2.0
1.875 2.1875 1.9609375 1.4140625 1.515625 0.33203125 1.9140625 1.3984375
1.828125 2.15625 3.34375 2.5 1.34375 -0.8984375 1.5703125 0.18066406
1.8828125 3.109375 1.1953125 0.984375 1.3125 -0.56640625 2.15625 1.34375
0.94921875 0.5078125 1.1484375 0.63671875 0.045410156 -2.796875 -0.9375 -0.7734375
2.640625 3.703125 0.34179688 -0.14746094 1.0078125 0.98828125 2.625 1.421875
1.25 2.265625 0.45507812 0.05126953 0.27929688 -0.71484375 0.328125 -0.33203125
0.56640625 1.296875 0.36328125 0.51171875 -0.45703125 -1.921875 -1.015625 -0.90234375
-0.06298828 0.8671875 -0.390625 -0.48242188 -0.87109375 -1.765625 -1.1640625 -1.5703125
1.390625 2.296875 1.421875 1.3984375 0.8125 -1.0 -0.97265625 -1.3125
2.328125 3.03125 -1.0 -0.63671875 0.15429688 0.703125 1.453125 0.86328125
1.9453125 2.828125 -1.4921875 -1.3984375 0.28710938 1.015625 0.22265625 -0.17382812
0.78125 1.3671875 -0.859375 -1.3125 0.109375 0.22070312 -0.15234375 -0.8125
0.19628906 0.9921875 -1.7421875 -2.078125 -0.88671875 -0.61328125 -0.71484375 -1.5
1.4609375 1.4921875 -0.5859375 -1.234375 -0.28515625 0.40625 -0.96875 -1.890625
2.0625 2.078125 -1.5078125 -1.9375 -0.96484375 2.5 -0.84765625 -1.1015625
0.76953125 1.015625 -1.0234375 -1.3671875 -0.453125 -0.5234375 -1.09375 -1.546875
2.375 3.078125 -1.5234375 -1.859375 -0.8515625 2.734375 0.3359375 0.087402344
1.5078125 2.0625 -0.80859375 -1.2265625 -1.140625 2.96875 -0.12451172 -0.28710938
0.51953125 1.0390625 -1.578125 -2.09375 -1.6328125 2.125 -1.5078125 -1.625
1.9921875 1.921875 -0.24121094 -0.90234375 0.21679688 1.53125 -1.4140625 -1.8203125
-0.004180908 0.21875 -1.1015625 -1.453125 -1.8125 0.28515625 -0.65625 -0.91796875
-0.0015792847 0.734375 -1.5625 -2.046875 -2.21875 0.57421875 -1.2890625 -1.2734375
1.328125 2.046875 -0.14648438 -0.609375 -1.5859375 3.75 -0.45898438 -0.6015625
0.23730469 0.86328125 0.46289062 -0.09863281 -0.625 2.171875 0.0023498535 0.055419922
0.69921875 1.1953125 0.037109375 -0.296875 -0.4765625 0.5859375 -0.31445312 -0.30664062
0.359375 0.09326172 2.171875 1.703125 1.5 -1.234375 0.72265625 0.47265625
-0.3984375 -0.46875 1.609375 0.765625 0.84765625 -2.15625 -1.109375 -1.3515625
0.28515625 -0.23925781 2.203125 1.546875 0.9453125 -1.1796875 -1.8671875 -2.109375
0.81640625 0.7734375 -1.5625 -2.078125 -0.43164062 2.859375 -0.8515625 -1.2734375
0.94140625 0.953125 1.5078125 1.390625 0.57421875 -0.66015625 -1.1953125 -1.3515625
00000000: b340 8340 1740 d63f 923f 3340 5a40 9d3f
00000010: 4240 5b40 0f40 db3f df3f d03f 4240 0040
00000020: f03f 0c40 fb3f b53f c23f aa3e f53f b33f
00000030: ea3f 0a40 5640 2040 ac3f 66bf c93f 393e
00000040: f13f 4740 993f 7c3f a83f 11bf 0a40 ac3f
00000050: 733f 023f 933f 233f 3a3d 33c0 70bf 46bf
00000060: 2940 6d40 af3e 17be 813f 7d3f 2840 b63f
00000070: a03f 1140 e93e 523d 8f3e 37bf a83e aabe
00000080: 113f a63f ba3e 033f eabe f6bf 82bf 67bf
00000090: 81bd 5e3f c8be f7be 5fbf e2bf 95bf c9bf
000000a0: b23f 1340 b63f b33f 503f 80bf 79bf a8bf
000000b0: 1540 4240 80bf 23bf 1e3e 343f ba3f 5d3f
000000c0: f93f 3540 bfbf b3bf 933e 823f 643e 32be
000000d0: 483f af3f 5cbf a8bf e03d 623e 1cbe 50bf
000000e0: 493e 7e3f dfbf 05c0 63bf 1dbf 37bf c0bf
000000f0: bb3f bf3f 16bf 9ebf 92be d03e 78bf f2bf
00000100: 0440 0540 c1bf f8bf 77bf 2040 59bf 8dbf
00000110: 453f 823f 83bf afbf e8be 06bf 8cbf c6bf
00000120: 1840 4540 c3bf eebf 5abf 2f40 ac3e b33d
00000130: c13f 0440 4fbf 9dbf 92bf 3e40 ffbd 93be
00000140: 053f 853f cabf 06c0 d1bf 0840 c1bf d0bf
00000150: ff3f f63f 77be 67bf 5e3e c43f b5bf e9bf
00000160: 89bb 603e 8dbf babf e8bf 923e 28bf 6bbf
00000170: cfba 3c3f c8bf 03c0 0ec0 133f a5bf a3bf
00000180: aa3f 0340 16be 1cbf cbbf 7040 ebbe 1abf
00000190: 733e 5d3f ed3e cabd 20bf 0b40 1a3b 633d
000001a0: 333f 993f 183d 98be f4be 163f a1be 9dbe
000001b0: b83e bf3d 0b40 da3f c03f 9ebf 393f f23e
000001c0: ccbe f0be ce3f 443f 593f 0ac0 8ebf adbf
000001d0: 923e 75be 0d40 c63f 723f 97bf efbf 07c0
000001e0: 513f 463f c8bf 05c0 ddbe 3740 5abf a3bf
000001f0: 713f 743f c13f b23f 133f 29bf 99bf adbf

b bf16 [2101, 8]
2.9375 -0.9609375 3.15625 3.828125 -2.859375 4.6875 -0.52734375 -0.25585938
0.5859375 0.90234375 0.54296875 -0.17773438 -0.953125 0.0056152344 0.51953125 0.640625
-0.07861328 0.24511719 0.6015625 -0.38085938 -1.5859375 -1.3125 -0.6640625 -0.625
-0.53515625 -0.23828125 3.859375 2.234375 -0.8359375 -1.6875 -0.73046875 -0.33398438
-0.6171875 -0.35351562 1.2578125 -0.17871094 0.13378906 -1.90625 1.0546875 1.1328125
-0.19140625 -0.21679688 3.265625 2.28125 -0.765625 -1.296875 -0.118652344 0.17285156
-1.171875 -0.84375 0.87109375 -0.31445312 0.10595703 -2.828125 0.8125 0.8515625
-1.0390625 -0.71484375 0.45703125 -0.65234375 -0.68359375 -1.4296875 0.1796875 0.1796875
-0.78515625 -0.43554688 0.24707031 -0.44140625 -1.2890625 -1.5546875 -0.82421875 -0.5234375
-1.078125 -0.88671875 -0.22363281 -1.3515625 -1.109375 -2.5 -0.62109375 -0.40625
-0.94140625 -0.43359375 2.1875 1.984375 -1.6953125 -1.7734375 -0.7578125 -0.50390625
-0.390625 -0.018920898 1.0859375 0.6796875 0.76953125 -1.46875 1.390625 1.4765625
-0.03515625 0.61328125 0.640625 0.0025024414 -0.068359375 -0.76953125 0.33007812 0.546875
-0.078125 0.38867188 0.9609375 0.80078125 -0.515625 -1.2578125 0.14355469 0.24902344
-0.32421875 0.07373047 0.39453125 0.31640625 -0.77734375 -2.265625 -0.24609375 -0.022216797
-0.7421875 -0.3203125 0.890625 0.16894531 -1.0390625 -1.9375 -0.29882812 -0.14355469
-0.640625 -0.1484375 0.4375 -0.41992188 -1.09375 -1.6640625 -0.8515625 -0.62890625
-0.8984375 -0.71484375 0.71875 0.8515625 -1.5546875 -0.828125 -0.77734375 -0.6796875
-0.6640625 -0.2265625 1.1953125 0.546875 -0.33789062 -1.40625 -0.15234375 0.012634277
-0.45117188 0.057373047 1.6171875 0.6328125 -0.9921875 -0.58984375 -0.4609375 -0.22460938
-0.42578125 0.19042969 0.62109375 -0.115234375 -1.4140625 -0.62890625 -0.26953125 0.036132812
-0.1953125 0.083496094 1.0546875 0.3671875 -2.3125 0.044921875 -1.171875 -0.99609375
-0.609375 -0.44335938 2.140625 1.1015625 -1.7578125 -0.53515625 -1.0625 -0.85546875
-0.5546875 -0.15039062 0.84765625 0.29296875 -1.3515625 -0.71484375 -0.64453125 -0.31640625
-1.0 -0.47070312 1.5859375 0.71875 -1.6875 -1.0078125 -1.046875 -0.7109375
-0.41601562 -0.14453125 2.15625 1.34375 -2.03125 1.4453125 -0.49414062 -0.35742188
0.24511719 0.27929688 1.1328125 0.95703125 -1.265625 0.6875 0.28515625 0.39453125
-0.18066406 0.2265625 1.6875 1.0 -1.0546875 -0.546875 0.20019531 0.375
-0.38671875 0.08496094 2.609375 1.21875 -0.6640625 -1.6875 -0.46875 -0.39453125
-0.60546875 -0.23242188 3.359375 2.125 -1.7578125 -2.453125 -1.7890625 -1.5546875
-0.90234375 -0.57421875 1.5703125 0.6015625 0.34570312 -2.234375 0.67578125 0.828125
-0.578125 -0.19628906 2.984375 2.296875 -1.7265625 -0.20019531 -0.89453125 -0.6640625
00000000: 3c40 76bf 4a40 7540 37c0 9640 07bf 83be
00000010: 163f 673f 0b3f 36be 74bf b83b 053f 243f
00000020: a1bd 7b3e 1a3f c3be cbbf a8bf 2abf 20bf
00000030: 09bf 74be 7740 0f40 56bf d8bf 3bbf abbe
00000040: 1ebf b5be a13f 37be 093e f4bf 873f 913f
00000050: 44be 5ebe 5140 1240 44bf a6bf f3bd 313e
00000060: 96bf 58bf 5f3f a1be d93d 35c0 503f 5a3f
00000070: 85bf 37bf ea3e 27bf 2fbf b7bf 383e 383e
00000080: 49bf dfbe 7d3e e2be a5bf c7bf 53bf 06bf
00000090: 8abf 63bf 65be adbf 8ebf 20c0 1fbf d0be
000000a0: 71bf debe 0c40 fe3f d9bf e3bf 42bf 01bf
000000b0: c8be 9bbc 8b3f 2e3f 453f bcbf b23f bd3f
000000c0: 10bd 1d3f 243f 243b 8cbd 45bf a93e 0c3f
000000d0: a0bd c73e 763f 4d3f 04bf a1bf 133e 7f3e
000000e0: a6be 973d ca3e a23e 47bf 11c0 7cbe b6bc
000000f0: 3ebf a4be 643f 2d3e 85bf f8bf 99be 13be
00000100: 24bf 18be e03e d7be 8cbf d5bf 5abf 21bf
00000110: 66bf 37bf 383f 5a3f c7bf 54bf 47bf 2ebf
00000120: 2abf 68be 993f 0c3f adbe b4bf 1cbe 4f3c
00000130: e7be 6b3d cf3f 223f 7ebf 17bf ecbe 66be
00000140: dabe 433e 1f3f ecbd b5bf 21bf 8abe 143d
00000150: 48be ab3d 873f bc3e 14c0 383d 96bf 7fbf
00000160: 1cbf e3be 0940 8d3f e1bf 09bf 88bf 5bbf
00000170: 0ebf 1abe 593f 963e adbf 37bf 25bf a2be
00000180: 80bf f1be cb3f 383f d8bf 81bf 86bf 36bf
00000190: d5be 14be 0a40 ac3f 02c0 b93f fdbe b7be
000001a0: 7b3e 8f3e 913f 753f a2bf 303f 923e ca3e
000001b0: 39be 683e d83f 803f 87bf 0cbf 4d3e c03e
000001c0: c6be ae3d 2740 9c3f 2abf d8bf f0be cabe
000001d0: 1bbf 6ebe 5740 0840 e1bf 1dc0 e5bf c7bf
000001e0: 67bf 13bf c93f 1a3f b13e 0fc0 2d3f 543f
000001f0: 14bf 49be 3f40 1340 ddbf 4dbe 65bf 2abf
