mlsys26_contest/blob/workloads/gdn/gdn_prefill_qk4_v8_d128_k_last/gdn_prefill_qk4_v8_d128_k_last_35d6fdb4-cac3-4877-b790-009f50392f8a.safetensors (safetensors, 3064 bytes, 4 tensors)

A_log f4 [8]
00000000: 0000 86bf 0000 06bf 0000 eabf 0000 94bf
00000010: 0000 c8bc 0000 923e 0000 ffbf 0000 00c0
-1.046875 -0.5234375 -1.828125 -1.15625 -0.024414062 0.28515625 -1.9921875 -2.0

dt_bias f4 [8]
00000000: 0000 a8c0 0000 b8c0 0000 01c0 0000 54c0
00000010: 0000 c8c0 0000 d5c0 0000 63bf 0000 22bf
-5.25 -5.75 -2.015625 -3.3125 -6.25 -6.65625 -0.88671875 -0.6328125

a bf16 [83, 8]
00000000: 3f41 0b41 c340 c940 8940 8e40 9c40 9540
00000010: cb40 5d40 8140 7140 1b3f 753f 3840 2240
00000020: 7640 0a40 1440 0e40 98be cc3c 8f3e 1fbe
00000030: a940 5240 ae3f e03f b53f d63f 30be 4abe
00000040: c240 5a40 6640 6b40 3d3f 8c3f 0340 fe3f
00000050: a040 1c40 1740 1940 383f 843f 283f 133f
00000060: ac40 0340 3c40 3740 0140 1440 9a3f e23f
00000070: 8c40 1040 5d40 5040 31bd 073e 1840 0c40
00000080: a240 3640 2340 2640 833f a03f 0040 0f40
00000090: 2c40 893f b13f d03f 973e 973d 10be 14bd
000000a0: 9440 9b3f b53e 943f cc3f b63f 3fbf b8bf
000000b0: 9640 3c40 953d 603f d33f d93f c3bf febf
000000c0: 8840 d73f 3f3e 2c3f 383f c03e a4bf cbbf
000000d0: a240 7740 4940 5240 9c3f a73f 913f 893f
000000e0: 5340 c23f 2f40 3e40 6fbf 3abf 3a3f fe3e
000000f0: e83f a43f f93f 0940 bbbf acbf 3fbf 6cbf
00000100: ec3f 07be 2d3f 8d3f febf ddbf 20c0 33c0
00000110: d83f d13f c53f f53f e0bf b9bf 96bf ddbf
00000120: 0f40 693f 373f 893f 93be 27be 1fc0 36c0
00000130: 1d40 f8bc e23f ee3f 873e ad3e fd3c 793e
00000140: 3140 d73f 2d3f a43f 153e cabe 7fbf 81bf
00000150: 8a3f bf3f 3e3e 283f f5bf ffbf 1cc0 22c0
00000160: 403f 783f a53d 033f 67bf 8dbf b8bf 95bf
00000170: e63e 913f 92bf d8be 39bf 85bf 4ac0 67c0
00000180: 1f40 93be 1e3f 953f e9be b4bc ddbe aebe
00000190: 0f40 b53f 9a3f cc3f 73bf 6bbf f3bf f1bf
000001a0: 0440 c23f 1a40 3440 89bf 84bf 5ebf abbf
000001b0: ec3f 993f ea3f 1540 dcbf 95bf 0cbf febe
000001c0: 863f 3a3f a93f f53f febf b7bf 8ebf 9dbf
000001d0: e13f 443f 073f 2c3f debf a4bf 23c0 1bc0
000001e0: 563f 57bf a9bf 42bf adbf 4dbf 81c0 6ec0
000001f0: 9f3f 343f a83e 683f b9bf 6ebf 36c0 30c0
11.9375 8.6875 6.09375 6.28125 4.28125 4.4375 4.875 4.65625
6.34375 3.453125 4.03125 3.765625 0.60546875 0.95703125 2.875 2.53125
3.84375 2.15625 2.3125 2.21875 -0.296875 0.024902344 0.27929688 -0.15527344
5.28125 3.28125 1.359375 1.75 1.4140625 1.671875 -0.171875 -0.19726562
6.0625 3.40625 3.59375 3.671875 0.73828125 1.09375 2.046875 1.984375
5.0 2.4375 2.359375 2.390625 0.71875 1.03125 0.65625 0.57421875
5.375 2.046875 2.9375 2.859375 2.015625 2.3125 1.203125 1.765625
4.375 2.25 3.453125 3.25 -0.04321289 0.13183594 2.375 2.1875
5.0625 2.84375 2.546875 2.59375 1.0234375 1.25 2.0 2.234375
2.6875 1.0703125 1.3828125 1.625 0.29492188 0.07373047 -0.140625 -0.036132812
4.625 1.2109375 0.35351562 1.15625 1.59375 1.421875 -0.74609375 -1.4375
4.6875 2.9375 0.072753906 0.875 1.6484375 1.6953125 -1.5234375 -1.984375
4.25 1.6796875 0.18652344 0.671875 0.71875 0.375 -1.28125 -1.5859375
5.0625 3.859375 3.140625 3.28125 1.21875 1.3046875 1.1328125 1.0703125
3.296875 1.515625 2.734375 2.96875 -0.93359375 -0.7265625 0.7265625 0.49609375
1.8125 1.28125 1.9453125 2.140625 -1.4609375 -1.34375 -0.74609375 -0.921875
1.84375 -0.13183594 0.67578125 1.1015625 -1.984375 -1.7265625 -2.5 -2.796875
1.6875 1.6328125 1.5390625 1.9140625 -1.75 -1.4453125 -1.171875 -1.7265625
2.234375 0.91015625 0.71484375 1.0703125 -0.28710938 -0.16308594 -2.484375 -2.84375
2.453125 -0.030273438 1.765625 1.859375 0.26367188 0.33789062 0.030883789 0.24316406
2.765625 1.6796875 0.67578125 1.28125 0.14550781 -0.39453125 -0.99609375 -1.0078125
1.078125 1.4921875 0.18554688 0.65625 -1.9140625 -1.9921875 -2.4375 -2.53125
0.75 0.96875 0.080566406 0.51171875 -0.90234375 -1.1015625 -1.4375 -1.1640625
0.44921875 1.1328125 -1.140625 -0.421875 -0.72265625 -1.0390625 -3.15625 -3.609375
2.484375 -0.28710938 0.6171875 1.1640625 -0.45507812 -0.021972656 -0.43164062 -0.33984375
2.234375 1.4140625 1.203125 1.59375 -0.94921875 -0.91796875 -1.8984375 -1.8828125
2.0625 1.515625 2.40625 2.8125 -1.0703125 -1.03125 -0.8671875 -1.3359375
1.84375 1.1953125 1.828125 2.328125 -1.71875 -1.1640625 -0.546875 -0.49609375
1.046875 0.7265625 1.3203125 1.9140625 -1.984375 -1.4296875 -1.109375 -1.2265625
1.7578125 0.765625 0.52734375 0.671875 -1.734375 -1.28125 -2.546875 -2.421875
0.8359375 -0.83984375 -1.3203125 -0.7578125 -1.3515625 -0.80078125 -4.03125 -3.71875
1.2421875 0.703125 0.328125 0.90625 -1.4453125 -0.9296875 -2.84375 -2.75

b bf16 [83, 8]
00000000: a040 2a40 d33f ee3f 8840 8740 d93f ed3f
00000010: 0d40 303f 063f bb3e 9cbe 7dbe 413f 533f
00000020: e63e 56be 4f3e 9c3d 75bf a8bf cb3d e63c
00000030: 393f d7be d63f c93f 933d 1ebe ab3f 8e3f
00000040: ed3f 10be eebe b5be b7bf c9bf aabe e4be
00000050: 493f 28bf ac3f b83f 82be 5ebe ab3f 9b3f
00000060: 9d3f 44be fabc b0bd e9bf fcbf 8f3b a8be
00000070: b63f 48be 3a3f 3f3f 50bf 93bf 583f 3e3f
00000080: 9a3f 3bbf a3be c7be 0ac0 c7bf ebbd c03d
00000090: f23b 48bf 0c40 0e40 a2bf 8ebf 1a40 2440
000000a0: 7a3f d5be a4bd 06be 53bf c4bf f43e 3a3f
000000b0: 143f 37bf 003f 0b3f e0bf 92bf ad3f 9c3f
000000c0: 18be 83bf c0be b3be 82bf 24c0 b0bd 4dbe
000000d0: a03e dabe b0bc 37bd d23f d13f 19bc 0abd
000000e0: 343f 143e 333f 253f 4fbf 49bf 2b3f 0e3f
000000f0: d7bd c9be 413f 273f 95bf 9dbf 483f ed3e
00000100: 30bf 60bf 813f 733f 7cbf 96bf 193f d93e
00000110: fb3d 17bf cb3e 8b3e 0bc0 24c0 f33e a33e
00000120: 2cbf 8fbf fd3d 96bd 64bf 85bf e5bd 65be
00000130: 16be 47bf e13f d53f 7fbf 26bf d53f ee3f
00000140: 6e3d 47bf 843f 803f 0dbf 06c0 893f 8e3f
00000150: 06bf 70bf 7e3e d63d d3bf f4bf 513d a6bd
00000160: 05bf 0ebf 993f 8d3f 14c0 16c0 a03f 8b3f
00000170: aebf 81bf 25be 6dbe 83bf 83bf a83e 673d
00000180: 2abf a1bf 1f3f 0f3f 97be 21be ac3f a53f
00000190: 13bf 4cbf 11be 2cbe 77bf c3bf cfbe 01bf
000001a0: 31bf 5ebf 223f 183f a13e 1c3e c33e e53e
000001b0: d6bd 63bf 67bd 54bd 06c0 69bf 003e b7bd
000001c0: 80bf 9ebf fd3f ff3f a2bf adbf f83f f13f
000001d0: 5bbf 9fbf 8e3e c83d 97bf 77bf a33e 063e
000001e0: c4bf b4bf 063e 613d eebf c8bf fa3e 173f
000001f0: ddbf 84bf 16bf 58bf 15c0 7cbf 8cbf 8dbf
5.0 2.65625 1.6484375 1.859375 4.25 4.21875 1.6953125 1.8515625
2.203125 0.6875 0.5234375 0.36523438 -0.3046875 -0.24707031 0.75390625 0.82421875
0.44921875 -0.20898438 0.20214844 0.076171875 -0.95703125 -1.3125 0.099121094 0.028076172
0.72265625 -0.41992188 1.671875 1.5703125 0.071777344 -0.15429688 1.3359375 1.109375
1.8515625 -0.140625 -0.46484375 -0.35351562 -1.4296875 -1.5703125 -0.33203125 -0.4453125
0.78515625 -0.65625 1.34375 1.4375 -0.25390625 -0.21679688 1.3359375 1.2109375
1.2265625 -0.19140625 -0.030517578 -0.0859375 -1.8203125 -1.96875 0.0043640137 -0.328125
1.421875 -0.1953125 0.7265625 0.74609375 -0.8125 -1.1484375 0.84375 0.7421875
1.203125 -0.73046875 -0.31835938 -0.38867188 -2.15625 -1.5546875 -0.114746094 0.09375
0.007385254 -0.78125 2.1875 2.21875 -1.265625 -1.109375 2.40625 2.5625
0.9765625 -0.41601562 -0.080078125 -0.13085938 -0.82421875 -1.53125 0.4765625 0.7265625
0.578125 -0.71484375 0.5 0.54296875 -1.75 -1.140625 1.3515625 1.21875
-0.1484375 -1.0234375 -0.375 -0.34960938 -1.015625 -2.5625 -0.0859375 -0.20019531
0.3125 -0.42578125 -0.021484375 -0.044677734 1.640625 1.6328125 -0.009338379 -0.033691406
0.703125 0.14453125 0.69921875 0.64453125 -0.80859375 -0.78515625 0.66796875 0.5546875
-0.10498047 -0.39257812 0.75390625 0.65234375 -1.1640625 -1.2265625 0.78125 0.46289062
-0.6875 -0.875 1.0078125 0.94921875 -0.984375 -1.171875 0.59765625 0.42382812
0.122558594 -0.58984375 0.39648438 0.27148438 -2.171875 -2.5625 0.47460938 0.31835938
-0.671875 -1.1171875 0.123535156 -0.07324219 -0.890625 -1.0390625 -0.111816406 -0.22363281
-0.14648438 -0.77734375 1.7578125 1.6640625 -0.99609375 -0.6484375 1.6640625 1.859375
0.05810547 -0.77734375 1.03125 1.0 -0.55078125 -2.09375 1.0703125 1.109375
-0.5234375 -0.9375 0.24804688 0.10449219 -1.6484375 -1.90625 0.05102539 -0.08105469
-0.51953125 -0.5546875 1.1953125 1.1015625 -2.3125 -2.34375 1.25 1.0859375
-1.359375 -1.0078125 -0.16113281 -0.23144531 -1.0234375 -1.0234375 0.328125 0.056396484
-0.6640625 -1.2578125 0.62109375 0.55859375 -0.29492188 -0.15722656 1.34375 1.2890625
-0.57421875 -0.796875 -0.14160156 -0.16796875 -0.96484375 -1.5234375 -0.40429688 -0.50390625
-0.69140625 -0.8671875 0.6328125 0.59375 0.31445312 0.15234375 0.38085938 0.44726562
-0.10449219 -0.88671875 -0.056396484 -0.051757812 -2.09375 -0.91015625 0.125 -0.08935547
-1.0 -1.234375 1.9765625 1.9921875 -1.265625 -1.3515625 1.9375 1.8828125
-0.85546875 -1.2421875 0.27734375 0.09765625 -1.1796875 -0.96484375 0.31835938 0.13085938
-1.53125 -1.40625 0.13085938 0.05493164 -1.859375 -1.5625 0.48828125 0.58984375
-1.7265625 -1.03125 -0.5859375 -0.84375 -2.328125 -0.984375 -1.09375 -1.1015625
