mlsys26_contest/blob/workloads/gdn/gdn_prefill_qk4_v8_d128_k_last/gdn_prefill_qk4_v8_d128_k_last_6640985a-f059-4792-89e6-756dad4ce970.safetensors (safetensors, 26752 bytes, 4 tensors)

A_log f4 [8]
00000000: 0000 8a3f 0000 ebbd 0000 6d3d 0000 093f
00000010: 0000 5340 0000 dc3c 0000 f1be 0000 f43f
1.078125 -0.114746094 0.057861328 0.53515625 3.296875 0.026855469 -0.47070312 1.90625

dt_bias f4 [8]
00000000: 0000 f9c0 0000 c8c0 0000 58c0 0000 6ac0
00000010: 0000 b6c0 0000 d7c0 0000 5ac0 0000 a9c0
-7.78125 -6.25 -3.375 -3.65625 -5.6875 -6.71875 -3.40625 -5.28125

a bf16 [823, 8]
00000000: b440 8440 1540 d43f 8e3f 3040 5640 963f
00000010: 1140 5b40 8e3f 443f b03f e93f e33f 543f
00000020: 1540 3940 ba3f 8b3f 563f 2f40 1a40 c63f
00000030: 1140 1e40 f23e 46bd 833e 4640 883f 433e
00000040: 983f ff3f ddbe 44bf 263e 963f 483f f93c
00000050: d43e db3f 933f f43e 2d3f dd3e c33f dd3e
00000060: 963f 1140 993f 383f b53f 5c3f 0540 513f
00000070: 2740 4b40 fc3f 973f a73f b73e e73f cb3e
00000080: 0140 3b40 7a3e 23be ff3e c0bc 943f 5a3e
00000090: c43f 2c40 04bf 4fbf 173e 0f40 a53f ec3e
000000a0: da3e cf3f 0cbe c8be 39be fa3e 0f3b 5bbf
000000b0: eebe e63e 7fbd 28bf b7be 32bf 6bbf d4bf
000000c0: 7b3f c03f 14be 8fbf e3bd 0340 1d3e 83bf
000000d0: e03f fb3f 933f a83d 1e3f d2be 1ebf aabf
000000e0: fc3f 3140 3640 ee3f c33f f9be 8a3f 1e3e
000000f0: ee3f 3640 f0bb 9abe 1f3f 11be 513e 83bf
00000100: f53f 2140 12bf 2cbf 2b3e 50bf 82be 86bf
00000110: 8b3e 983f 62be 8cbd 28be e5be ffbe 8bbf
00000120: 903f ff3f a7bf c6bf 77bf 28ba f3bc fabe
00000130: 2bbe 2f3f 3ebf 64bf 56bf acbf a6bf c5bf
00000140: 1abf 47be 8bbf b8bf 24be 4fbf f1bf 2dc0
00000150: db3f 1440 d7be 71bf f4be 3740 dc3d 27be
00000160: 0e3f 983f fabd ddbe afbe 3840 1fbe d8be
00000170: a03f 0b40 ac3d babe e03e 743f 1c3e 39bf
00000180: d03f 0c40 903e edbe 5abe 44bd babf 03c0
00000190: 503e a33f 2cbe febe 583f b63c a93e 2cbf
000001a0: 923f 2540 f0be 5dbf afbe 44be 5bbf a4bf
000001b0: 063e 8e3e 1b3e a9be ad3d 76bf 72bf c7bf
000001c0: 173e 59be 923f 1b3f 6e3f 97bf 8bbf a9bf
000001d0: debd b8bd 9abe d8be 023f c6bf c3bf 12c0
000001e0: 1e3f 8e3f 26bf 22bf a0be 28bf e7be a3bf
000001f0: 5a3e f33e 92bf c3bf 38bf 00bf f4bf 06c0
5.625 4.125 2.328125 1.65625 1.109375 2.75 3.34375 1.171875
2.265625 3.421875 1.109375 0.765625 1.375 1.8203125 1.7734375 0.828125
2.328125 2.890625 1.453125 1.0859375 0.8359375 2.734375 2.40625 1.546875
2.265625 2.46875 0.47265625 -0.048339844 0.25585938 3.09375 1.0625 0.19042969
1.1875 1.9921875 -0.43164062 -0.765625 0.16210938 1.171875 0.78125 0.030395508
0.4140625 1.7109375 1.1484375 0.4765625 0.67578125 0.43164062 1.5234375 0.43164062
1.171875 2.265625 1.1953125 0.71875 1.4140625 0.859375 2.078125 0.81640625
2.609375 3.171875 1.96875 1.1796875 1.3046875 0.35742188 1.8046875 0.39648438
2.015625 2.921875 0.24414062 -0.15917969 0.49804688 -0.0234375 1.15625 0.21289062
1.53125 2.6875 -0.515625 -0.80859375 0.14746094 2.234375 1.2890625 0.4609375
0.42578125 1.6171875 -0.13671875 -0.390625 -0.18066406 0.48828125 0.0021820068 -0.85546875
-0.46484375 0.44921875 -0.06225586 -0.65625 -0.35742188 -0.6953125 -0.91796875 -1.65625
0.98046875 1.5 -0.14453125 -1.1171875 -0.110839844 2.046875 0.15332031 -1.0234375
1.75 1.9609375 1.1484375 0.08203125 0.6171875 -0.41015625 -0.6171875 -1.328125
1.96875 2.765625 2.84375 1.859375 1.5234375 -0.48632812 1.078125 0.15429688
1.859375 2.84375 -0.0073242188 -0.30078125 0.62109375 -0.14160156 0.20410156 -1.0234375
1.9140625 2.515625 -0.5703125 -0.671875 0.16699219 -0.8125 -0.25390625 -1.046875
0.27148438 1.1875 -0.22070312 -0.068359375 -0.1640625 -0.44726562 -0.49804688 -1.0859375
1.125 1.9921875 -1.3046875 -1.546875 -0.96484375 -0.00064086914 -0.029663086 -0.48828125
-0.16699219 0.68359375 -0.7421875 -0.890625 -0.8359375 -1.34375 -1.296875 -1.5390625
-0.6015625 -0.19433594 -1.0859375 -1.4375 -0.16015625 -0.80859375 -1.8828125 -2.703125
1.7109375 2.3125 -0.41992188 -0.94140625 -0.4765625 2.859375 0.107421875 -0.16308594
0.5546875 1.1875 -0.12207031 -0.43164062 -0.34179688 2.875 -0.15527344 -0.421875
1.25 2.171875 0.083984375 -0.36328125 0.4375 0.953125 0.15234375 -0.72265625
1.625 2.1875 0.28125 -0.46289062 -0.21289062 -0.047851562 -1.453125 -2.046875
0.203125 1.2734375 -0.16796875 -0.49609375 0.84375 0.022216797 0.33007812 -0.671875
1.140625 2.578125 -0.46875 -0.86328125 -0.34179688 -0.19140625 -0.85546875 -1.28125
0.13085938 0.27734375 0.15136719 -0.33007812 0.084472656 -0.9609375 -0.9453125 -1.5546875
0.14746094 -0.21191406 1.140625 0.60546875 0.9296875 -1.1796875 -1.0859375 -1.3203125
-0.10839844 -0.08984375 -0.30078125 -0.421875 0.5078125 -1.546875 -1.5234375 -2.28125
0.6171875 1.109375 -0.6484375 -0.6328125 -0.3125 -0.65625 -0.45117188 -1.2734375
0.21289062 0.47460938 -1.140625 -1.5234375 -0.71875 -0.5 -1.90625 -2.09375

b bf16 [823, 8]
00000000: 3d40 79bf 4b40 7740 36c0 9740 0bbf 8fbe
00000010: 503f 9a3f b43f 0f3f 80bf 943e 1e3f 423f
00000020: 563e 2e3f 2540 ca3f 90bf 88bf c53d 9e3e
00000030: fabe 183e be3f d63e 4bbf 08bf 1b3f 893f
00000040: 2bbf 7bbe 283f 30be c9bf b03e 03be 5cbc
00000050: 8dbf 2dbf 0c40 8e3f bbbf 87bf b1be d6be
00000060: 82bf 16bf 0340 903f 2c3e 9ebf ce3f bb3f
00000070: 74bf f7be 3d40 c93f 0bbf 99bf 7d3f 563f
00000080: 5dbf 12bf e93f af3f 63be b1bf 823f 793f
00000090: a4be 963e 0740 863f c8bd 53bf 553f 563f
000000a0: 233e 083f e93f 943f 17be 313c 693f 7f3f
000000b0: b9be f1bb cc3f 1c3f 8bbf c0bf 45bf 5cbf
000000c0: 90bf 07bf f53f 4d3f 4bbf 1ac0 b93e 2c3f
000000d0: 90bf 40bf 1e40 cc3f bbbf 44bf 0cbf 9cbe
000000e0: 3ebf d7be 3340 da3f 5fbe 00c0 b1bb 9c3e
000000f0: 2abf abbe dc3f 973f 16bc f0bf 353f 343f
00000100: 2cbf 58be 0240 ea3f 313e a1bf 043f 9f3e
00000110: 0dbf acbc 683f 513f 17be aebf 583f 223f
00000120: 12bf 03bd e23f b73f 09bf c5bf 7b3f 493f
00000130: 8dbf 32bf 0140 d33f 68bf 87bf 933e dc3e
00000140: 75bf fabe be3f d33f ffbe d0bf 9c3e aa3e
00000150: 69bf 04bf 1840 0040 0d3f d4bf 443f 7b3f
00000160: 9bbe 833d 2f40 0440 43be 5a3e 3c3f 9e3f
00000170: c53d 963e 2940 0a40 cbbf d93e 17bf acbe
00000180: 14bf aabd 913f 783f a0bf bcbe acbe 30be
00000190: a8be a9bc 4540 1b40 5bbf 6ebf e7be c0be
000001a0: 02bf 2abe e03f a23f 56bf 95bf 52be 80bd
000001b0: 52bf d3be f33f 7a3f 91bf afbf 1ebf 24bf
000001c0: 7cbf fabe a73f 7f3f 85bf ecbf 29be dc3d
000001d0: 6ebf 26bf cb3f 903f 843d 1bc0 50bd f93c
000001e0: 4bbf 1fbf 0740 de3f d9be 29c0 813e 703e
000001f0: 6abf 29bf b83f 7b3f 98bf d8bf 12be 03bd
2.953125 -0.97265625 3.171875 3.859375 -2.84375 4.71875 -0.54296875 -0.27929688
0.8125 1.203125 1.40625 0.55859375 -1.0 0.2890625 0.6171875 0.7578125
0.20898438 0.6796875 2.578125 1.578125 -1.125 -1.0625 0.096191406 0.30859375
-0.48828125 0.1484375 1.484375 0.41796875 -0.79296875 -0.53125 0.60546875 1.0703125
-0.66796875 -0.24511719 0.65625 -0.171875 -1.5703125 0.34375 -0.12792969 -0.013427734
-1.1015625 -0.67578125 2.1875 1.109375 -1.4609375 -1.0546875 -0.34570312 -0.41796875
-1.015625 -0.5859375 2.046875 1.125 0.16796875 -1.234375 1.609375 1.4609375
-0.953125 -0.48242188 2.953125 1.5703125 -0.54296875 -1.1953125 0.98828125 0.8359375
-0.86328125 -0.5703125 1.8203125 1.3671875 -0.22167969 -1.3828125 1.015625 0.97265625
-0.3203125 0.29296875 2.109375 1.046875 -0.09765625 -0.82421875 0.83203125 0.8359375
0.15917969 0.53125 1.8203125 1.15625 -0.14746094 0.010803223 0.91015625 0.99609375
-0.36132812 -0.0073547363 1.59375 0.609375 -1.0859375 -1.5 -0.76953125 -0.859375
-1.125 -0.52734375 1.9140625 0.80078125 -0.79296875 -2.40625 0.36132812 0.671875
-1.125 -0.75 2.46875 1.59375 -1.4609375 -0.765625 -0.546875 -0.3046875
-0.7421875 -0.41992188 2.796875 1.703125 -0.21777344 -2.0 -0.0054016113 0.3046875
-0.6640625 -0.33398438 1.71875 1.1796875 -0.009155273 -1.875 0.70703125 0.703125
-0.671875 -0.2109375 2.03125 1.828125 0.17285156 -1.2578125 0.515625 0.31054688
-0.55078125 -0.020996094 0.90625 0.81640625 -0.14746094 -1.359375 0.84375 0.6328125
-0.5703125 -0.031982422 1.765625 1.4296875 -0.53515625 -1.5390625 0.98046875 0.78515625
-1.1015625 -0.6953125 2.015625 1.6484375 -0.90625 -1.0546875 0.28710938 0.4296875
-0.95703125 -0.48828125 1.484375 1.6484375 -0.49804688 -1.625 0.3046875 0.33203125
-0.91015625 -0.515625 2.375 2.0 0.55078125 -1.65625 0.765625 0.98046875
-0.30273438 0.063964844 2.734375 2.0625 -0.19042969 0.21289062 0.734375 1.234375
0.096191406 0.29296875 2.640625 2.15625 -1.5859375 0.42382812 -0.58984375 -0.3359375
-0.578125 -0.08300781 1.1328125 0.96875 -1.25 -0.3671875 -0.3359375 -0.171875
-0.328125 -0.020629883 3.078125 2.421875 -0.85546875 -0.9296875 -0.45117188 -0.375
-0.5078125 -0.16601562 1.75 1.265625 -0.8359375 -1.1640625 -0.20507812 -0.0625
-0.8203125 -0.41210938 1.8984375 0.9765625 -1.1328125 -1.3671875 -0.6171875 -0.640625
-0.984375 -0.48828125 1.3046875 0.99609375 -1.0390625 -1.84375 -0.16503906 0.107421875
-0.9296875 -0.6484375 1.5859375 1.125 0.064453125 -2.421875 -0.05078125 0.030395508
-0.79296875 -0.62109375 2.109375 1.734375 -0.42382812 -2.640625 0.25195312 0.234375
-0.9140625 -0.66015625 1.4375 0.98046875 -1.1875 -1.6875 -0.14257812 -0.031982422
