mlsys26_contest/blob/workloads/gdn/gdn_prefill_qk4_v8_d128_k_last/gdn_prefill_qk4_v8_d128_k_last_880252de-b4f9-4afe-b8f2-3872d90c9474.safetensors (safetensors, 72496 bytes, 4 tensors)

A_log f4 [8]
000000 00 00 66 3f 00 00 a8 3e 00 00 d5 be 00 00 2b 40
       0.8984375 0.328125 -0.41601562 2.671875
000010 00 00 56 3e 00 00 1f bf 00 00 12 40 00 00 39 40
       0.20898438 -0.62109375 2.28125 2.890625

dt_bias f4 [8]
000000 00 00 0d c0 00 00 b3 c0 00 00 d3 be 00 00 c6 c0
       -2.203125 -5.59375 -0.41210938 -6.1875
000010 00 00 74 c0 00 00 c9 c0 00 00 2e c0 00 00 9e c0
       -3.8125 -6.28125 -2.71875 -4.9375

a bf16 [2251, 8]
000000 7a 3f 46 40 14 3f d8 3f 37 40 9a 40 8f 3e 9e 3f
       0.9765625 3.09375 0.578125 1.6875 2.859375 4.8125 0.27929688 1.234375
000010 e5 3f 96 40 a7 3f 24 40 4e 40 ca 40 36 3f 9b 3f
       1.7890625 4.6875 1.3046875 2.5625 3.21875 6.3125 0.7109375 1.2109375
000020 c9 3f 2d 40 30 3f b5 3f 1d 3f 5d 40 17 be 33 bc
       1.5703125 2.703125 0.6875 1.4140625 0.61328125 3.453125 -0.14746094 -0.010925293
000030 5c 3f 2d 40 2c be 8e 3f 11 be 18 40 40 3e d1 3d
       0.859375 2.703125 -0.16796875 1.109375 -0.14160156 2.375 0.1875 0.10205078
000040 b5 3f e4 3f 17 3f 86 3f fa be 25 40 17 3e fe bc
       1.4140625 1.78125 0.58984375 1.046875 -0.48828125 2.578125 0.14746094 -0.03100586
000050 57 3f a5 3f 51 3f a1 3f 36 3f 3a 40 f0 3e 7a 3e
       0.83984375 1.2890625 0.81640625 1.2578125 0.7109375 2.90625 0.46875 0.24414062
000060 8c 3f 23 40 63 3f 84 3f 68 3e 38 40 2e 3f 08 be
       1.09375 2.546875 0.88671875 1.03125 0.2265625 2.875 0.6796875 -0.1328125
000070 59 3f b0 bd 77 3e a1 3e d0 bf 92 3f 50 3e 1e be
       0.84765625 -0.0859375 0.24121094 0.31445312 -1.625 1.140625 0.203125 -0.15429688
000080 68 3f 24 3f 3c 3f 0f 3f 9d bf ab 3f 57 3e a8 be
       0.90625 0.640625 0.734375 0.55859375 -1.2265625 1.3359375 0.20996094 -0.328125
000090 5d 3f 90 bd a5 3f c5 3e a2 bf a4 3f 4c 3f 78 3f
       0.86328125 -0.0703125 1.2890625 0.38476562 -1.265625 1.28125 0.796875 0.96875
0000a0 91 bf 23 3e e1 3d 3f be b4 bf 14 3f 11 3f 0e 3f
       -1.1328125 0.15917969 0.10986328 -0.18652344 -1.40625 0.578125 0.56640625 0.5546875
0000b0 cf bf 32 bf 1f 3f e2 3d 00 c0 86 3e cc 3e 34 bf
       -1.6171875 -0.6953125 0.62109375 0.11035156 -2.0 0.26171875 0.3984375 -0.703125
0000c0 c0 bf f0 be cd be a7 be ec bf fa 3e 2d 3f 7d bf
       -1.5 -0.46875 -0.40039062 -0.32617188 -1.84375 0.48828125 0.67578125 -0.98828125
0000d0 31 3f 99 3f 4e 3f ed 3d 83 be 0b 40 5c 3f bb 3d
       0.69140625 1.1953125 0.8046875 0.115722656 -0.25585938 2.171875 0.859375 0.091308594
0000e0 d8 3f 22 be bc 3f fd be a3 bf 2d 3d 45 3f 04 bd
       1.6875 -0.15820312 1.46875 -0.49414062 -1.2734375 0.042236328 0.76953125 -0.032226562
0000f0 97 3f 28 40 70 3f bd 3d 04 3f 82 40 68 3f 34 3d
       1.1796875 2.625 0.9375 0.092285156 0.515625 4.0625 0.90625 0.043945312
000100 0a 40 1e 40 3b 3f 07 be 45 3e 84 40 e2 3e 60 3f
       2.15625 2.46875 0.73046875 -0.13183594 0.19238281 4.125 0.44140625 0.875
000110 99 3f 72 3f a2 3d 97 3e f6 bf 0c be 29 3f 81 3f
       1.1953125 0.9453125 0.07910156 0.29492188 -1.921875 -0.13671875 0.66015625 1.0078125
000120 94 3f 07 3f 23 3f 0f bd c0 bf 9b 3f ca 3e 90 3e
       1.15625 0.52734375 0.63671875 -0.03491211 -1.5 1.2109375 0.39453125 0.28125
000130 70 3f e3 be fe 3e 24 bf ae bf a6 3f 06 3f 27 3d
       0.9375 -0.44335938 0.49609375 -0.640625 -1.359375 1.296875 0.5234375 0.040771484
000140 44 3f 8e bf 50 3e 82 bf 19 c0 4d bf 3f bf 13 bf
       0.765625 -1.109375 0.203125 -1.015625 -2.390625 -0.80078125 -0.74609375 -0.57421875
000150 8e 3d 8c 3f 2a bf 76 3e 08 bf e7 3f b5 3e 6b 3e
       0.06933594 1.09375 -0.6640625 0.24023438 -0.53125 1.8046875 0.35351562 0.22949219
000160 9f 3f c0 3f 8d 3f 13 3f e1 bd a2 3f 12 3f 3d 3f
       1.2421875 1.5 1.1015625 0.57421875 -0.10986328 1.265625 0.5703125 0.73828125
000170 21 3f 17 3f c4 3f 20 3f 45 bf d8 be 46 3f 76 3f
       0.62890625 0.58984375 1.53125 0.625 -0.76953125 -0.421875 0.7734375 0.9609375
000180 7b bf 9b 3e 8d 3f 29 3f 23 bf 3e 3f 6a 3f 86 3e
       -0.98046875 0.30273438 1.1015625 0.66015625 -0.63671875 0.7421875 0.9140625 0.26171875
000190 68 3e cb be ca 3f 42 3f 80 be 78 3f 98 3f da 3e
       0.2265625 -0.39648438 1.578125 0.7578125 -0.25 0.96875 1.1875 0.42578125
0001a0 1b 3f 58 bf 01 40 1f bf 9a bf 35 3f a4 3f a3 bd
       0.60546875 -0.84375 2.015625 -0.62109375 -1.203125 0.70703125 1.28125 -0.079589844
0001b0 a7 bf 8c bf 82 3f 38 bf 96 bf 18 3f 18 3f 88 bf
       -1.3046875 -1.09375 1.015625 -0.71875 -1.171875 0.59375 0.59375 -1.0625
0001c0 99 3d 0e bf bc 3f 26 bf df bf a5 bc 9b 3f ba bd
       0.07470703 -0.5546875 1.46875 -0.6484375 -1.7421875 -0.020141602 1.2109375 -0.09082031
0001d0 0c 3e a9 3f 0b 40 7f 3e b3 be 06 40 ae 3f 24 3e
       0.13671875 1.3203125 2.171875 0.24902344 -0.34960938 2.09375 1.359375 0.16015625
0001e0 22 bf ad bf a5 3f 93 be 20 c0 66 bf 42 3e 81 bc
       -0.6328125 -1.3515625 1.2890625 -0.28710938 -2.5 -0.8984375 0.18945312 -0.01574707
0001f0 8e be 66 bf ea 3f 2b 3f e3 bf 84 be 96 3f 1a be
       -0.27734375 -0.8984375 1.828125 0.66796875 -1.7734375 -0.2578125 1.171875 -0.15039062

b bf16 [2251, 8]
000000 5b 3f 92 3f 4f 40 cf bf f6 3f 86 40 0e 40 30 40
       0.85546875 1.140625 3.234375 -1.6171875 1.921875 4.1875 2.21875 2.75
000010 b8 3f cc 3f ee 3f 6a bf 13 40 13 40 6f 40 d6 3f
       1.4375 1.59375 1.859375 -0.9140625 2.296875 2.296875 3.734375 1.671875
000020 db 3f 86 3f 23 40 d1 bf b9 3f 95 3f 6b 40 88 3f
       1.7109375 1.046875 2.546875 -1.6328125 1.4453125 1.1640625 3.671875 1.0625
000030 ba 3e c0 3d d5 3f 13 c0 28 3f b2 3e 3e 40 e2 3f
       0.36328125 0.09375 1.6640625 -2.296875 0.65625 0.34765625 2.96875 1.765625
000040 ce 3f d6 3e f7 3f 07 c0 33 3f 6b 3e 54 40 9c 3f
       1.609375 0.41796875 1.9296875 -2.109375 0.69921875 0.22949219 3.3125 1.21875
000050 d1 3f 1e 3f b9 3f fb bf 8d 3f 4f 3f 3d 40 20 40
       1.6328125 0.6171875 1.4453125 -1.9609375 1.1015625 0.80859375 2.953125 2.5
000060 b3 3f 52 3e 0c 40 9d bf 53 3f 25 3f 3e 40 92 3f
       1.3984375 0.20507812 2.1875 -1.2265625 0.82421875 0.64453125 2.96875 1.140625
000070 f5 3f ff 3e d0 3f e6 bf 8f 3f 71 3f 3f 40 01 40
       1.9140625 0.49804688 1.625 -1.796875 1.1171875 0.94140625 2.984375 2.015625
000080 8c 3f 14 bf 09 40 ec bf d5 3d 8b bd 62 40 24 3f
       1.09375 -0.578125 2.140625 -1.84375 0.104003906 -0.067871094 3.53125 0.640625
000090 28 40 b4 3e db 3f a6 bf ed 3e 86 3e 82 40 02 40
       2.625 0.3515625 1.7109375 -1.296875 0.46289062 0.26171875 4.0625 2.03125
0000a0 74 bb cf bf 69 3f 2f c0 b4 3e 14 bf 52 40 09 40
       -0.0037231445 -1.6171875 0.91015625 -2.734375 0.3515625 -0.578125 3.28125 2.140625
0000b0 55 3f 23 bf e4 3f a3 bf 9c 3f b0 3e 76 40 2f 40
       0.83203125 -0.63671875 1.78125 -1.2734375 1.21875 0.34375 3.84375 2.734375
0000c0 8e be 4a bf c8 3f bd bf 61 3f 7a 3e 20 40 15 40
       -0.27734375 -0.7890625 1.5625 -1.4765625 0.87890625 0.24414062 2.5 2.328125
0000d0 95 3f a3 bf b0 3f 85 bf 72 3e 27 3d 35 40 c0 3f
       1.1640625 -1.2734375 1.375 -1.0390625 0.23632812 0.040771484 2.828125 1.5
0000e0 3c 40 5f be 06 40 b8 bf 35 3f 8d 3e 84 40 25 40
       2.9375 -0.21777344 2.09375 -1.4375 0.70703125 0.27539062 4.125 2.578125
0000f0 0a 40 6f be e4 3f 98 bf 17 3e 98 bd 60 40 0c 40
       2.15625 -0.23339844 1.78125 -1.1875 0.14746094 -0.07421875 3.5 2.1875
000100 c5 3f 5f 3e f8 3f d3 bf 5d 3f 58 3f 25 40 03 40
       1.5390625 0.21777344 1.9375 -1.6484375 0.86328125 0.84375 2.578125 2.046875
000110 28 3f 09 3e c7 3f 0e c0 29 3f fd 3e 47 40 07 40
       0.65625 0.13378906 1.5546875 -2.21875 0.66015625 0.49414062 3.109375 2.109375
000120 70 3f 73 be d3 3f 0a c0 9c 3e 86 3d 53 40 90 3f
       0.9375 -0.23730469 1.6484375 -2.15625 0.3046875 0.06542969 3.296875 1.125
000130 3f 3f d5 3d af 3f 0f c0 bd 3e 7a 3e 35 40 f0 3f
       0.74609375 0.104003906 1.3671875 -2.234375 0.36914062 0.24414062 2.828125 1.875
000140 03 40 aa bd f5 3f 21 c0 1c 3f 6b 3e 82 40 c8 3f
       2.046875 -0.08300781 1.9140625 -2.515625 0.609375 0.22949219 4.0625 1.5625
000150 f8 be b7 bf eb 3e 1d c0 0b bf 08 bf fc 3f a6 3f
       -0.484375 -1.4296875 0.45898438 -2.453125 -0.54296875 -0.53125 1.96875 1.296875
000160 0b 40 ed 3e d8 3f 02 c0 49 3f 07 3f 4f 40 e0 3f
       2.171875 0.46289062 1.6875 -2.03125 0.78515625 0.52734375 3.234375 1.75
000170 2b 40 98 3f eb 3f c9 bf ad 3f 2c 3f 83 40 3b 40
       2.671875 1.1875 1.8359375 -1.5703125 1.3515625 0.671875 4.09375 2.921875
000180 93 3e 0f bd c7 3f 86 bf f2 3e 1b 3e 83 40 28 40
       0.28710938 -0.03491211 1.5546875 -1.046875 0.47265625 0.15136719 4.09375 2.625
000190 f0 3f 3a 3d e4 3f 3f bf 59 3f 00 3e 43 40 4f 40
       1.875 0.045410156 1.78125 -0.74609375 0.84765625 0.125 3.046875 3.234375
0001a0 3f 40 84 3e 1b 40 12 bf 9f 3f 15 3f 81 40 66 40
       2.984375 0.2578125 2.421875 -0.5703125 1.2421875 0.58203125 4.03125 3.59375
0001b0 14 3f 86 bf 04 40 ab bf 35 3e 92 be 8e 40 43 40
       0.578125 -1.046875 2.0625 -1.3359375 0.17675781 -0.28515625 4.4375 3.046875
0001c0 03 40 e4 be e4 3f 98 bf 26 3f a9 3d 82 40 4f 40
       2.046875 -0.4453125 1.78125 -1.1875 0.6484375 0.08251953 4.0625 3.234375
0001d0 d4 3f cd be f0 3f 78 bf 22 3f b7 3d 8a 40 14 40
       1.65625 -0.40039062 1.875 -0.96875 0.6328125 0.08935547 4.3125 2.3125
0001e0 9a 3f 29 3f 0c 40 ae bf 61 3f 32 3e a4 40 4c 40
       1.203125 0.66015625 2.1875 -1.359375 0.87890625 0.17382812 5.125 3.1875
0001f0 10 40 d8 bf fa 3f 7b bf 94 be c0 bf 96 40 30 40
       2.25 -1.6875 1.953125 -0.98046875 -0.2890625 -1.5 4.6875 2.75
