mlsys26_contest/blob/workloads/gdn/gdn_prefill_qk4_v8_d128_k_last/gdn_prefill_qk4_v8_d128_k_last_2142bbf9-1947-4d7f-a2b5-a7c46b041791.safetensors (safetensors, 262752 bytes, 4 tensors)

A_log f4 [8]
-0.048339844 0.32421875 1.9921875 3.40625 1.5 -1.1640625 1.46875 -1.15625
00000000: 0000 46bd 0000 a63e 0000 ff3f 0000 5a40
00000010: 0000 c03f 0000 95bf 0000 bc3f 0000 94bf

dt_bias f4 [8]
-1.84375 -3.5625 -6.34375 -5.46875 -1.9765625 -4.15625 -5.6875 -3.75
00000000: 0000 ecbf 0000 64c0 0000 cbc0 0000 afc0
00000010: 0000 fdbf 0000 85c0 0000 b6c0 0000 70c0

a bf16 [8192, 8]
-1.0234375 -1.6640625 -2.65625 -1.984375 -0.12451172 -1.0625 -1.703125 -1.2109375
-0.26171875 -0.86328125 -2.890625 -1.71875 -0.3984375 -0.041748047 -2.21875 -2.65625
1.4609375 0.28710938 -1.59375 0.10253906 -0.053466797 -0.024902344 -0.22167969 -0.78515625
1.3359375 -0.050048828 -2.09375 -0.29492188 0.40429688 -1.1796875 -1.2265625 -1.875
1.28125 -1.578125 -3.109375 -0.96484375 0.11816406 -0.453125 -1.0078125 -1.5
0.14746094 -1.765625 -2.671875 -1.859375 -1.0390625 -0.24511719 -1.5234375 -2.421875
1.3359375 0.0068359375 -1.53125 0.31445312 -0.12695312 0.33007812 -0.234375 -0.65234375
2.4375 0.20996094 -1.71875 1.1875 1.375 1.0078125 0.5234375 0.06689453
2.125 -0.12207031 -2.328125 0.9921875 1.0703125 -0.084472656 -0.23339844 -0.74609375
0.5 -1.0859375 -2.5 0.42578125 -0.14257812 -0.53515625 -1.2578125 -1.875
0.057128906 -1.1171875 -2.78125 -0.37695312 -0.828125 -1.0859375 -1.6640625 -3.046875
0.8828125 0.1796875 -1.6875 0.5 -0.2265625 0.57421875 -0.796875 -1.359375
2.078125 0.27734375 -0.41015625 1.0 0.61328125 0.78515625 0.81640625 0.40429688
2.015625 0.35742188 -1.8359375 0.72265625 0.80859375 0.20019531 -0.06982422 -0.68359375
-0.33203125 -0.9140625 -2.109375 -0.040771484 0.12060547 -0.10058594 -1.6328125 -1.921875
0.09033203 -0.9765625 -1.6015625 0.42382812 0.087890625 -1.9765625 -0.87890625 -1.1171875
-2.015625 -0.75 -2.15625 -0.7421875 -0.32421875 -0.69140625 -0.58203125 0.07128906
-1.71875 -1.5078125 -1.421875 -1.28125 -1.4921875 -1.71875 -1.1875 -1.2890625
-0.8125 -0.69140625 -2.21875 -0.65625 -0.21777344 -0.77734375 -0.953125 -1.3828125
2.328125 1.2265625 -0.11376953 1.3203125 0.74609375 2.3125 1.2265625 1.9765625
3.078125 0.9765625 -0.55078125 1.9765625 1.359375 0.72265625 1.2734375 1.328125
-0.36132812 -0.921875 -1.953125 -0.21972656 -0.7265625 -0.546875 -0.58984375 -0.38085938
-0.640625 -1.125 -2.40625 -0.515625 -0.90625 -0.5 -0.91015625 -1.375
0.80859375 -0.37304688 -0.8125 0.33203125 0.06347656 -0.3359375 0.071777344 -0.15527344
-0.7578125 -0.90234375 -1.8125 -0.027832031 0.15039062 -1.2109375 -0.81640625 -0.71875
-2.6875 -0.6796875 -1.8671875 -1.4375 -1.3359375 -1.3203125 -0.47460938 0.079589844
-2.09375 -1.609375 -1.9765625 -1.8828125 -1.2890625 -3.125 -1.3984375 -1.8671875
-1.578125 -0.54296875 -1.2109375 -0.8125 -0.118652344 -0.86328125 -0.7421875 -0.91015625
-0.515625 -0.12792969 -1.40625 -0.7734375 0.022827148 -1.1484375 -0.27929688 -0.9375
1.40625 -0.7578125 -1.6015625 0.30859375 0.80859375 -0.37109375 -0.56640625 -0.6015625
1.0859375 -1.6640625 -2.75 -0.171875 0.859375 -0.78515625 -1.59375 -1.6875
-0.71484375 -0.70703125 -0.60546875 -0.80859375 -0.60546875 0.9375 -0.765625 -0.24414062
00000000: 83bf d5bf 2ac0 febf ffbd 88bf dabf 9bbf
00000010: 86be 5dbf 39c0 dcbf ccbe 2bbd 0ec0 2ac0
00000020: bb3f 933e ccbf d23d 5bbd ccbc 63be 49bf
00000030: ab3f 4dbd 06c0 97be cf3e 97bf 9dbf f0bf
00000040: a43f cabf 47c0 77bf f23d e8be 81bf c0bf
00000050: 173e e2bf 2bc0 eebf 85bf 7bbe c3bf 1bc0
00000060: ab3f e03b c4bf a13e 02be a93e 70be 27bf
00000070: 1c40 573e dcbf 983f b03f 813f 063f 893d
00000080: 0840 fabd 15c0 7e3f 893f adbd 6fbe 3fbf
00000090: 003f 8bbf 20c0 da3e 12be 09bf a1bf f0bf
000000a0: 6a3d 8fbf 32c0 c1be 54bf 8bbf d5bf 43c0
000000b0: 623f 383e d8bf 003f 68be 133f 4cbf aebf
000000c0: 0540 8e3e d2be 803f 1d3f 493f 513f cf3e
000000d0: 0140 b73e ebbf 393f 4f3f 4d3e 8fbd 2fbf
000000e0: aabe 6abf 07c0 27bd f73d cebd d1bf f6bf
000000f0: b93d 7abf cdbf d93e b43d fdbf 61bf 8fbf
00000100: 01c0 40bf 0ac0 3ebf a6be 31bf 15bf 923d
00000110: dcbf c1bf b6bf a4bf bfbf dcbf 98bf a5bf
00000120: 50bf 31bf 0ec0 28bf 5fbe 47bf 74bf b1bf
00000130: 1540 9d3f e9bd a93f 3f3f 1440 9d3f fd3f
00000140: 4540 7a3f 0dbf fd3f ae3f 393f a33f aa3f
00000150: b9be 6cbf fabf 61be 3abf 0cbf 17bf c3be
00000160: 24bf 90bf 1ac0 04bf 68bf 00bf 69bf b0bf
00000170: 4f3f bfbe 50bf aa3e 823d acbe 933d 1fbe
00000180: 42bf 67bf e8bf e4bc 1a3e 9bbf 51bf 38bf
00000190: 2cc0 2ebf efbf b8bf abbf a9bf f3be a33d
000001a0: 06c0 cebf fdbf f1bf a5bf 48c0 b3bf efbf
000001b0: cabf 0bbf 9bbf 50bf f3bd 5dbf 3ebf 69bf
000001c0: 04bf 03be b4bf 46bf bb3c 93bf 8fbe 70bf
000001d0: b43f 42bf cdbf 9e3e 4f3f bebe 11bf 1abf
000001e0: 8b3f d5bf 30c0 30be 5c3f 49bf ccbf d8bf
000001f0: 37bf 35bf 1bbf 4fbf 1bbf 703f 44bf 7abe

b bf16 [8192, 8]
1.3046875 -1.4609375 -2.9375 -0.24902344 4.03125 -2.40625 -1.7421875 -2.453125
-1.1640625 -1.0859375 -2.5625 -0.953125 4.125 -0.58984375 -1.515625 -1.9609375
-1.5390625 -0.26953125 -2.234375 0.49609375 1.96875 -0.61328125 -1.5859375 -1.9609375
-2.25 0.025512695 -1.6484375 0.26367188 -1.28125 0.19921875 -0.91796875 -1.1796875
0.43164062 -1.46875 -2.8125 0.11035156 1.328125 0.046875 -0.87890625 -1.1171875
1.421875 -1.421875 -2.625 -0.16992188 3.953125 -0.46484375 -1.3359375 -1.7734375
-1.2265625 -0.8984375 -2.375 -0.35546875 2.140625 -0.81640625 -1.9140625 -2.203125
-1.8515625 -0.40039062 -1.9375 0.35742188 -1.1796875 0.23144531 -1.171875 -1.1484375
-0.80078125 0.15917969 -1.6875 1.421875 -0.71875 -0.58984375 -0.5703125 -0.5859375
-0.54296875 -0.17871094 -2.140625 0.9609375 4.0625 -0.4140625 -0.58203125 -0.6640625
1.265625 -0.71875 -2.90625 0.66796875 3.03125 -1.1875 -0.625 -0.84375
-1.2578125 -0.37890625 -2.046875 0.3984375 3.359375 -1.0546875 -1.71875 -1.9140625
-1.234375 0.6328125 -1.1484375 1.1640625 -0.6015625 -0.38476562 0.13378906 0.53515625
-1.125 0.025634766 -1.484375 0.34765625 -0.71484375 -1.109375 -0.5625 -0.69140625
-1.09375 -0.55078125 -1.96875 0.13867188 3.203125 0.38671875 -0.79296875 -0.88671875
1.0703125 -1.03125 -1.984375 1.28125 3.71875 -2.765625 -0.65625 -0.9765625
1.140625 -1.1640625 -2.921875 -0.057373047 4.71875 -1.921875 -1.03125 -1.3984375
-1.625 -0.48242188 -2.046875 -0.5234375 4.5625 -2.921875 -1.4921875 -1.6328125
-1.0 -0.87890625 -2.4375 -0.26171875 4.3125 -1.046875 -1.15625 -1.5
-2.109375 -1.1484375 -2.03125 -0.69140625 -0.37109375 -0.034179688 -1.2421875 -1.3671875
-1.265625 0.9921875 -0.828125 1.8125 0.26367188 -0.26757812 0.29492188 0.29492188
-1.1484375 0.35742188 -1.296875 0.89453125 2.015625 -1.171875 0.36914062 0.46875
-1.46875 -0.84375 -2.5 0.18457031 1.7734375 -1.171875 -0.40429688 -0.36523438
-1.4921875 -0.609375 -2.890625 0.89453125 1.890625 -0.34765625 -0.65625 -0.86328125
1.4765625 -0.734375 -2.703125 1.3125 4.78125 -1.5625 -0.875 -1.34375
-1.046875 0.4453125 -1.71875 0.51171875 2.46875 -1.5 -0.95703125 -1.34375
-2.5 -0.9453125 -2.234375 -0.765625 3.640625 -3.5625 -0.515625 -0.92578125
-0.6484375 -0.34570312 -2.234375 0.67578125 3.578125 -1.6015625 -0.71875 -1.125
-1.546875 -0.484375 -2.09375 -0.07714844 3.265625 -0.53125 -0.671875 -1.0546875
-1.484375 -0.48828125 -2.109375 0.26953125 -0.75390625 -0.609375 -0.71875 -1.203125
0.23828125 -0.72265625 -2.265625 0.72265625 1.4765625 -1.7265625 -0.8671875 -1.359375
-0.41992188 -0.81640625 -2.125 -0.13476562 1.09375 -1.046875 -0.91015625 -1.3671875
00000000: a73f bbbf 3cc0 7fbe 8140 1ac0 dfbf 1dc0
00000010: 95bf 8bbf 24c0 74bf 8440 17bf c2bf fbbf
00000020: c5bf 8abe 0fc0 fe3e fc3f 1dbf cbbf fbbf
00000030: 10c0 d13c d3bf 873e a4bf 4c3e 6bbf 97bf
00000040: dd3e bcbf 34c0 e23d aa3f 403d 61bf 8fbf
00000050: b63f b6bf 28c0 2ebe 7d40 eebe abbf e3bf
00000060: 9dbf 66bf 18c0 b6be 0940 51bf f5bf 0dc0
00000070: edbf cdbe f8bf b73e 97bf 6d3e 96bf 93bf
00000080: 4dbf 233e d8bf b63f 38bf 17bf 12bf 16bf
00000090: 0bbf 37be 09c0 763f 8240 d4be 15bf 2abf
000000a0: a23f 38bf 3ac0 2b3f 4240 98bf 20bf 58bf
000000b0: a1bf c2be 03c0 cc3e 5740 87bf dcbf f5bf
000000c0: 9ebf 223f 93bf 953f 1abf c5be 093e 093f
000000d0: 90bf d23c bebf b23e 37bf 8ebf 10bf 31bf
000000e0: 8cbf 0dbf fcbf 0e3e 4d40 c63e 4bbf 63bf
000000f0: 893f 84bf febf a43f 6e40 31c0 28bf 7abf
00000100: 923f 95bf 3bc0 6bbd 9740 f6bf 84bf b3bf
00000110: d0bf f7be 03c0 06bf 9240 3bc0 bfbf d1bf
00000120: 80bf 61bf 1cc0 86be 8a40 86bf 94bf c0bf
00000130: 07c0 93bf 02c0 31bf bebe 0cbd 9fbf afbf
00000140: a2bf 7e3f 54bf e83f 873e 89be 973e 973e
00000150: 93bf b73e a6bf 653f 0140 96bf bd3e f03e
00000160: bcbf 58bf 20c0 3d3e e33f 96bf cfbe bbbe
00000170: bfbf 1cbf 39c0 653f f23f b2be 28bf 5dbf
00000180: bd3f 3cbf 2dc0 a83f 9940 c8bf 60bf acbf
00000190: 86bf e43e dcbf 033f 1e40 c0bf 75bf acbf
000001a0: 20c0 72bf 0fc0 44bf 6940 64c0 04bf 6dbf
000001b0: 26bf b1be 0fc0 2d3f 6540 cdbf 38bf 90bf
000001c0: c6bf f8be 06c0 9ebd 5140 08bf 2cbf 87bf
000001d0: bebf fabe 07c0 8a3e 41bf 1cbf 38bf 9abf
000001e0: 743e 39bf 11c0 393f bd3f ddbf 5ebf aebf
000001f0: d7be 51bf 08c0 0abe 8c3f 86bf 69bf afbf
