mlsys26_contest/blob/workloads/gdn/gdn_prefill_qk4_v8_d128_k_last/gdn_prefill_qk4_v8_d128_k_last_fa3fdcdd-3f8c-4cc4-91ff-f36f83740ae3.safetensors (safetensors, 72496 bytes, 4 tensors)

A_log f4 [8]
000000 00 00 33 be 00 00 89 3e 00 00 f3 3f 00 00 54 40
       -0.17480469 0.26757812 1.8984375 3.3125
000010 00 00 d0 3f 00 00 85 bf 00 00 be 3f 00 00 ae bf
       1.625 -1.0390625 1.484375 -1.359375

dt_bias f4 [8]
000000 00 00 e8 bf 00 00 6a c0 00 00 ce c0 00 00 b2 c0
       -1.8125 -3.65625 -6.4375 -5.5625
000010 00 00 ff bf 00 00 89 c0 00 00 b7 c0 00 00 70 c0
       -1.9921875 -4.28125 -5.71875 -3.75

a bf16 [2251, 8]
000000 cf 3f d0 3f 13 40 98 3f 45 3f 85 40 73 3f 7c 40
       1.6171875 1.625 2.296875 1.1875 0.76953125 4.15625 0.94921875 3.9375
000010 62 3f 3a 3f 80 3f 99 3f 53 bc 46 40 f6 3f 4f 40
       0.8828125 0.7265625 1.0 1.1953125 -0.012878418 3.09375 1.921875 3.234375
000020 0c 40 64 3f 54 3f 58 3f 1b be 1e 40 d5 3f 15 40
       2.1875 0.890625 0.828125 0.84375 -0.15136719 2.46875 1.6640625 2.328125
000030 9b 3f 37 3f 1d 3f 02 3f 04 3f 32 40 8b 3f b2 3f
       1.2109375 0.71484375 0.61328125 0.5078125 0.515625 2.78125 1.0859375 1.390625
000040 fb 3f 63 3f 6a 3f 2c 3f 5c bd 3c 40 e7 3f 0b 40
       1.9609375 0.88671875 0.9140625 0.671875 -0.053710938 2.9375 1.8046875 2.171875
000050 ac 3f af 3f df 3f a7 3f 0b 3f 71 40 aa 3f e3 3f
       1.34375 1.3671875 1.7421875 1.3046875 0.54296875 3.765625 1.328125 1.7734375
000060 a3 3f 10 40 10 40 a2 3f 98 bc 1c 40 0c 40 40 40
       1.2734375 2.25 2.25 1.265625 -0.018554688 2.4375 2.1875 3.0
000070 e5 3f 6c 3f 26 3f a4 be 98 3f b4 be dc 3e f0 3e
       1.7890625 0.921875 0.6484375 -0.3203125 1.1875 -0.3515625 0.4296875 0.46875
000080 e7 3f e5 3f e7 3f f5 3e 5e bf 11 40 5e 3f dd 3f
       1.8046875 1.7890625 1.8046875 0.47851562 -0.8671875 2.265625 0.8671875 1.7265625
000090 36 40 84 3e 38 3f 7b 3f 7c 3f b3 3f 3c 3f 1a 3f
       2.84375 0.2578125 0.71875 0.98046875 0.984375 1.3984375 0.734375 0.6015625
0000a0 38 be 5e 3e f9 3e fb 3d b8 be f6 3f b4 3f 96 3f
       -0.1796875 0.21679688 0.48632812 0.122558594 -0.359375 1.921875 1.40625 1.171875
0000b0 f1 3e c3 3e 83 3e 40 3f af 3c 7c bd c6 3f 81 3f
       0.47070312 0.38085938 0.25585938 0.75 0.021362305 -0.061523438 1.546875 1.0078125
0000c0 1d be 7c 3e d1 3e e8 bc f9 bc 74 3f b1 3f b3 3f
       -0.15332031 0.24609375 0.40820312 -0.028320312 -0.030395508 0.953125 1.3828125 1.3984375
0000d0 a6 3f 7e 3f 94 3f 6a 3f 5f 3f f0 3e 3c 3f 54 3f
       1.296875 0.9921875 1.15625 0.9140625 0.87109375 0.46875 0.734375 0.828125
0000e0 95 3f 75 3f 33 3f d2 3e 98 bf cd 3f 56 3f 5c 3f
       1.1640625 0.95703125 0.69921875 0.41015625 -1.1875 1.6015625 0.8359375 0.859375
0000f0 1b 40 89 3f dc 3f cc 3e 94 3f 9b 3f 10 40 5b 40
       2.421875 1.0703125 1.71875 0.3984375 1.15625 1.2109375 2.25 3.421875
000100 3b 40 32 bf 11 be 26 3f a5 3f a8 bf 9c 3f b3 3f
       2.921875 -0.6953125 -0.14160156 0.6484375 1.2890625 -1.3125 1.21875 1.3984375
000110 99 3f e9 be 12 3f c2 3e 4e 3f a7 3f 8e 3e e5 3e
       1.1953125 -0.45507812 0.5703125 0.37890625 0.8046875 1.3046875 0.27734375 0.44726562
000120 10 3f a2 bf bd be 2a be b9 be 4e bf af 3d e2 bc
       0.5625 -1.265625 -0.36914062 -0.16601562 -0.36132812 -0.8046875 0.08544922 -0.02758789
000130 79 3f c4 bf 27 bf ba be 2d 3e c3 bd e0 bd 06 be
       0.97265625 -1.53125 -0.65234375 -0.36328125 0.16894531 -0.095214844 -0.109375 -0.13085938
000140 d2 3f 61 be 0f 3f 51 be a0 be 0e bf 10 3f 26 bd
       1.640625 -0.21972656 0.55859375 -0.20410156 -0.3125 -0.5546875 0.5625 -0.040527344
000150 be 3e a5 bf 06 bf 5a bf d3 3e 82 be 4b be 5c bf
       0.37109375 -1.2890625 -0.5234375 -0.8515625 0.41210938 -0.25390625 -0.19824219 -0.859375
000160 34 40 04 bf 19 3e 50 be 38 3f e5 3f 8c 3f 77 3f
       2.8125 -0.515625 0.14941406 -0.203125 0.71875 1.7890625 1.09375 0.96484375
000170 3e 40 3b bf 90 3e 40 3f d6 3f e9 3e 9d 3e 12 bf
       2.96875 -0.73046875 0.28125 0.75 1.671875 0.45507812 0.30664062 -0.5703125
000180 bf be f2 be 65 3e af be 0b bf 45 3f c7 3e de be
       -0.37304688 -0.47265625 0.22363281 -0.34179688 -0.54296875 0.76953125 0.38867188 -0.43359375
000190 1d 40 21 3e 61 3f 5a 3f e2 3f 13 bf c9 3e 90 3e
       2.453125 0.15722656 0.87890625 0.8515625 1.765625 -0.57421875 0.39257812 0.28125
0001a0 50 40 45 3f c0 3e 84 3f ce 3f dc bf 45 bc 7b bf
       3.25 0.76953125 0.375 1.03125 1.609375 -1.71875 -0.012023926 -0.98046875
0001b0 67 3f 3a bf e5 be 1b bf ef be bb be ec be 96 bf
       0.90234375 -0.7265625 -0.44726562 -0.60546875 -0.46679688 -0.36523438 -0.4609375 -1.171875
0001c0 44 40 da 3f 59 3f 6f 3f 0a 40 28 bf c4 3e b8 bd
       3.0625 1.703125 0.84765625 0.93359375 2.15625 -0.65625 0.3828125 -0.08984375
0001d0 07 40 56 3f 83 3f 85 3f a2 3f 95 ba 81 3f 83 3f
       2.109375 0.8359375 1.0234375 1.0390625 1.265625 -0.0011367798 1.0078125 1.0234375
0001e0 81 3f 3e be c4 bd 33 3f 2e 3e 3d c0 b6 3c 21 bf
       1.0078125 -0.18554688 -0.095703125 0.69921875 0.16992188 -2.953125 0.022216797 -0.62890625
0001f0 ba 3f 43 3e 94 be 33 3f a3 3f 20 c0 43 3e 54 bf
       1.453125 0.19042969 -0.2890625 0.69921875 1.2734375 -2.5 0.19042969 -0.828125

b bf16 [2251, 8]
000000 12 40 3e c0 29 3f 9f bf 9d 40 57 bf 53 bf 39 bf
       2.28125 -2.96875 0.66015625 -1.2421875 4.90625 -0.83984375 -0.82421875 -0.72265625
000010 22 3f 88 bf bb be 88 be 03 40 a8 bf 42 3f 84 3e
       0.6328125 -1.0625 -0.36523438 -0.265625 2.046875 -1.3125 0.7578125 0.2578125
000020 5e 3f 29 bf aa bf 05 3f a0 3f ed bf 2f 3f c5 3d
       0.8671875 -0.66015625 -1.328125 0.51953125 1.25 -1.8515625 0.68359375 0.096191406
000030 19 3f 9f bf af bf 04 bf 24 40 be bf 19 3c 1d bf
       0.59765625 -1.2421875 -1.3671875 -0.515625 2.5625 -1.484375 0.009338379 -0.61328125
000040 80 3e 88 bf ea bf 0d 3c 9d 3f c2 bf 99 be 6d bf
       0.25 -1.0625 -1.828125 0.008605957 1.2265625 -1.515625 -0.29882812 -0.92578125
000050 6f 3f 96 bf 8f bf 6b 3e 63 40 7d 3f 8a be 39 bf
       0.93359375 -1.171875 -1.1171875 0.22949219 3.546875 0.98828125 -0.26953125 -0.72265625
000060 8d be a9 3f 42 be 9c 3f 88 3f 96 bf 19 bd 15 bf
       -0.27539062 1.3203125 -0.18945312 1.21875 1.0625 -1.171875 -0.037353516 -0.58203125
000070 82 3f 1d be 42 bf aa 3e 8e 40 c4 bf 42 3e 83 be
       1.015625 -0.15332031 -0.7578125 0.33203125 4.4375 -1.53125 0.18945312 -0.25585938
000080 78 bf 93 3c 9f bf 6d 3e 9f 3f 1f bf 26 be 14 bf
       -0.96875 0.017944336 -1.2421875 0.23144531 1.2421875 -0.62109375 -0.16210938 -0.578125
000090 e7 3e 9c bd 1c bf 0d 3f 70 40 72 bf fb bd 07 bf
       0.45117188 -0.076171875 -0.609375 0.55078125 3.75 -0.9453125 -0.122558594 -0.52734375
0000a0 79 bf 0d c0 2c c0 bb bf 61 40 ef bd 14 be 11 bf
       -0.97265625 -2.203125 -2.6875 -1.4609375 3.515625 -0.11669922 -0.14453125 -0.56640625
0000b0 c1 be f9 3d db bf 51 3f 8f 40 11 bf 08 be 26 bf
       -0.37695312 0.12158203 -1.7109375 0.81640625 4.46875 -0.56640625 -0.1328125 -0.6484375
0000c0 e8 be 63 bf d0 bf ba 3d 74 40 f2 bd b3 be 56 bf
       -0.453125 -0.88671875 -1.625 0.09082031 3.8125 -0.11816406 -0.34960938 -0.8359375
0000d0 33 bf 62 3f ac bd 6d 3f 70 40 8b bf de be 53 bf
       -0.69921875 0.8828125 -0.083984375 0.92578125 3.75 -1.0859375 -0.43359375 -0.82421875
0000e0 e9 bd cc 39 a9 bf 01 3f 59 40 07 bf 10 bf 51 bf
       -0.11376953 0.00038909912 -1.3203125 0.50390625 3.390625 -0.52734375 -0.5625 -0.81640625
0000f0 d7 bf 02 3f 4f bd 47 3e 76 3d 21 bf d4 be 44 bf
       -1.6796875 0.5078125 -0.05053711 0.19433594 0.060058594 -0.62890625 -0.4140625 -0.765625
000100 29 bf 30 3f a1 3d 34 3f ee 3f 14 c0 ba 3d 89 be
       -0.66015625 0.6875 0.07861328 0.703125 1.859375 -2.3125 0.09082031 -0.26757812
000110 a5 3e e7 bf 9a bf 2d bf 2d 40 21 bf bd 3d 5d be
       0.32226562 -1.8046875 -1.203125 -0.67578125 2.703125 -0.62890625 0.092285156 -0.21582031
000120 34 bf b6 be 4f bf 1b 3f a4 3f c8 bf f4 bc b5 be
       -0.703125 -0.35546875 -0.80859375 0.60546875 1.28125 -1.5625 -0.029785156 -0.35351562
000130 18 bd 02 c0 08 c0 a4 be f4 3f a5 bf 13 be 47 bf
       -0.037109375 -2.03125 -2.125 -0.3203125 1.90625 -1.2890625 -0.14355469 -0.77734375
000140 17 3e 40 bf e8 bf 4d 3e 2f 40 05 bf 0a bf 58 bf
       0.14746094 -0.75 -1.8125 0.20019531 2.734375 -0.51953125 -0.5390625 -0.84375
000150 98 bd 00 c0 b2 bf 94 bf 70 40 90 bf 73 bf cd bf
       -0.07421875 -2.0 -1.390625 -1.15625 3.75 -1.125 -0.94921875 -1.6015625
000160 ab be f0 bf 09 c0 31 bf fd 3f 0c be 92 be 7d bf
       -0.33398438 -1.875 -2.140625 -0.69140625 1.9765625 -0.13671875 -0.28515625 -0.98828125
000170 22 3e 5a bf 95 bf 6a 3e 6e 40 fe 3e 10 bf 7c bf
       0.15820312 -0.8515625 -1.1640625 0.22851562 3.71875 0.49609375 -0.5625 -0.984375
000180 a0 bf 12 bf 3f bf 63 bd 4c 40 e1 be cc bd f5 be
       -1.25 -0.5703125 -0.74609375 -0.055419922 3.1875 -0.43945312 -0.099609375 -0.47851562
000190 18 bf 83 be 77 bf d4 3e 97 40 cb be a0 3d fd be
       -0.59375 -0.25585938 -0.96484375 0.4140625 4.71875 -0.39648438 0.078125 -0.49414062
0001a0 39 bf a6 3e 82 bf 10 3f 92 40 b4 bf d0 be 2a bf
       -0.72265625 0.32421875 -1.015625 0.5625 4.5625 -1.40625 -0.40625 -0.6640625
0001b0 a0 bf c0 bf 04 c0 4d bf 70 40 50 bf 10 3e 84 be
       -1.25 -1.5 -2.0625 -0.80078125 3.75 -0.8125 0.140625 -0.2578125
0001c0 b1 bf a3 be b2 bf 5c 3e 95 40 47 bf 0d bf 8d bf
       -1.3828125 -0.31835938 -1.390625 0.21484375 4.65625 -0.77734375 -0.55078125 -1.1015625
0001d0 93 bf 7d be b1 bf 5c 3e 41 40 32 bf c2 be 87 bf
       -1.1484375 -0.24707031 -1.3828125 0.21484375 3.015625 -0.6953125 -0.37890625 -1.0546875
0001e0 81 bf 1d bf b0 bf d2 3e 4d 40 18 c0 a8 3e aa 3c
       -1.0078125 -0.61328125 -1.375 0.41015625 3.203125 -2.375 0.328125 0.020751953
0001f0 1a be 33 3e f1 bf be 3f ab 40 17 c0 94 be 31 bf
       -0.15039062 0.17480469 -1.8828125 1.484375 5.34375 -2.359375 -0.2890625 -0.69140625
