mlsys26_contest/blob/workloads/gdn/gdn_prefill_qk4_v8_d128_k_last/gdn_prefill_qk4_v8_d128_k_last_6e32a0fb-8260-4b5d-8443-cf5748e6bf49.safetensors (safetensors, 262696 bytes, 4 tensors)

A_log f4 [8]
000000 00 00 cc bf 00 00 6c 40 00 00 18 40 00 00 19 40
       -1.59375 3.6875 2.375 2.390625
000010 00 00 87 3f 00 00 06 40 00 00 ad 3f 00 00 59 39
       1.0546875 2.09375 1.3515625 0.00020694733

dt_bias f4 [8]
000000 00 00 9a c0 00 00 e9 bf 00 00 cd c0 00 00 85 c0
       -4.8125 -1.8203125 -6.40625 -4.15625
000010 00 00 76 c0 00 00 7d c0 00 00 f3 bf 00 00 b8 bf
       -3.84375 -3.953125 -1.8984375 -1.4375

a bf16 [8192, 8]
000000 9a bd 09 3e fa be cc bd a6 be 8d bf 2b bf 90 bf
       -0.07519531 0.13378906 -0.48828125 -0.099609375 -0.32421875 -1.1015625 -0.66796875 -1.125
000010 fd bf 2d 3e fa bf 58 bf d3 bf c9 bf 89 3b 87 bf
       -1.9765625 0.16894531 -1.953125 -0.84375 -1.6484375 -1.5703125 0.004180908 -1.0546875
000020 07 bf 2d 3d 1b bf 16 be b9 bf cf bf ea be 0c c0
       -0.52734375 0.042236328 -0.60546875 -0.14648438 -1.4453125 -1.6171875 -0.45703125 -2.1875
000030 4a bf ae 3e 20 bf 77 3d 24 bf 8b bf 1c bf 9b bf
       -0.7890625 0.33984375 -0.625 0.060302734 -0.640625 -1.0859375 -0.609375 -1.2109375
000040 eb bf 34 3f de bf 7a bf ec bf f3 bf f6 bd a6 bf
       -1.8359375 0.703125 -1.734375 -0.9765625 -1.84375 -1.8984375 -0.12011719 -1.296875
000050 79 bf 0a 3f 8e bf 6a bf e2 bf cb bf c5 be f9 bf
       -0.97265625 0.5390625 -1.109375 -0.9140625 -1.765625 -1.5859375 -0.38476562 -1.9453125
000060 10 c0 84 bf e8 bf f3 bf 5a c0 5e c0 22 c0 83 c0
       -2.25 -1.03125 -1.8125 -1.8984375 -3.40625 -3.46875 -2.53125 -4.09375
000070 34 bf 23 be a1 bf 9c bf 06 c0 0c c0 f6 bf 56 c0
       -0.703125 -0.15917969 -1.2578125 -1.21875 -2.09375 -2.1875 -1.921875 -3.34375
000080 e0 be a2 3d 97 bf 77 be 4b bf 6d bf 84 bf b4 bf
       -0.4375 0.07910156 -1.1796875 -0.24121094 -0.79296875 -0.92578125 -1.03125 -1.40625
000090 36 c0 33 3f 27 c0 4e bf f2 bf 95 bf 03 be 91 bf
       -2.84375 0.69921875 -2.609375 -0.8046875 -1.890625 -1.1640625 -0.12792969 -1.1328125
0000a0 be bf 59 3c d1 bf 5d bf e3 bf bb bf 8b bf 17 c0
       -1.484375 0.013244629 -1.6328125 -0.86328125 -1.7734375 -1.4609375 -1.0859375 -2.359375
0000b0 b4 3e 4d 3f df be 9e 3e b3 3d d3 be 57 be c3 3c
       0.3515625 0.80078125 -0.43554688 0.30859375 0.087402344 -0.41210938 -0.20996094 0.023803711
0000c0 ed bd a8 bd 09 bf 53 3e bc 3f 96 3f 23 3f af 3f
       -0.115722656 -0.08203125 -0.53515625 0.20605469 1.46875 1.171875 0.63671875 1.3671875
0000d0 a8 bf 67 3e b2 bf ce bd 9a 3f a0 3f 43 3f 72 3f
       -1.3125 0.22558594 -1.390625 -0.10058594 1.203125 1.25 0.76171875 0.9453125
0000e0 e7 bf 81 be 0c c0 52 bf a2 3d 81 3e 26 3e 43 bf
       -1.8046875 -0.25195312 -2.1875 -0.8203125 0.07910156 0.25195312 0.16210938 -0.76171875
0000f0 e0 bf 7c bf ae bf bd bf b1 bf 77 bf 65 bf 09 c0
       -1.75 -0.984375 -1.359375 -1.4765625 -1.3828125 -0.96484375 -0.89453125 -2.140625
000100 de bf 16 bf 10 c0 06 bf 14 bf f5 be 5f bf fa bf
       -1.734375 -0.5859375 -2.25 -0.5234375 -0.578125 -0.47851562 -0.87109375 -1.953125
000110 55 bf 12 bf e1 bf ae be 22 3e d2 bd 0f bf 72 bf
       -0.83203125 -0.5703125 -1.7578125 -0.33984375 0.15820312 -0.10253906 -0.55859375 -0.9453125
000120 1e c0 ed 3e 41 c0 48 bf 99 bf 81 bf 89 3d 36 bf
       -2.46875 0.46289062 -3.015625 -0.78125 -1.1953125 -1.0078125 0.06689453 -0.7109375
000130 1d c0 89 3e 22 c0 6c bf e8 bf de bf 8e bf f2 bf
       -2.453125 0.26757812 -2.53125 -0.921875 -1.8125 -1.734375 -1.109375 -1.890625
000140 c7 bf 9e 3d 07 c0 82 bf 92 bf 77 bf ac bf b8 bf
       -1.5546875 0.07714844 -2.109375 -1.015625 -1.140625 -0.96484375 -1.34375 -1.4375
000150 c3 bf a8 3e d2 bf 93 bf d8 bf 9d bf b0 be 80 bf
       -1.5234375 0.328125 -1.640625 -1.1484375 -1.6875 -1.2265625 -0.34375 -1.0
000160 f9 bf 3c bf 27 c0 c9 bf ce bf bb bf b3 bf d8 bf
       -1.9453125 -0.734375 -2.609375 -1.5703125 -1.609375 -1.4609375 -1.3984375 -1.6875
000170 58 bf 10 3f e7 bf d4 bf e2 bf 00 c0 8f bf 0f c0
       -0.84375 0.5625 -1.8046875 -1.65625 -1.765625 -2.0 -1.1171875 -2.234375
000180 2f c0 6e bf 3e c0 2e c0 4a c0 3b c0 18 c0 6e c0
       -2.734375 -0.9296875 -2.96875 -2.71875 -3.15625 -2.921875 -2.375 -3.71875
000190 cd bf 75 3e 1c c0 35 be 97 bf 26 bf 3d bf fd bf
       -1.6015625 0.23925781 -2.4375 -0.17675781 -1.1796875 -0.6484375 -0.73828125 -1.9765625
0001a0 b1 bf fb 3d 0e c0 8e 3d 35 bf a1 be 10 bf ae bf
       -1.3828125 0.122558594 -2.21875 0.06933594 -0.70703125 -0.31445312 -0.5625 -1.359375
0001b0 ea bf 50 3e 17 c0 a2 bf ea bf df bf 90 bf 13 c0
       -1.828125 0.203125 -2.359375 -1.265625 -1.828125 -1.7421875 -1.125 -2.296875
0001c0 ec bf 7b be 02 c0 a5 bf 11 c0 ed bf d4 bf 1e c0
       -1.84375 -0.24511719 -2.03125 -1.2890625 -2.265625 -1.8515625 -1.65625 -2.46875
0001d0 c2 bf aa 3e 16 c0 6c bf be bf a1 bf c0 bf ee bf
       -1.515625 0.33203125 -2.34375 -0.921875 -1.484375 -1.2578125 -1.5 -1.859375
0001e0 4a be ac 3e c8 bf 66 bf 40 bf 4d bf 0f be 28 bf
       -0.19726562 0.3359375 -1.5625 -0.8984375 -0.75 -0.80078125 -0.13964844 -0.65625
0001f0 dc bf 40 bf 33 c0 c5 bf cb bf c9 bf be bf fd bf
       -1.71875 -0.75 -2.796875 -1.5390625 -1.5859375 -1.5703125 -1.484375 -1.9765625

b bf16 [8192, 8]
000000 80 bf d5 40 d5 bf 98 bd 36 3e 05 bf 8a 3f a0 3e
       -1.0 6.65625 -1.6640625 -0.07421875 0.17773438 -0.51953125 1.078125 0.3125
000010 ee bf d5 40 0f c0 e5 be d4 3e 71 3e a1 3f d2 3f
       -1.859375 6.65625 -2.234375 -0.44726562 0.4140625 0.23535156 1.2578125 1.640625
000020 5b bf d6 40 04 c0 58 bf 2a bf 49 bf 6d 3f 7d be
       -0.85546875 6.6875 -2.0625 -0.84375 -0.6640625 -0.78515625 0.92578125 -0.24707031
000030 c1 bf d6 40 dd bf ad be 85 be 68 bf 3e 3f 0e 3e
       -1.5078125 6.6875 -1.7265625 -0.33789062 -0.25976562 -0.90625 0.7421875 0.13867188
000040 f8 bf de 40 18 c0 5c bf e5 be 46 bf 21 3f a7 3f
       -1.9375 6.9375 -2.375 -0.859375 -0.44726562 -0.7734375 0.62890625 1.3046875
000050 1e c0 c1 40 31 c0 33 be 22 3f fd 3e f3 3f 6a 3f
       -2.46875 6.03125 -2.765625 -0.17480469 0.6328125 0.49414062 1.8984375 0.9140625
000060 12 c0 d5 40 db bf af bf c3 bf f0 bf 6e bf 02 c0
       -2.28125 6.65625 -1.7109375 -1.3671875 -1.5234375 -1.875 -0.9296875 -2.03125
000070 e7 bf d4 40 0c c0 ad bf c9 bf d7 bf 46 bf f8 bf
       -1.8046875 6.625 -2.1875 -1.3515625 -1.5703125 -1.6796875 -0.7734375 -1.9375
000080 e2 bf d5 40 30 c0 68 bf 83 bf 9d bf 05 3d 0c bf
       -1.765625 6.65625 -2.75 -0.90625 -1.0234375 -1.2265625 0.032470703 -0.546875
000090 10 c0 d9 40 43 c0 10 bf 9d 3d 2f 3e 79 3f 6d 3f
       -2.25 6.78125 -3.046875 -0.5625 0.076660156 0.17089844 0.97265625 0.92578125
0000a0 ce bf dc 40 41 c0 a4 bf c0 bf bd bf de bd ae bf
       -1.609375 6.875 -3.015625 -1.28125 -1.5 -1.4765625 -0.10839844 -1.359375
0000b0 dd be dd 40 07 c0 7a bf 3a bf bb bf 9f be 11 bf
       -0.43164062 6.90625 -2.109375 -0.9765625 -0.7265625 -1.4609375 -0.31054688 -0.56640625
0000c0 b7 bf cf 40 b8 bf cd bd 3a 3f 01 3f 7f 3f db 3f
       -1.4296875 6.46875 -1.4375 -0.100097656 0.7265625 0.50390625 0.99609375 1.7109375
0000d0 a4 bf df 40 d0 bf 74 be 01 3c 9b 3e 82 3f b3 3f
       -1.28125 6.96875 -1.625 -0.23828125 0.007873535 0.30273438 1.015625 1.3984375
0000e0 f1 bf ce 40 26 c0 3b be db 3e fb 3e bf 3f c8 3f
       -1.8828125 6.4375 -2.59375 -0.18261719 0.42773438 0.49023438 1.4921875 1.5625
0000f0 00 c0 cc 40 2e c0 8e bf 7d bf 46 bf 89 3f f3 3e
       -2.0 6.375 -2.71875 -1.109375 -0.98828125 -0.7734375 1.0703125 0.47460938
000100 04 c0 d1 40 10 c0 4e bf 46 bf 2d bf bc 3e f9 be
       -2.0625 6.53125 -2.25 -0.8046875 -0.7734375 -0.67578125 0.3671875 -0.48632812
000110 91 bf d8 40 1e c0 eb 3d 32 3e f8 3e 69 3f f9 3c
       -1.1328125 6.75 -2.46875 0.114746094 0.17382812 0.484375 0.91015625 0.030395508
000120 13 c0 de 40 46 c0 c2 be 3d 3f 89 3f b2 3f bf 3f
       -2.296875 6.9375 -3.09375 -0.37890625 0.73828125 1.0703125 1.390625 1.4921875
000130 2c c0 d6 40 49 c0 8f bf 37 bf f1 be 96 3e d2 be
       -2.6875 6.6875 -3.140625 -1.1171875 -0.71484375 -0.47070312 0.29296875 -0.41015625
000140 f9 bf e5 40 22 c0 01 bf 0f bf 2f bf 6f 3c da be
       -1.9453125 7.15625 -2.53125 -0.50390625 -0.55859375 -0.68359375 0.014587402 -0.42578125
000150 26 c0 c0 40 59 c0 08 bf a3 3e b8 3e 8a 3f 6e 3f
       -2.59375 6.0 -3.390625 -0.53125 0.31835938 0.359375 1.078125 0.9296875
000160 09 c0 e3 40 05 c0 98 bf b9 bf d0 bf 92 be 94 be
       -2.140625 7.09375 -2.078125 -1.1875 -1.4453125 -1.625 -0.28515625 -0.2890625
000170 11 c0 c8 40 5e c0 95 bf a0 bf 70 bf 59 3e bc be
       -2.265625 6.25 -3.46875 -1.1640625 -1.25 -0.9375 0.21191406 -0.3671875
000180 1e c0 cb 40 16 c0 0b c0 1f c0 09 c0 11 bf 9d bf
       -2.46875 6.34375 -2.34375 -2.171875 -2.484375 -2.140625 -0.56640625 -1.2265625
000190 f2 bf d5 40 40 c0 97 bf 8b bf 3a bf 1c 3f 05 bf
       -1.890625 6.65625 -3.0 -1.1796875 -1.0859375 -0.7265625 0.609375 -0.51953125
0001a0 ee bf e7 40 4c c0 a7 bc b4 3e eb 3e 82 3f 46 3e
       -1.859375 7.21875 -3.1875 -0.020385742 0.3515625 0.45898438 1.015625 0.19335938
0001b0 1e c0 d0 40 89 c0 a3 bf 22 bf 4b bd 2e 3e bc be
       -2.46875 6.5 -4.28125 -1.2734375 -0.6328125 -0.049560547 0.16992188 -0.3671875
0001c0 14 c0 db 40 0d c0 cf bf b0 bf 96 bf 95 be 8d bf
       -2.3125 6.84375 -2.203125 -1.6171875 -1.375 -1.171875 -0.29101562 -1.1015625
0001d0 1e c0 e9 40 3c c0 32 bf 71 bf 3f bf 3a 3d de be
       -2.46875 7.28125 -2.9375 -0.6953125 -0.94140625 -0.74609375 0.045410156 -0.43359375
0001e0 12 c0 cc 40 72 c0 27 bf c0 bd e2 3e 8e 3f 72 3f
       -2.28125 6.375 -3.78125 -0.65234375 -0.09375 0.44140625 1.109375 0.9453125
0001f0 1c c0 e3 40 24 c0 94 bf d1 bf bf bf 46 be 08 bf
       -2.4375 7.09375 -2.5625 -1.15625 -1.6328125 -1.4921875 -0.19335938 -0.53125
