mlsys26_contest/blob/workloads/gdn/gdn_prefill_qk4_v8_d128_k_last/gdn_prefill_qk4_v8_d128_k_last_9d3288c7-7a2a-4303-86d9-c0d62c1b7d51.safetensors (safetensors, 262776 bytes, 4 tensors)

A_log f4 [8]
0	0x3ea40000	0.3203125
1	0xbf9d0000	-1.2265625
2	0xbf850000	-1.0390625
3	0x3faf0000	1.3671875
4	0x3ecd0000	0.40039062
5	0x3fa80000	1.3125
6	0x3ff40000	1.90625
7	0x3e640000	0.22265625

dt_bias f4 [8]
0	0x3f9e0000	1.234375
1	0xc0ce0000	-6.4375
2	0xc0c40000	-6.125
3	0xbfc20000	-1.515625
4	0xc0c80000	-6.25
5	0xc0860000	-4.1875
6	0xc0aa0000	-5.3125
7	0xc06a0000	-3.65625

a bf16 [8192, 8]
0	0x3fda	1.703125
1	0xbff9	-1.9453125
2	0xbe68	-0.2265625
3	0x3fb6	1.421875
4	0x400d	2.203125
5	0xbf9e	-1.234375
6	0xc023	-2.546875
7	0xc016	-2.34375
8	0x4007	2.109375
9	0xbf90	-1.125
10	0x3ed6	0.41796875
11	0x3fc8	1.5625
12	0x3f7c	0.984375
13	0xbf4a	-0.7890625
14	0xc003	-2.046875
15	0xbf9f	-1.2421875
16	0x3fdc	1.71875
17	0xbe46	-0.19335938
18	0xbeb0	-0.34375
19	0x3fb8	1.4375
20	0x3f9d	1.2265625
21	0xbf64	-0.890625
22	0xc00d	-2.203125
23	0xbf6d	-0.92578125
24	0x3fb3	1.3984375
25	0xbf02	-0.5078125
26	0x402a	2.65625
27	0x3f98	1.1875
28	0x3fc0	1.5
29	0xbee8	-0.453125
30	0xbfa9	-1.3203125
31	0xbe2f	-0.17089844
32	0x3fcd	1.6015625
33	0xbf86	-1.046875
34	0x3fba	1.453125
35	0x3fec	1.84375
36	0x3fde	1.734375
37	0x3ea1	0.31445312
38	0xbf83	-1.0234375
39	0xbf1e	-0.6171875
40	0x3f93	1.1484375
41	0x3e42	0.18945312
42	0x408c	4.375
43	0x3fb7	1.4296875
44	0x4036	2.84375
45	0x3fbc	1.46875
46	0x3fa3	1.2734375
47	0x3ffe	1.984375
48	0x3fc6	1.546875
49	0xbf0b	-0.54296875
50	0x3fc5	1.5390625
51	0x4025	2.578125
52	0x3fed	1.8515625
53	0x3d81	0.06298828
54	0x3ef4	0.4765625
55	0x3de5	0.111816406
56	0x3fce	1.609375
57	0xbfaf	-1.3671875
58	0x4018	2.375
59	0x4003	2.046875
60	0x3fb0	1.375
61	0x3fb1	1.3828125
62	0x3f83	1.0234375
63	0x3f5f	0.87109375
64	0x3fc8	1.5625
65	0xbfa4	-1.28125
66	0x3fb7	1.4296875
67	0x403c	2.9375
68	0x3f85	1.0390625
69	0xbe96	-0.29296875
70	0xbfe5	-1.7890625
71	0xbfdf	-1.7421875
72	0x401e	2.46875
73	0xbf9d	-1.2265625
74	0x3d1a	0.037597656
75	0x3fc2	1.515625
76	0x3cf1	0.029418945
77	0xbded	-0.115722656
78	0xc002	-2.03125
79	0xbfd3	-1.6484375
80	0x3f56	0.8359375
81	0xbf64	-0.890625
82	0xbf05	-0.51953125
83	0x3ffa	1.953125
84	0x3fc7	1.5546875
85	0x3eb9	0.36132812
86	0x3e04	0.12890625
87	0x3f25	0.64453125
88	0x3ef9	0.48632812
89	0xbf7b	-0.98046875
90	0xbe1a	-0.15039062
91	0x4024	2.5625
92	0xbf94	-1.15625
93	0xbfdd	-1.7265625
94	0xc02c	-2.6875
95	0xc037	-2.859375
96	0x3f1d	0.61328125
97	0xbfc6	-1.546875
98	0xbe1a	-0.15039062
99	0x3f5c	0.859375
100	0xbe29	-0.16503906
101	0xbf96	-1.171875
102	0xc020	-2.5
103	0xbfdc	-1.71875
104	0x3f45	0.76953125
105	0xc003	-2.046875
106	0xbe66	-0.22460938
107	0xbf1b	-0.60546875
108	0xbfbb	-1.4609375
109	0xbfb5	-1.4140625
110	0xc033	-2.796875
111	0xbff7	-1.9296875
112	0x3f87	1.0546875
113	0xc008	-2.125
114	0xbf28	-0.65625
115	0x3f0e	0.5546875
116	0xbfcf	-1.6171875
117	0xbfb3	-1.3984375
118	0xc034	-2.8125
119	0xbffb	-1.9609375
120	0x3fdf	1.7421875
121	0xc024	-2.5625
122	0x3e5b	0.21386719
123	0x4012	2.28125
124	0xbfcf	-1.6171875
125	0xbfd1	-1.6328125
126	0xc091	-4.53125
127	0xc07c	-3.9375
128	0x3fed	1.8515625
129	0xbd77	-0.060302734
130	0xbee8	-0.453125
131	0x3ed3	0.41210938
132	0xbe30	-0.171875
133	0xbf75	-0.95703125
134	0xc062	-3.53125
135	0xc035	-2.828125
136	0x3f98	1.1875
137	0x3ea0	0.3125
138	0x3ed6	0.41796875
139	0x3fea	1.828125
140	0x3fa2	1.265625
141	0xbd12	-0.03564453
142	0xbe7e	-0.24804688
143	0x3ef5	0.47851562
144	0x3f4a	0.7890625
145	0x3fb5	1.4140625
146	0x407e	3.96875
147	0x4015	2.328125
148	0x3fd6	1.671875
149	0x3dee	0.11621094
150	0x3f72	0.9453125
151	0x3fa8	1.3125
152	0x3f89	1.0703125
153	0xbfb1	-1.3828125
154	0x4003	2.046875
155	0x4025	2.578125
156	0xbeb3	-0.34960938
157	0xbf94	-1.15625
158	0x3f36	0.7109375
159	0x3e5e	0.21679688
160	0x3fbc	1.46875
161	0xc007	-2.109375
162	0x3f80	1.0
163	0x400f	2.234375
164	0x3f68	0.90625
165	0xbf36	-0.7109375
166	0xbf61	-0.87890625
167	0xbf88	-1.0625
168	0x3f24	0.640625
169	0xc05c	-3.4375
170	0x3f50	0.8125
171	0x4007	2.109375
172	0xbf2f	-0.68359375
173	0xbf61	-0.87890625
174	0xc040	-3.0
175	0xc057	-3.359375
176	0x3e7c	0.24609375
177	0xc048	-3.125
178	0x3ffd	1.9765625
179	0x3f37	0.71484375
180	0x3e6b	0.22949219
181	0xbeff	-0.49804688
182	0xbe1a	-0.15039062
183	0xbf15	-0.58203125
184	0x3e3a	0.18164062
185	0xc02a	-2.65625
186	0x3dc4	0.095703125
187	0x3fff	1.9921875
188	0x3e8f	0.27929688
189	0x3ea1	0.31445312
190	0x3e36	0.17773438
191	0x3f27	0.65234375
192	0x3fb3	1.3984375
193	0xbfa1	-1.2578125
194	0xbf60	-0.875
195	0x4032	2.78125
196	0xbf0a	-0.5390625
197	0xbf9e	-1.234375
198	0xc014	-2.3125
199	0xc02a	-2.65625
200	0x3f99	1.1953125
201	0xc005	-2.078125
202	0x3e56	0.20898438
203	0x3fbd	1.4765625
204	0x3fd5	1.6640625
205	0xbf32	-0.6953125
206	0xc019	-2.390625
207	0xbf9d	-1.2265625
208	0x4017	2.359375
209	0xc00b	-2.171875
210	0x3e9d	0.30664062
211	0x4008	2.125
212	0x3e47	0.19433594
213	0xbfb7	-1.4296875
214	0xc053	-3.296875
215	0xc017	-2.359375
216	0x401d	2.453125
217	0xc02f	-2.734375
218	0xbf2e	-0.6796875
219	0x3fed	1.8515625
220	0x3e75	0.23925781
221	0xbf4f	-0.80859375
222	0xc046	-3.09375
223	0xc01c	-2.4375
224	0x3fb6	1.421875
225	0xc059	-3.390625
226	0xbf42	-0.7578125
227	0x3ff0	1.875
228	0xbe0c	-0.13671875
229	0xbe93	-0.28710938
230	0xc004	-2.0625
231	0xbfb1	-1.3828125
232	0x3feb	1.8359375
233	0xc01c	-2.4375
234	0xbfe2	-1.765625
235	0x3fbe	1.484375
236	0xbf3d	-0.73828125
237	0xbf7b	-0.98046875
238	0xc027	-2.609375
239	0xc01d	-2.453125
240	0x3fd9	1.6953125
241	0xc01d	-2.453125
242	0xbf41	-0.75390625
243	0x3f6a	0.9140625
244	0xbdab	-0.083496094
245	0xbe82	-0.25390625
246	0xbf7f	-0.99609375
247	0xbe2b	-0.16699219
248	0xbf45	-0.76953125
249	0xbf9d	-1.2265625
250	0xbf15	-0.58203125
251	0x4007	2.109375
252	0xbe84	-0.2578125
253	0x3ee1	0.43945312
254	0x3e5f	0.21777344
255	0x3f86	1.046875

b bf16 [8192, 8]
0	0x40b2	5.5625
1	0xc08e	-4.4375
2	0xc018	-2.375
3	0x40a4	5.125
4	0xbf92	-1.140625
5	0xbf68	-0.90625
6	0xbfa7	-1.3046875
7	0xbf68	-0.90625
8	0x40b6	5.6875
9	0xc07b	-3.921875
10	0xc027	-2.609375
11	0x4095	4.65625
12	0xbfb5	-1.4140625
13	0xbf3c	-0.734375
14	0xbff4	-1.90625
15	0xbf9b	-1.2109375
16	0x40d1	6.53125
17	0xc07b	-3.921875
18	0xc009	-2.140625
19	0x4098	4.75
20	0xbfe7	-1.8046875
21	0xbf5d	-0.86328125
22	0xbf61	-0.87890625
23	0xbef8	-0.484375
24	0x40b8	5.75
25	0xc082	-4.0625
26	0xc021	-2.515625
27	0x4053	3.296875
28	0xbfc7	-1.5546875
29	0xbfb9	-1.4453125
30	0xc00f	-2.234375
31	0xbfa0	-1.25
32	0x40cd	6.40625
33	0xc059	-3.390625
34	0xbff4	-1.90625
35	0x4061	3.515625
36	0xbf88	-1.0625
37	0xbf15	-0.58203125
38	0xbf6e	-0.9296875
39	0xbf10	-0.5625
40	0x40da	6.8125
41	0xc04b	-3.171875
42	0xbff7	-1.9296875
43	0x4090	4.5
44	0xbfa2	-1.265625
45	0xbf1a	-0.6015625
46	0xbf31	-0.69140625
47	0xbe06	-0.13085938
48	0x40a0	5.0
49	0xc053	-3.296875
50	0xbff3	-1.8984375
51	0x40a4	5.125
52	0xbf69	-0.91015625
53	0x3cac	0.020996094
54	0x3f88	1.0625
55	0x3f18	0.59375
56	0x40d9	6.78125
57	0xc060	-3.5
58	0xbfdf	-1.7421875
59	0x4094	4.625
60	0xbf39	-0.72265625
61	0x3c93	0.017944336
62	0x3f31	0.69140625
63	0x3eed	0.46289062
64	0x40bf	5.96875
65	0xc08c	-4.375
66	0xc00a	-2.15625
67	0x4099	4.78125
68	0xbf8e	-1.109375
69	0xbee9	-0.45507812
70	0x3edf	0.43554688
71	0x3f88	1.0625
72	0x40c4	6.125
73	0xc083	-4.09375
74	0xc002	-2.03125
75	0x406c	3.6875
76	0xbfea	-1.828125
77	0xbf18	-0.59375
78	0xbfa7	-1.3046875
79	0xbf6f	-0.93359375
80	0x40c6	6.1875
81	0xc06a	-3.65625
82	0xc004	-2.0625
83	0x409c	4.875
84	0xbfdf	-1.7421875
85	0xbf9a	-1.203125
86	0xbf40	-0.75
87	0xbe9d	-0.30664062
88	0x409c	4.875
89	0xc07a	-3.90625
90	0xc017	-2.359375
91	0x4088	4.25
92	0xbfd4	-1.65625
93	0xbf33	-0.69921875
94	0x3eab	0.33398438
95	0x3f38	0.71875
96	0x40ae	5.4375
97	0xc086	-4.1875
98	0xc006	-2.09375
99	0x4083	4.09375
100	0xbfc1	-1.5078125
101	0xbf12	-0.5703125
102	0xbf99	-1.1953125
103	0xbf81	-1.0078125
104	0x4074	3.8125
105	0xc08f	-4.46875
106	0xc01b	-2.421875
107	0x4030	2.75
108	0xc01a	-2.40625
109	0xbf4f	-0.80859375
110	0xc026	-2.59375
111	0xc017	-2.359375
112	0x409a	4.8125
113	0xc085	-4.15625
114	0xc020	-2.5
115	0x4084	4.125
116	0xc01b	-2.421875
117	0xbfb8	-1.4375
118	0xbfd9	-1.6953125
119	0xbf96	-1.171875
120	0x40b1	5.53125
121	0xc07e	-3.96875
122	0xc012	-2.28125
123	0x408a	4.3125
124	0xc01f	-2.484375
125	0xbfb9	-1.4453125
126	0xbfb2	-1.390625
127	0xbf08	-0.53125
128	0x40ce	6.4375
129	0xc084	-4.125
130	0xc010	-2.25
131	0x4089	4.28125
132	0xbff7	-1.9296875
133	0xbf51	-0.81640625
134	0xc006	-2.09375
135	0xbfa8	-1.3125
136	0x40c1	6.03125
137	0xc067	-3.609375
138	0xc006	-2.09375
139	0x4095	4.65625
140	0xbfdc	-1.71875
141	0xbf9f	-1.2421875
142	0xbf9a	-1.203125
143	0xbed9	-0.42382812
144	0x40cd	6.40625
145	0xc055	-3.328125
146	0xc014	-2.3125
147	0x409b	4.84375
148	0xbfac	-1.34375
149	0xbf17	-0.58984375
150	0xbecf	-0.40429688
151	0xbd9b	-0.075683594
152	0x40c1	6.03125
153	0xc064	-3.5625
154	0xc022	-2.53125
155	0x4091	4.53125
156	0xbfb1	-1.3828125
157	0xbef2	-0.47265625
158	0x3e38	0.1796875
159	0xbd3d	-0.046142578
160	0x40bd	5.90625
161	0xc080	-4.0
162	0xc012	-2.28125
163	0x409e	4.9375
164	0xbf92	-1.140625
165	0xbefb	-0.49023438
166	0xbe4c	-0.19921875
167	0xbdfe	-0.12402344
168	0x40b0	5.5
169	0xc089	-4.28125
170	0xc014	-2.3125
171	0x407b	3.921875
172	0xc01a	-2.40625
173	0xbf8f	-1.1171875
174	0xbed7	-0.41992188
175	0xbea4	-0.3203125
176	0x40db	6.84375
177	0xc080	-4.0
178	0xc01e	-2.46875
179	0x409f	4.96875
180	0xc00e	-2.21875
181	0xbfc6	-1.546875
182	0xbff4	-1.90625
183	0xbfdb	-1.7109375
184	0x40bd	5.90625
185	0xc07f	-3.984375
186	0xbfff	-1.9921875
187	0x40b7	5.71875
188	0xc001	-2.015625
189	0xbf99	-1.1953125
190	0x3ecd	0.40039062
191	0x3e75	0.23925781
192	0x4099	4.78125
193	0xc07e	-3.96875
194	0xc00b	-2.171875
195	0x409c	4.875
196	0xbfe9	-1.8203125
197	0xbf75	-0.95703125
198	0x3ebe	0.37109375
199	0x3f2b	0.66796875
200	0x4085	4.15625
201	0xc06f	-3.734375
202	0xbffb	-1.9609375
203	0x4087	4.21875
204	0xbfdf	-1.7421875
205	0xbf3b	-0.73046875
206	0xbf25	-0.64453125
207	0xbed1	-0.40820312
208	0x407e	3.96875
209	0xc08c	-4.375
210	0xc014	-2.3125
211	0x406c	3.6875
212	0xc002	-2.03125
213	0xbfa4	-1.28125
214	0xbede	-0.43359375
215	0x3ec7	0.38867188
216	0x40b6	5.6875
217	0xc08d	-4.40625
218	0xc02e	-2.71875
219	0x4094	4.625
220	0xbfa9	-1.3203125
221	0xbf3e	-0.7421875
222	0xc005	-2.078125
223	0xbf69	-0.91015625
224	0x40be	5.9375
225	0xc083	-4.09375
226	0xc003	-2.046875
227	0x4097	4.71875
228	0xbfac	-1.34375
229	0xbef7	-0.48242188
230	0xbf4e	-0.8046875
231	0x3e87	0.26367188
232	0x40bb	5.84375
233	0xc084	-4.125
234	0xc018	-2.375
235	0x409c	4.875
236	0xbfbd	-1.4765625
237	0xbee8	-0.453125
238	0xbfa2	-1.265625
239	0xbf01	-0.50390625
240	0x40c2	6.0625
241	0xc07c	-3.9375
242	0xc009	-2.140625
243	0x4088	4.25
244	0xbfe6	-1.796875
245	0xbf44	-0.765625
246	0xbfee	-1.859375
247	0xbf8a	-1.078125
248	0x40d4	6.625
249	0xc087	-4.21875
250	0xc01e	-2.46875
251	0x40a8	5.25
252	0xbfea	-1.828125
253	0xbf55	-0.83203125
254	0xbeb7	-0.35742188
255	0x3f0b	0.54296875
