mlsys26_contest/blob/workloads/gdn/gdn_prefill_qk4_v8_d128_k_last/gdn_prefill_qk4_v8_d128_k_last_eede4685-fca2-4cd9-bf05-6e8471f86b54.safetensors (safetensors, 18880 bytes, 4 tensors)

A_log f4 [8]
0	0x40220000	2.53125
1	0x3f090000	0.53515625
2	0x3fc30000	1.5234375
3	0x3e560000	0.20898438
4	0x3e5d0000	0.21582031
5	0x3f800000	1.0
6	0x40120000	2.28125
7	0x3ed30000	0.41210938

dt_bias f4 [8]
0	0xc0a20000	-5.0625
1	0xc0540000	-3.3125
2	0xc0720000	-3.78125
3	0xc0930000	-4.59375
4	0xc09e0000	-4.9375
5	0xc0ac0000	-5.375
6	0xc0a20000	-5.0625
7	0xbfb40000	-1.40625

a bf16 [577, 8]
0	0x4086	4.1875
1	0x4070	3.75
2	0x3fc7	1.5546875
3	0x4081	4.03125
4	0x4083	4.09375
5	0x405b	3.421875
6	0x3fb8	1.4375
7	0x3f84	1.03125
8	0x400a	2.15625
9	0x4015	2.328125
10	0x3ffd	1.9765625
11	0x4080	4.0
12	0x4080	4.0
13	0x4057	3.359375
14	0x4039	2.890625
15	0x4035	2.828125
16	0x3f82	1.015625
17	0x3fba	1.453125
18	0x3fd1	1.6328125
19	0x4037	2.859375
20	0x403c	2.9375
21	0x401e	2.46875
22	0x3f98	1.1875
23	0x4007	2.109375
24	0x3c3a	0.011352539
25	0x3f83	1.0234375
26	0x3eb7	0.35742188
27	0x4007	2.109375
28	0x402f	2.734375
29	0x4012	2.28125
30	0x3f94	1.15625
31	0x400d	2.203125
32	0xbf2d	-0.67578125
33	0xbf3c	-0.734375
34	0x3eb4	0.3515625
35	0x3fd7	1.6796875
36	0x402d	2.703125
37	0x4014	2.3125
38	0xbe18	-0.1484375
39	0x3f38	0.71875
40	0x3d34	0.043945312
41	0x3e3f	0.18652344
42	0x3e51	0.20410156
43	0x402f	2.734375
44	0x405c	3.4375
45	0x4040	3.0
46	0x3f46	0.7734375
47	0x3fac	1.34375
48	0x3ebc	0.3671875
49	0x3fa3	1.2734375
50	0xbe56	-0.20898438
51	0x4008	2.125
52	0x4008	2.125
53	0x3fe9	1.8203125
54	0x3f2f	0.68359375
55	0x4024	2.5625
56	0xbf2d	-0.67578125
57	0x3f37	0.71484375
58	0xbe98	-0.296875
59	0x3faa	1.328125
60	0x3f6b	0.91796875
61	0x3f52	0.8203125
62	0x3edd	0.43164062
63	0x401f	2.484375
64	0xbfbb	-1.4609375
65	0xbe22	-0.15820312
66	0xbf4d	-0.80078125
67	0x3fd7	1.6796875
68	0x400c	2.1875
69	0x3ffb	1.9609375
70	0xbe2a	-0.16601562
71	0x3fb8	1.4375
72	0x3e89	0.26757812
73	0x3f8b	1.0859375
74	0xbf30	-0.6875
75	0x3fc7	1.5546875
76	0x3fe7	1.8046875
77	0x3fc8	1.5625
78	0x3ea9	0.33007812
79	0x3f81	1.0078125
80	0x3f92	1.140625
81	0x3ff6	1.921875
82	0x3f89	1.0703125
83	0x3fc3	1.5234375
84	0x3fe5	1.7890625
85	0x3fd8	1.6875
86	0x3faf	1.3671875
87	0x403c	2.9375
88	0xbee7	-0.45117188
89	0x3e99	0.29882812
90	0x3e9d	0.30664062
91	0x3f7b	0.98046875
92	0x3f5f	0.87109375
93	0x3f24	0.640625
94	0x3f1b	0.60546875
95	0x4037	2.859375
96	0x3eba	0.36328125
97	0x3f63	0.88671875
98	0x3e55	0.20800781
99	0x3f8f	1.1171875
100	0x3fc5	1.5390625
101	0x3fc3	1.5234375
102	0x3cad	0.021118164
103	0x400e	2.21875
104	0xbeb3	-0.34960938
105	0x3ed5	0.41601562
106	0x3d97	0.07373047
107	0x3ee0	0.4375
108	0x3fa4	1.28125
109	0x3f6c	0.921875
110	0xbe61	-0.21972656
111	0x4017	2.359375
112	0xbfc6	-1.546875
113	0xbf88	-1.0625
114	0xbec1	-0.37695312
115	0x3e70	0.234375
116	0x3f06	0.5234375
117	0x3ef5	0.47851562
118	0xbf94	-1.15625
119	0x3e3d	0.18457031
120	0xbfbc	-1.46875
121	0xbef3	-0.47460938
122	0x3f51	0.81640625
123	0x3f50	0.8125
124	0x3fcd	1.6015625
125	0x3fbb	1.4609375
126	0xbef9	-0.48632812
127	0x3fa7	1.3046875
128	0xbfb5	-1.4140625
129	0xbf73	-0.94921875
130	0xbd01	-0.03149414
131	0x3dec	0.115234375
132	0x3ed8	0.421875
133	0x3e9e	0.30859375
134	0xbf86	-1.046875
135	0x3f9e	1.234375
136	0xbfa4	-1.28125
137	0xbf73	-0.94921875
138	0xbf8a	-1.078125
139	0x3fa0	1.25
140	0x3f64	0.890625
141	0x3f26	0.6484375
142	0xbe51	-0.20410156
143	0x3fc6	1.546875
144	0xbfb3	-1.3984375
145	0xbeb5	-0.35351562
146	0xbfbd	-1.4765625
147	0xbe17	-0.14746094
148	0xbe9b	-0.30273438
149	0xbe66	-0.22460938
150	0xbf89	-1.0703125
151	0x3fb1	1.3828125
152	0xbfdf	-1.7421875
153	0xbf86	-1.046875
154	0xbfb9	-1.4453125
155	0x3f87	1.0546875
156	0xbeee	-0.46484375
157	0xbeb9	-0.36132812
158	0xbeab	-0.33398438
159	0x3fbe	1.484375
160	0x3fed	1.8515625
161	0x4012	2.28125
162	0x3f04	0.515625
163	0x4008	2.125
164	0x3ff2	1.890625
165	0x3fdc	1.71875
166	0x3ddf	0.10888672
167	0x3ff5	1.9140625
168	0x3f0d	0.55078125
169	0x3fb8	1.4375
170	0x3f94	1.15625
171	0x3f73	0.94921875
172	0x3f9c	1.21875
173	0x3f52	0.8203125
174	0x3ed4	0.4140625
175	0x4011	2.265625
176	0x3f36	0.7109375
177	0x3f91	1.1328125
178	0x3f8d	1.1015625
179	0x3fc7	1.5546875
180	0x3fc7	1.5546875
181	0x3fab	1.3359375
182	0x3f04	0.515625
183	0x3f74	0.953125
184	0x3f59	0.84765625
185	0x3fbe	1.484375
186	0x3fbf	1.4921875
187	0x3fc5	1.5390625
188	0x4024	2.5625
189	0x401c	2.4375
190	0x3fed	1.8515625
191	0x400f	2.234375
192	0xbf49	-0.78515625
193	0x3ec7	0.38867188
194	0x3f13	0.57421875
195	0x3e85	0.25976562
196	0x3f9b	1.2109375
197	0x3f55	0.83203125
198	0x3ea8	0.328125
199	0x4032	2.78125
200	0xc016	-2.34375
201	0xbfa7	-1.3046875
202	0x3f4f	0.80859375
203	0x3e94	0.2890625
204	0x3f45	0.76953125
205	0x3ef5	0.47851562
206	0xbc38	-0.011230469
207	0x3f8e	1.109375
208	0xc020	-2.5
209	0xbffc	-1.96875
210	0xbed2	-0.41015625
211	0xbef9	-0.48632812
212	0xbf2d	-0.67578125
213	0xbf68	-0.90625
214	0xbf49	-0.78515625
215	0x3f3c	0.734375
216	0xc02b	-2.671875
217	0xbfed	-1.8515625
218	0xbfa2	-1.265625
219	0x3f43	0.76171875
220	0x3f53	0.82421875
221	0x3eb7	0.35742188
222	0xbe51	-0.20410156
223	0x3f9e	1.234375
224	0xc00e	-2.21875
225	0xbfaa	-1.328125
226	0xbfe3	-1.7734375
227	0xbf19	-0.59765625
228	0xbf1d	-0.61328125
229	0xbf5f	-0.87109375
230	0xbf7f	-0.99609375
231	0x3f8c	1.09375
232	0xbfd7	-1.6796875
233	0xbf97	-1.1796875
234	0xbf7a	-0.9765625
235	0x3f7c	0.984375
236	0xbe3b	-0.18261719
237	0xbe17	-0.14746094
238	0xbee4	-0.4453125
239	0x3f54	0.828125
240	0x3f26	0.6484375
241	0x3fbb	1.4609375
242	0x3ebd	0.36914062
243	0x3eca	0.39453125
244	0x3f8a	1.078125
245	0x3f8e	1.109375
246	0x3e9b	0.30273438
247	0x3fe1	1.7578125
248	0xbed1	-0.40820312
249	0x3f24	0.640625
250	0xbf5d	-0.86328125
251	0x3e1d	0.15332031
252	0x3f33	0.69921875
253	0x3f35	0.70703125
254	0xbe8e	-0.27734375
255	0x4018	2.375

b bf16 [577, 8]
0	0x3f82	1.015625
1	0x3fb0	1.375
2	0x3faf	1.3671875
3	0xbf6b	-0.91796875
4	0x3f9c	1.21875
5	0x3fc8	1.5625
6	0x3b80	0.00390625
7	0x401f	2.484375
8	0x3f7c	0.984375
9	0x3fb4	1.40625
10	0x3f6e	0.9296875
11	0xbf83	-1.0234375
12	0xbf02	-0.5078125
13	0xbebe	-0.37109375
14	0x3e4c	0.19921875
15	0x403d	2.953125
16	0x3e99	0.29882812
17	0x3f71	0.94140625
18	0x3f84	1.03125
19	0xbfdd	-1.7265625
20	0xbfab	-1.3359375
21	0xbfb4	-1.40625
22	0xbdef	-0.11669922
23	0x402e	2.71875
24	0x3fea	1.828125
25	0x400f	2.234375
26	0x3f7f	0.99609375
27	0xbf86	-1.046875
28	0xbedb	-0.42773438
29	0xbe3a	-0.18164062
30	0x3e75	0.23925781
31	0x4053	3.296875
32	0xbe5b	-0.21386719
33	0xbf10	-0.5625
34	0x3f46	0.7734375
35	0xc010	-2.25
36	0xc015	-2.328125
37	0xc004	-2.0625
38	0xbfb5	-1.4140625
39	0x4001	2.015625
40	0x3f64	0.890625
41	0x3e32	0.17382812
42	0x3f9f	1.2421875
43	0xbf8e	-1.109375
44	0x3f8a	1.078125
45	0x3f9d	1.2265625
46	0xbe0b	-0.13574219
47	0x4067	3.609375
48	0x3f73	0.94921875
49	0x3f59	0.84765625
50	0x3fa9	1.3203125
51	0xbf72	-0.9453125
52	0xbea9	-0.33007812
53	0xbe12	-0.14257812
54	0xbe25	-0.16113281
55	0x4049	3.140625
56	0x3ff1	1.8828125
57	0x4004	2.0625
58	0x3fbd	1.4765625
59	0xbf8d	-1.1015625
60	0x3e34	0.17578125
61	0x3e9a	0.30078125
62	0x3e57	0.20996094
63	0x4079	3.890625
64	0xbf91	-1.1328125
65	0xbf78	-0.96875
66	0x3e8d	0.27539062
67	0xc00b	-2.171875
68	0xbf5c	-0.859375
69	0xbf5a	-0.8515625
70	0xbfad	-1.3515625
71	0x4037	2.859375
72	0x3f1d	0.61328125
73	0x3f33	0.69921875
74	0x3feb	1.8359375
75	0xbf87	-1.0546875
76	0x3f31	0.69140625
77	0x3f52	0.8203125
78	0x3f29	0.66015625
79	0x4054	3.3125
80	0x3ffe	1.984375
81	0x4028	2.625
82	0x3f4f	0.80859375
83	0xbfc3	-1.5234375
84	0x3e44	0.19140625
85	0x3ebe	0.37109375
86	0x3e8b	0.27148438
87	0x4066	3.59375
88	0x3fdb	1.7109375
89	0x4000	2.0
90	0x3faa	1.328125
91	0xbfba	-1.453125
92	0x3ed1	0.40820312
93	0x3f0e	0.5546875
94	0x3f51	0.81640625
95	0x4089	4.28125
96	0x3e11	0.14160156
97	0x3ef8	0.484375
98	0x3f53	0.82421875
99	0xbfcc	-1.59375
100	0xbdab	-0.083496094
101	0xbcba	-0.022705078
102	0x3dc0	0.09375
103	0x4059	3.390625
104	0x4021	2.515625
105	0x4034	2.8125
106	0x3fbf	1.4921875
107	0xbfca	-1.578125
108	0x3f5a	0.8515625
109	0x3f8b	1.0859375
110	0x3f86	1.046875
111	0x408a	4.3125
112	0xbede	-0.43359375
113	0x3d20	0.0390625
114	0x3fa3	1.2734375
115	0xc011	-2.265625
116	0xbf11	-0.56640625
117	0xbed5	-0.41601562
118	0xbf4c	-0.796875
119	0x3fd8	1.6875
120	0x3eab	0.33398438
121	0x3f86	1.046875
122	0x3f82	1.015625
123	0xbffd	-1.9765625
124	0x3eda	0.42578125
125	0x3f29	0.66015625
126	0xbeef	-0.46679688
127	0x403f	2.984375
128	0x3e2b	0.16699219
129	0x3dc8	0.09765625
130	0x3fc7	1.5546875
131	0xbfd1	-1.6328125
132	0x3e8e	0.27734375
133	0x3eca	0.39453125
134	0xbe56	-0.20898438
135	0x4029	2.640625
136	0x3e47	0.19433594
137	0x3ed1	0.40820312
138	0x3f96	1.171875
139	0xbfe1	-1.7578125
140	0xbd8f	-0.06982422
141	0x3e39	0.18066406
142	0xbe86	-0.26171875
143	0x4059	3.390625
144	0x3e29	0.16503906
145	0x3f1b	0.60546875
146	0x4022	2.53125
147	0xbfa5	-1.2890625
148	0x3e21	0.15722656
149	0x3e86	0.26171875
150	0x3ee7	0.45117188
151	0x4033	2.796875
152	0x3e4e	0.20117188
153	0x3f8b	1.0859375
154	0x3f1d	0.61328125
155	0xc01c	-2.4375
156	0xbe76	-0.24023438
157	0x3da6	0.08105469
158	0xbca2	-0.01977539
159	0x4049	3.140625
160	0xbdbe	-0.09277344
161	0x3ef4	0.4765625
162	0x3e88	0.265625
163	0xbff2	-1.890625
164	0xbe00	-0.125
165	0x3e4b	0.19824219
166	0x3e8a	0.26953125
167	0x402a	2.65625
168	0x4022	2.53125
169	0x4026	2.59375
170	0x3f92	1.140625
171	0xbfae	-1.359375
172	0x3f3d	0.73828125
173	0x3f51	0.81640625
174	0x3f60	0.875
175	0x4030	2.75
176	0xbed0	-0.40625
177	0xbf0b	-0.54296875
178	0x3ef1	0.47070312
179	0xc01e	-2.46875
180	0xbf6a	-0.9140625
181	0xbf2d	-0.67578125
182	0xbfc3	-1.5234375
183	0x3ff3	1.8984375
184	0x3faf	1.3671875
185	0x3fc1	1.5078125
186	0x3f46	0.7734375
187	0xbfed	-1.8515625
188	0xbd7a	-0.061035156
189	0x3dba	0.09082031
190	0xbe42	-0.18945312
191	0x4064	3.5625
192	0x4006	2.09375
193	0x4024	2.5625
194	0x3ff0	1.875
195	0xbfae	-1.359375
196	0x3f8f	1.1171875
197	0x3f95	1.1640625
198	0x3f8f	1.1171875
199	0x4066	3.59375
200	0x3eee	0.46484375
201	0x3f42	0.7578125
202	0x3f43	0.76171875
203	0xbff6	-1.921875
204	0x3e84	0.2578125
205	0x3eb8	0.359375
206	0xbeab	-0.33398438
207	0x4048	3.125
208	0xbe69	-0.22753906
209	0xbef7	-0.48242188
210	0x3f86	1.046875
211	0xc001	-2.015625
212	0xbed8	-0.421875
213	0xbefd	-0.49414062
214	0xbf1e	-0.6171875
215	0x4015	2.328125
216	0xbea1	-0.31445312
217	0xbf23	-0.63671875
218	0x3f32	0.6953125
219	0xc016	-2.34375
220	0xbf80	-1.0
221	0xbf70	-0.9375
222	0xbf27	-0.65234375
223	0x404d	3.203125
224	0x3cdd	0.026977539
225	0x3e4c	0.19921875
226	0x3fe7	1.8046875
227	0xbfeb	-1.8359375
228	0xbe08	-0.1328125
229	0xbd6b	-0.057373047
230	0x3e1e	0.15429688
231	0x401e	2.46875
232	0xbf33	-0.69921875
233	0xbf5f	-0.87109375
234	0x3d9e	0.07714844
235	0xc039	-2.890625
236	0xbfab	-1.3359375
237	0xbf90	-1.125
238	0xbf54	-0.828125
239	0x4045	3.078125
240	0x3f16	0.5859375
241	0x3f1e	0.6171875
242	0x3f33	0.69921875
243	0xbfe5	-1.7890625
244	0xbf22	-0.6328125
245	0xbf06	-0.5234375
246	0xbd65	-0.055908203
247	0x401f	2.484375
248	0x3f96	1.171875
249	0x3fd9	1.6953125
250	0x3f1b	0.60546875
251	0xc00b	-2.171875
252	0x3d06	0.032714844
253	0x3e8e	0.27734375
254	0x3dbf	0.09326172
255	0x4079	3.890625
