mlsys26_contest/blob/workloads/gdn/gdn_prefill_qk4_v8_d128_k_last/gdn_prefill_qk4_v8_d128_k_last_50e5f14a-499b-45f9-8959-ec111703ad5f.safetensors (safetensors, 14624 bytes, 4 tensors)

A_log f4 [8]
0.8984375 0.328125 -0.41601562 2.671875 0.20898438 -0.62109375 2.28125 2.890625
00000000: 0000 663f 0000 a83e 0000 d5be 0000 2b40
00000010: 0000 563e 0000 1fbf 0000 1240 0000 3940

dt_bias f4 [8]
-2.203125 -5.59375 -0.41210938 -6.1875 -3.8125 -6.28125 -2.71875 -4.9375
00000000: 0000 0dc0 0000 b3c0 0000 d3be 0000 c6c0
00000010: 0000 74c0 0000 c9c0 0000 2ec0 0000 9ec0

a bf16 [444, 8]
1.0 3.125 0.6171875 1.6953125 2.84375 4.75 0.29882812 1.25
1.015625 4.71875 1.0078125 2.796875 2.703125 4.90625 0.31054688 1.4453125
2.828125 3.53125 2.125 2.328125 1.796875 3.75 0.84765625 1.65625
0.71484375 2.453125 0.51953125 2.75 -0.5546875 0.265625 0.38085938 0.15234375
1.2421875 3.875 0.8515625 1.421875 1.515625 3.421875 0.6171875 -0.3203125
1.828125 2.90625 -0.091796875 0.58203125 0.07861328 2.5625 0.027832031 -0.17871094
0.45507812 0.8515625 0.72265625 -0.45703125 -1.2109375 0.29492188 0.203125 -1.9765625
1.0078125 3.109375 0.57421875 1.7109375 2.875 4.8125 0.28515625 1.234375
1.703125 3.859375 1.3828125 2.328125 2.484375 3.53125 0.26367188 1.328125
1.6953125 3.4375 1.1875 2.015625 1.0546875 2.28125 0.3984375 1.0390625
1.5703125 2.046875 0.94921875 1.359375 0.47851562 2.3125 0.020996094 0.20019531
1.75 1.4609375 0.86328125 2.109375 0.099121094 0.91015625 0.57421875 0.52734375
0.7890625 0.515625 1.3125 1.09375 -1.0390625 0.08203125 0.7265625 -0.5703125
0.49023438 -0.71875 -0.11376953 0.05444336 -2.546875 -0.76953125 0.359375 -1.0
0.64453125 -0.0038146973 0.17285156 -0.34179688 -2.015625 0.09375 0.12792969 -1.1484375
1.3828125 1.765625 0.100097656 0.34960938 0.9375 2.9375 0.35742188 -0.8515625
0.49023438 0.16992188 -0.39648438 -0.088378906 -1.8828125 -0.58984375 0.2578125 0.42578125
0.2109375 0.41796875 0.6796875 0.140625 -1.171875 0.13183594 1.1640625 -1.0703125
0.734375 2.46875 -0.021484375 0.26171875 0.8984375 3.265625 0.7734375 -0.103515625
2.265625 1.6875 0.7421875 -0.890625 0.77734375 2.578125 0.32226562 0.0047302246
2.875 0.14160156 0.89453125 -1.5 -2.078125 -0.87109375 -0.109375 -0.17675781
0.38085938 -0.703125 -0.47851562 -0.92578125 -2.515625 -0.22851562 0.30859375 0.46289062
0.23535156 0.640625 0.40625 -0.81640625 -0.91796875 0.77734375 0.38476562 -0.83984375
0.796875 -0.14550781 0.421875 -0.7109375 -0.671875 1.2265625 0.78515625 -0.46875
0.18457031 0.42773438 0.13671875 -1.640625 -1.140625 1.53125 0.86328125 -1.1953125
1.0 -1.234375 0.921875 -1.28125 -1.3125 0.52734375 0.27929688 -0.6015625
-1.515625 -1.0859375 -0.87890625 -1.625 -1.2265625 1.953125 -0.41210938 -1.5078125
-1.328125 -0.46484375 -0.8359375 -1.34375 -1.6015625 0.71484375 0.37304688 -1.5234375
1.4609375 2.953125 0.41015625 -0.515625 1.6484375 5.1875 1.078125 0.32617188
2.03125 3.71875 1.5234375 -0.104003906 2.421875 6.625 1.1953125 1.4140625
1.53125 1.78125 1.46875 0.31445312 -0.59375 1.96875 0.796875 0.34179688
0.8125 0.22460938 0.092285156 -0.2890625 -2.328125 -0.21679688 -0.048583984 -0.42773438
00000000: 803f 4840 1e3f d93f 3640 9840 993e a03f
00000010: 823f 9740 813f 3340 2d40 9d40 9f3e b93f
00000020: 3540 6240 0840 1540 e63f 7040 593f d43f
00000030: 373f 1d40 053f 3040 0ebf 883e c33e 1c3e
00000040: 9f3f 7840 5a3f b63f c23f 5b40 1e3f a4be
00000050: ea3f 3a40 bcbd 153f a13d 2440 e43c 37be
00000060: e93e 5a3f 393f eabe 9bbf 973e 503e fdbf
00000070: 813f 4740 133f db3f 3840 9a40 923e 9e3f
00000080: da3f 7740 b13f 1540 1f40 6240 873e aa3f
00000090: d93f 5c40 983f 0140 873f 1240 cc3e 853f
000000a0: c93f 0340 733f ae3f f53e 1440 ac3c 4d3e
000000b0: e03f bb3f 5d3f 0740 cb3d 693f 133f 073f
000000c0: 4a3f 043f a83f 8c3f 85bf a83d 3a3f 12bf
000000d0: fb3e 38bf e9bd 5f3d 23c0 45bf b83e 80bf
000000e0: 253f 7abb 313e afbe 01c0 c03d 033e 93bf
000000f0: b13f e23f cd3d b33e 703f 3c40 b73e 5abf
00000100: fb3e 2e3e cbbe b5bd f1bf 17bf 843e da3e
00000110: 583e d63e 2e3f 103e 96bf 073e 953f 89bf
00000120: 3c3f 1e40 b0bc 863e 663f 5140 463f d4bd
00000130: 1140 d83f 3e3f 64bf 473f 2540 a53e 9b3b
00000140: 3840 113e 653f c0bf 05c0 5fbf e0bd 35be
00000150: c33e 34bf f5be 6dbf 21c0 6abe 9e3e ed3e
00000160: 713e 243f d03e 51bf 6bbf 473f c53e 57bf
00000170: 4c3f 15be d83e 36bf 2cbf 9d3f 493f f0be
00000180: 3d3e db3e 0c3e d2bf 92bf c43f 5d3f 99bf
00000190: 803f 9ebf 6c3f a4bf a8bf 073f 8f3e 1abf
000001a0: c2bf 8bbf 61bf d0bf 9dbf fa3f d3be c1bf
000001b0: aabf eebe 56bf acbf cdbf 373f bf3e c3bf
000001c0: bb3f 3d40 d23e 04bf d33f a640 8a3f a73e
000001d0: 0240 6e40 c33f d5bd 1b40 d440 993f b53f
000001e0: c43f e43f bc3f a13e 18bf fc3f 4c3f af3e
000001f0: 503f 663e bd3d 94be 15c0 5ebe 47bd dbbe

b bf16 [444, 8]
0.875 1.0859375 3.1875 -1.6484375 1.890625 4.125 2.25 2.734375
0.47265625 0.99609375 0.9296875 -1.109375 1.609375 1.765625 3.0 2.640625
3.359375 1.1015625 1.6484375 -1.59375 1.3125 0.875 4.59375 2.171875
1.734375 0.58984375 2.28125 -1.421875 1.078125 0.61328125 3.703125 3.421875
1.828125 -0.54296875 1.5234375 -0.9609375 0.14648438 -0.31445312 2.4375 2.0
2.953125 0.5859375 2.28125 -2.078125 0.89453125 1.125 2.78125 3.265625
1.90625 -0.62109375 2.90625 -1.59375 0.10107422 -0.096191406 2.90625 3.15625
0.84375 1.09375 3.203125 -1.65625 1.8984375 4.1875 2.25 2.765625
1.0234375 1.7734375 1.9140625 -0.90234375 2.359375 2.671875 3.140625 2.53125
1.0390625 0.18554688 1.5703125 -1.5390625 0.81640625 0.40820312 3.734375 1.953125
1.7109375 -0.06225586 2.015625 -1.8671875 0.46289062 -0.0020446777 4.03125 1.0859375
1.546875 0.31640625 1.46875 -1.8828125 0.765625 0.21972656 3.828125 1.21875
1.3046875 -0.30859375 2.015625 -1.4453125 0.48046875 -0.55859375 4.75 0.4453125
0.49414062 -0.14453125 2.03125 -1.984375 0.34375 -0.2109375 3.15625 1.0390625
1.0625 -0.82421875 2.328125 -1.921875 -0.35546875 -0.87109375 4.0625 -0.05029297
1.7890625 -0.72265625 1.953125 -1.7578125 0.12207031 -0.4609375 3.46875 0.12695312
1.1171875 0.23925781 1.65625 -2.265625 0.6171875 0.34960938 4.34375 2.25
1.1875 -0.14453125 1.578125 -0.921875 0.07421875 -0.51953125 3.25 1.0546875
1.21875 -0.75390625 1.7734375 -1.046875 0.016601562 -0.48632812 2.75 0.8828125
1.96875 1.0703125 1.828125 -1.4609375 1.4765625 1.59375 3.421875 1.9375
2.765625 1.453125 2.765625 -1.921875 1.796875 1.4921875 4.6875 1.6640625
1.578125 -0.5546875 1.6953125 -2.40625 -0.13476562 -0.24902344 4.75 2.984375
0.640625 -1.046875 1.6015625 -1.6015625 -0.122558594 -0.40429688 3.078125 2.0
2.515625 -1.90625 1.2734375 -2.390625 -0.80078125 -1.0 3.953125 2.328125
0.42578125 -0.8203125 1.75 -1.8984375 0.47460938 0.17382812 2.640625 1.1484375
3.203125 0.49414062 2.234375 -1.796875 0.9609375 0.4921875 4.21875 2.734375
-0.23925781 -1.7265625 1.53125 -2.421875 -0.27734375 -0.46484375 2.125 2.125
-0.5703125 -1.0390625 1.9765625 -1.7421875 0.0015716553 -0.16113281 3.21875 1.84375
1.640625 -1.453125 1.125 -1.5703125 -0.42578125 -0.57421875 3.359375 0.92578125
2.1875 -0.083496094 0.859375 -1.5 0.40234375 0.6953125 3.359375 2.46875
1.6875 2.78125 2.28125 -1.5078125 2.546875 2.796875 3.9375 3.1875
2.578125 0.2578125 1.7421875 -1.9921875 0.56640625 0.18554688 4.09375 1.4921875
00000000: 603f 8b3f 4c40 d3bf f23f 8440 1040 2f40
00000010: f23e 7f3f 6e3f 8ebf ce3f e23f 4040 2940
00000020: 5740 8d3f d33f ccbf a83f 603f 9340 0b40
00000030: de3f 173f 1240 b6bf 8a3f 1d3f 6d40 5b40
00000040: ea3f 0bbf c33f 76bf 163e a1be 1c40 0040
00000050: 3d40 163f 1240 05c0 653f 903f 3240 5140
00000060: f43f 1fbf 3a40 ccbf cf3d c5bd 3a40 4a40
00000070: 583f 8c3f 4d40 d4bf f33f 8640 1040 3140
00000080: 833f e33f f53f 67bf 1740 2b40 4940 2240
00000090: 853f 3e3e c93f c5bf 513f d13e 6f40 fa3f
000000a0: db3f 7fbd 0140 efbf ed3e 06bb 8140 8b3f
000000b0: c63f a23e bc3f f1bf 443f 613e 7540 9c3f
000000c0: a73f 9ebe 0140 b9bf f63e 0fbf 9840 e43e
000000d0: fd3e 14be 0240 febf b03e 58be 4a40 853f
000000e0: 883f 53bf 1540 f6bf b6be 5fbf 8240 4ebd
000000f0: e53f 39bf fa3f e1bf fa3d ecbe 5e40 023e
00000100: 8f3f 753e d43f 11c0 1e3f b33e 8b40 1040
00000110: 983f 14be ca3f 6cbf 983d 05bf 5040 873f
00000120: 9c3f 41bf e33f 86bf 883c f9be 3040 623f
00000130: fc3f 893f ea3f bbbf bd3f cc3f 5b40 f83f
00000140: 3140 ba3f 3140 f6bf e63f bf3f 9640 d53f
00000150: ca3f 0ebf d93f 1ac0 0abe 7fbe 9840 3f40
00000160: 243f 86bf cd3f cdbf fbbd cfbe 4540 0040
00000170: 2140 f4bf a33f 19c0 4dbf 80bf 7d40 1540
00000180: da3e 52bf e03f f3bf f33e 323e 2940 933f
00000190: 4d40 fd3e 0f40 e6bf 763f fc3e 8740 2f40
000001a0: 75be ddbf c43f 1bc0 8ebe eebe 0840 0840
000001b0: 12bf 85bf fd3f dfbf ce3a 25be 4e40 ec3f
000001c0: d23f babf 903f c9bf dabe 13bf 5740 6d3f
000001d0: 0c40 abbd 5c3f c0bf ce3e 323f 5740 1e40
000001e0: d83f 3240 1240 c1bf 2340 3340 7c40 4c40
000001f0: 2540 843e df3f ffbf 113f 3e3e 8340 bf3f
