mlsys26_contest/blob/workloads/gdn/gdn_prefill_qk4_v8_d128_k_last/gdn_prefill_qk4_v8_d128_k_last_a37c14cb-3a6f-4353-b513-f9261adeef92.safetensors (safetensors, 9232 bytes, 4 tensors)

A_log f4 [8]
00000000: 0000 aabe 0000 aebf 0000 76bf 0000 69bf
00000010: 0000 be3f 0000 9cbf 0000 ffbf 0000 10c0
-0.33203125 -1.359375 -0.9609375 -0.91015625 1.484375 -1.21875 -1.9921875 -2.25

dt_bias f4 [8]
00000000: 0000 d6c0 0000 42c0 0000 b4bf 0000 fdbf
00000010: 0000 97c0 0000 32c0 0000 e2c0 0000 bfc0
-6.6875 -3.03125 -1.40625 -1.9765625 -4.71875 -2.78125 -7.0625 -5.96875

a bf16 [276, 8]
00000000: 0441 cd40 9640 ac40 9540 d140 1a41 1441
00000010: 4a40 bf3f d63f 1840 d93f 5340 6440 6840
00000020: 5e40 fb3f cc3f 0240 c03f 1640 2040 0d40
00000030: 3440 3040 5240 6f40 b23f 2940 2440 1a40
00000040: cfbe 6abd f83f 0e40 2b3f b53f 4840 3840
00000050: 16bf dabf b93e 4d3f eabf 01bf 8740 6f40
00000060: 32be 13be 653f 533f 31bf 683e 7d40 6f40
00000070: 2b40 8f3f 5e40 5140 823f 0b40 7340 6140
00000080: 5a40 1440 6140 7940 a73f 2c40 2540 2240
00000090: ed3f 4240 5c40 7740 f43f 4c40 2e40 2c40
000000a0: 11be 2abf 2240 2a40 17bf bd3f 5f40 7540
000000b0: cbbe 0ec0 013f 623f f4bf a1be 3c40 3d40
000000c0: 02be 29bf 5140 6740 83bf 083f 1140 fe3f
000000d0: 41be 413f 9440 9440 783f 2b40 0240 b03f
000000e0: 84bf fdbf 4140 4a40 21bf 463f 953f 8e3f
000000f0: 19bf 0bc0 0140 0540 b7bf bebe 803f 893f
00000100: 79bf 00c0 3e40 4740 a2bf 85be e33e a03d
00000110: 8ebf 3dbe 8240 9140 303f b63f 3d3f 433f
00000120: 0dc0 eabf 2440 2840 78bf 8f3d 3c3e a8be
00000130: b3bf 60c0 3240 1f40 dabf e6be b13f 823f
00000140: 09bf 63c0 cc3e 0e3f 0cc0 8cbf 8c3f 5f3f
00000150: d83e 2ebf 0b40 1440 61bf be3e 843f 673f
00000160: 2440 ac3f a140 ae40 e83f 7940 6640 4840
00000170: 0d3f 5fbd 3640 5840 973f 0640 4040 2340
00000180: 69be 0fbe 3540 3540 123f eb3f 4e40 5140
00000190: 5dbf aabf f03f 0440 f3be b03d 8940 7340
000001a0: 85bf 20c0 6d3e 573f e1bf c0be 5f40 2140
000001b0: 05bf 83bf 963f 913f 32bf 853e 3740 fb3f
000001c0: 893f f1be 5640 4b40 4f3f de3f 3440 1840
000001d0: 9b3f 2a3f 5140 5640 a63f 2e40 3b40 0e40
000001e0: a3be a03f 5840 6b40 dd3f 3d40 5e40 3c40
000001f0: b0bf e0bf 4c40 6640 52bf 733f c53f 843f
8.25 6.40625 4.6875 5.375 4.65625 6.53125 9.625 9.25
3.15625 1.4921875 1.671875 2.375 1.6953125 3.296875 3.5625 3.625
3.46875 1.9609375 1.59375 2.03125 1.5 2.34375 2.5 2.203125
2.8125 2.75 3.28125 3.734375 1.390625 2.640625 2.5625 2.40625
-0.40429688 -0.057128906 1.9375 2.21875 0.66796875 1.4140625 3.125 2.875
-0.5859375 -1.703125 0.36132812 0.80078125 -1.828125 -0.50390625 4.21875 3.734375
-0.17382812 -0.14355469 0.89453125 0.82421875 -0.69140625 0.2265625 3.953125 3.734375
2.671875 1.1171875 3.46875 3.265625 1.015625 2.171875 3.796875 3.515625
3.40625 2.3125 3.515625 3.890625 1.3046875 2.6875 2.578125 2.53125
1.8515625 3.03125 3.4375 3.859375 1.90625 3.1875 2.71875 2.6875
-0.14160156 -0.6640625 2.53125 2.65625 -0.58984375 1.4765625 3.484375 3.828125
-0.39648438 -2.21875 0.50390625 0.8828125 -1.90625 -0.31445312 2.9375 2.953125
-0.12695312 -0.66015625 3.265625 3.609375 -1.0234375 0.53125 2.265625 1.984375
-0.18847656 0.75390625 4.625 4.625 0.96875 2.671875 2.03125 1.375
-1.03125 -1.9765625 3.015625 3.15625 -0.62890625 0.7734375 1.1640625 1.109375
-0.59765625 -2.171875 2.015625 2.078125 -1.4296875 -0.37109375 1.0 1.0703125
-0.97265625 -2.0 2.96875 3.109375 -1.265625 -0.25976562 0.44335938 0.078125
-1.109375 -0.18457031 4.0625 4.53125 0.6875 1.421875 0.73828125 0.76171875
-2.203125 -1.828125 2.5625 2.625 -0.96875 0.06982422 0.18359375 -0.328125
-1.3984375 -3.5 2.78125 2.484375 -1.703125 -0.44921875 1.3828125 1.015625
-0.53515625 -3.546875 0.3984375 0.5546875 -2.1875 -1.09375 1.09375 0.87109375
0.421875 -0.6796875 2.171875 2.3125 -0.87890625 0.37109375 1.03125 0.90234375
2.5625 1.34375 5.03125 5.4375 1.8125 3.890625 3.59375 3.125
0.55078125 -0.05444336 2.84375 3.375 1.1796875 2.09375 3.0 2.546875
-0.22753906 -0.13964844 2.828125 2.828125 0.5703125 1.8359375 3.21875 3.265625
-0.86328125 -1.328125 1.875 2.0625 -0.47460938 0.0859375 4.28125 3.796875
-1.0390625 -2.5 0.23144531 0.83984375 -1.7578125 -0.375 3.484375 2.515625
-0.51953125 -1.0234375 1.171875 1.1328125 -0.6953125 0.25976562 2.859375 1.9609375
1.0703125 -0.47070312 3.34375 3.171875 0.80859375 1.734375 2.8125 2.375
1.2109375 0.6640625 3.265625 3.34375 1.296875 2.71875 2.921875 2.21875
-0.31835938 1.25 3.375 3.671875 1.7265625 2.953125 3.46875 2.9375
-1.375 -1.75 3.1875 3.59375 -0.8203125 0.94921875 1.5390625 1.03125

b bf16 [276, 8]
00000000: d340 f03f 6440 1b40 3f40 7240 b740 ad40
00000010: 5d3f 773e ca3f cd3f 643f bf3f 333d 9b3d
00000020: 1bbf 0dbf 793f 743f 73be de3e 4ebf 65bf
00000030: a9be 1b3e 293f 3f3f e03e 763f e6be f7be
00000040: 46bf ecbd 843f 803f 153e 733e 6ebf 41bf
00000050: bcbf 71bf 0040 fa3f 8bbc e83e d23d a53e
00000060: b43d eabf bc3e e73e 52bf 13bf 193d 753e
00000070: 8fbf 77bf 683e b43e 37be f63d bfbe 89be
00000080: 533e 863e aa3f a03f 0e3f 633f dcbd 7a3d
00000090: 7f3e 563f aa3f a13f d43f 213f 7ebe c0bd
000000a0: 3abe 8e3f 0040 0240 c53f fc3f 39be 65bd
000000b0: 64bf 38bf de3f dd3f 27bf 0b3f 53bf 0fbf
000000c0: 9ebf 98bf d73e af3e 9bbf a1bf 2dbe 9e3d
000000d0: 2bbe 043f 593f 5f3f 123f 423f f2bd 22bd
000000e0: c3be 473f 0a40 0c40 f63f 1740 85be 7cbe
000000f0: 9fbf 8fbf 963f 9b3f 4ebf 063e b1bf 8cbf
00000100: bdbf 42bf 983f 993f febe 05bf 8cbf 5abf
00000110: afbf a9be d23f cd3f 4f3f dd3e 8bbf 86bf
00000120: 91bf c1be f83f d13f e5bc 493f 88bf 5bbf
00000130: a0bf 6abe f03f bd3f ce3e d33f 3cbf 17bf
00000140: 7cbf ccbf cf3f d53f 87bf aa3e a0bf 7abf
00000150: abbf 40bf 2c3f 183f 4bbf 79be 95bf 68bf
00000160: b3bf a2bd 273e 8f3e 9d3e 263f 41bf aabe
00000170: 48bf 373d 703f 793f 803f 953f 70bf 41bf
00000180: 653d e73c b73f d23f cb3e 6b3f 013c c9bd
00000190: f4bf c4bf c23f d23f 45bf d0be 54bf 29bf
000001a0: 9abf 83bf 1740 0940 973e aa3e fb3e 023f
000001b0: dbbd 21c0 dd3e 093f c4bf afbf 333f 343f
000001c0: acbf 5bbf 8e3f a23f 12be 903e 8dbe 33be
000001d0: 94be 433d c53f c83f 203f 5b3f 09bf d5be
000001e0: 4f3e 093f b13f c43f b23f d83f b5bd 38be
000001f0: 31be 5d3f 0c40 0d40 c33f 1340 923e 653e
6.59375 1.875 3.5625 2.421875 2.984375 3.78125 5.71875 5.40625
0.86328125 0.24121094 1.578125 1.6015625 0.890625 1.4921875 0.043701172 0.075683594
-0.60546875 -0.55078125 0.97265625 0.953125 -0.23730469 0.43359375 -0.8046875 -0.89453125
-0.33007812 0.15136719 0.66015625 0.74609375 0.4375 0.9609375 -0.44921875 -0.48242188
-0.7734375 -0.115234375 1.03125 1.0 0.14550781 0.23730469 -0.9296875 -0.75390625
-1.46875 -0.94140625 2.0 1.953125 -0.016967773 0.453125 0.10253906 0.32226562
0.087890625 -1.828125 0.3671875 0.45117188 -0.8203125 -0.57421875 0.037353516 0.23925781
-1.1171875 -0.96484375 0.2265625 0.3515625 -0.17871094 0.12011719 -0.37304688 -0.26757812
0.20605469 0.26171875 1.328125 1.25 0.5546875 0.88671875 -0.107421875 0.061035156
0.24902344 0.8359375 1.328125 1.2578125 1.65625 0.62890625 -0.24804688 -0.09375
-0.18164062 1.109375 2.0 2.03125 1.5390625 1.96875 -0.18066406 -0.055908203
-0.890625 -0.71875 1.734375 1.7265625 -0.65234375 0.54296875 -0.82421875 -0.55859375
-1.234375 -1.1875 0.41992188 0.34179688 -1.2109375 -1.2578125 -0.16894531 0.07714844
-0.16699219 0.515625 0.84765625 0.87109375 0.5703125 0.7578125 -0.11816406 -0.03955078
-0.38085938 0.77734375 2.15625 2.1875 1.921875 2.359375 -0.25976562 -0.24609375
-1.2421875 -1.1171875 1.171875 1.2109375 -0.8046875 0.13085938 -1.3828125 -1.09375
-1.4765625 -0.7578125 1.1875 1.1953125 -0.49609375 -0.51953125 -1.09375 -0.8515625
-1.3671875 -0.33007812 1.640625 1.6015625 0.80859375 0.43164062 -1.0859375 -1.046875
-1.1328125 -0.37695312 1.9375 1.6328125 -0.027954102 0.78515625 -1.0625 -0.85546875
-1.25 -0.22851562 1.875 1.4765625 0.40234375 1.6484375 -0.734375 -0.58984375
-0.984375 -1.59375 1.6171875 1.6640625 -1.0546875 0.33203125 -1.25 -0.9765625
-1.3359375 -0.75 0.671875 0.59375 -0.79296875 -0.24316406 -1.1640625 -0.90625
-1.3984375 -0.07910156 0.16308594 0.27929688 0.30664062 0.6484375 -0.75390625 -0.33203125
-0.78125 0.044677734 0.9375 0.97265625 1.0 1.1640625 -0.9375 -0.75390625
0.055908203 0.028198242 1.4296875 1.640625 0.39648438 0.91796875 0.007873535 -0.09814453
-1.90625 -1.53125 1.515625 1.640625 -0.76953125 -0.40625 -0.828125 -0.66015625
-1.203125 -1.0234375 2.359375 2.140625 0.29492188 0.33203125 0.49023438 0.5078125
-0.106933594 -2.515625 0.43164062 0.53515625 -1.53125 -1.3671875 0.69921875 0.703125
-1.34375 -0.85546875 1.109375 1.265625 -0.14257812 0.28125 -0.27539062 -0.17480469
-0.2890625 0.047607422 1.5390625 1.5625 0.625 0.85546875 -0.53515625 -0.41601562
0.20214844 0.53515625 1.3828125 1.53125 1.390625 1.6875 -0.088378906 -0.1796875
-0.17285156 0.86328125 2.1875 2.203125 1.5234375 2.296875 0.28515625 0.22363281
