mlsys26_contest/blob/workloads/moe/moe_fp8_block_scale_ds_routing_topk8_ng8_kg4_e32_h7168_i2048/moe_fp8_block_scale_ds_routing_topk8_ng8_kg4_e32_h7168_i2048_886eb15cbc2f49ad8bd3d4244c38ed91.safetensors (safetensors, 15032 bytes, 2 tensors)

routing_logits f4 [14, 256]
000000 92 28 d8 bf e4 89 b6 bf 85 8b b0 bf b5 a0 9e bf
       -1.6887381 -1.4260831 -1.3792578 -1.2392794
000010 1f 67 51 bf d4 52 6b bf 66 bf 92 bf 08 b9 e2 bf
       -0.81797975 -0.9192326 -1.146466 -1.7712717
000020 f8 39 24 c0 c4 57 fb bf e2 59 b1 bf 01 85 9d bf
       -2.5660381 -1.9636159 -1.3855555 -1.2306215
000030 d6 af a3 bf 6a e6 82 bf 10 7f 56 bf d4 ee 7c bf
       -1.2788036 -1.0226567 -0.8378763 -0.9880192
000040 aa 29 aa bf 7a 22 95 bf 1b 77 79 bf 45 70 5e bf
       -1.3293965 -1.1651146 -0.97447366 -0.8689006
000050 e0 73 a5 bf 0f c4 be bf a7 7f 7f bf 45 0e 9b bf
       -1.2925987 -1.4903582 -0.99804157 -1.211373
000060 26 55 9f bf bc 1a 62 bf 58 2f 86 bf 1f 7b 5e bf
       -1.244786 -0.88322043 -1.0483198 -0.8690662
000070 4e 79 78 bf 9d 89 90 bf 10 9a f8 bf 9c 25 f3 bf
       -0.97060096 -1.1291996 -1.9422016 -1.8995852
000080 d0 91 6f bf 3e c2 79 bf 32 17 91 bf e0 83 8d bf
       -0.9358187 -0.97562015 -1.1335204 -1.105587
000090 39 90 45 bf 02 8a a3 bf be ff 58 bf 16 7e 8e bf
       -0.7717319 -1.2776492 -0.8476523 -1.1132228
0000a0 8c 5b 94 bf d0 e6 a5 bf 00 83 90 bf cb 89 9b bf
       -1.1590438 -1.2961063 -1.1289978 -1.2151426
0000b0 7c 98 a5 bf 38 e0 00 c0 ae 88 85 bf b8 f7 85 bf
       -1.293716 -2.0136852 -1.0432336 -1.0466223
0000c0 1e e8 34 c0 d8 4f ab bf d4 ad 8c bf 2e cc 54 bf
       -2.8266673 -1.3383741 -1.0990548 -0.83124053
0000d0 0c d7 c1 bf 66 33 34 bf 2c 73 a0 bf 72 9e 87 bf
       -1.5143752 -0.7039093 -1.2535148 -1.0595229
0000e0 42 11 eb bf b0 67 85 bf 00 62 dd bf 0e 42 b3 bf
       -1.8364642 -1.0422268 -1.7295532 -1.4004533
0000f0 cd 57 b4 bf ee 8a f3 bf 16 54 9b bf bc 8c 31 c0
       -1.4089295 -1.9026773 -1.2135036 -2.7742147
000100 0e 19 80 bf 52 83 2a bf e8 3a 99 bf 0d a1 81 bf
       -1.0007646 -0.6660663 -1.1971102 -1.0127274
000110 4d 8b a8 bf 27 13 92 bf d1 ff ae bf 86 c9 a7 bf
       -1.3167511 -1.1412095 -1.3671819 -1.3108375
000120 29 42 95 bf 2c c7 40 bf e6 23 67 bf 9b 4c 4b bf
       -1.1660815 -0.7530391 -0.9028915 -0.79413766
000130 d9 04 8d bf 24 a4 a3 bf 02 2d 3b bf fc 4c 95 bf
       -1.1017104 -1.2784467 -0.7311555 -1.1664119
000140 9a 8d e7 bf 52 ff 83 bf 7a 36 f0 bf 5e 09 8c bf
       -1.8090088 -1.0312293 -1.8766625 -1.0940359
000150 3a 97 02 c0 17 c5 b2 bf f7 9b b5 bf 27 51 8d bf
       -2.0404801 -1.3966397 -1.4188222 -1.1040391
000160 7e ed a6 bf 24 52 65 bf 78 a1 14 c0 7b 26 77 bf
       -1.3041227 -0.8957846 -2.3223553 -0.9654309
000170 ee cd 09 c0 b1 1d 7f bf 03 1c 80 bf 4e 0c 92 bf
       -2.153194 -0.9965468 -1.0008548 -1.1410005
000180 dd c1 9c bf 60 bb 83 bf e0 a8 01 bf 24 e4 bd bf
       -1.2246662 -1.0291557 -0.5064831 -1.4835248
000190 58 4f 1f c0 ce 87 f8 bf 2b 42 ce bf 32 38 2c c0
       -2.4892178 -1.9416444 -1.6113943 -2.69093
0001a0 7c 50 8c bf fc 00 f2 bf dd 26 5f bf 37 71 c7 bf
       -1.0962062 -1.890655 -0.87168676 -1.5581425
0001b0 b1 0c 8d bf 72 e4 c6 bf ef 15 58 bf 67 0c 99 bf
       -1.1019498 -1.5538466 -0.8440847 -1.195691
0001c0 7d 11 c3 bf b8 19 a0 bf cd 49 bc bf ab c5 87 bf
       -1.5239712 -1.2507849 -1.4710022 -1.0607198
0001d0 11 4e de bf 90 4f 7d bf ac 68 74 bf b5 ea 15 c0
       -1.7367574 -0.9894953 -0.95472217 -2.3424504
0001e0 1a c1 19 c0 ca 05 4d be ae 93 b4 bf d1 e9 b2 bf
       -2.402411 -0.2002174 -1.4107568 -1.3977605
0001f0 9a 14 86 bf 8a af 7b bf 00 40 a8 bf 37 da 83 be
       -1.0475037 -0.98314726 -1.3144531 -0.25752422
000200 c6 7f 99 bf 2b cf a2 bf e8 51 86 bf 4a f8 a7 bf
       -1.1992118 -1.2719473 -1.0493746 -1.3122647
000210 48 4d a1 bf ca 85 99 bf 34 b7 6f bf 84 ca fa 3d
       -1.2601709 -1.1993954 -0.9363892 0.12245658
000220 38 60 b5 bf ad 92 bf bf a0 ca 7f bf 5f 42 93 bf
       -1.4169989 -1.4966637 -0.99918556 -1.150463
000230 37 cb 9d bf 14 2a 88 bf 12 40 a0 bf b6 a4 cc bf
       -1.2327641 -1.0637841 -1.2519553 -1.5987766
000240 b9 e3 6a bf 10 30 6f bf c2 40 d8 bf 2e c3 a4 bf
       -0.9175373 -0.9343271 -1.6894763 -1.2872064
000250 b6 1d 8c bf ea 33 50 bf d0 28 97 bf 20 25 95 bf
       -1.0946567 -0.81329215 -1.180933 -1.1651955
000260 c6 77 67 bf 27 ba c1 bf 5a e5 2f bf ba 6d 8c bf
       -0.90417135 -1.5134934 -0.6870934 -1.0970986
000270 e8 f6 87 bf 62 36 c5 bf f9 57 67 bf 84 82 b4 bf
       -1.0622225 -1.5407221 -0.9036861 -1.410233
000280 0e bf fe bf 44 e0 3d bf 7f 4a 77 bf ec 0e 80 bf
       -1.9902055 -0.7417033 -0.96598047 -1.0004554
000290 0f c8 fb bf e4 7c 9c bf 90 a3 b3 bf da 2f fd bf
       -1.9670428 -1.2225614 -1.403429 -1.9780228
0002a0 2b e6 82 bf 9c ee f0 bf 75 03 b4 bf 46 ec 8c bf
       -1.0226492 -1.8822818 -1.4063555 -1.1009605
0002b0 b7 a7 72 bf 3c d1 5d bf a8 7b de bf b0 ab 8c bf
       -0.9478716 -0.8664739 -1.7381487 -1.0989895
0002c0 ed 4b 5b bf 61 58 d6 bf 5d 4d 83 bf 7c 12 7c bf
       -0.8566273 -1.6745721 -1.0257984 -0.98465705
0002d0 6b 8e 5d bf 2a 78 ae bf 05 1b 65 bf 0c 2c da bf
       -0.8654544 -1.3630421 -0.89494354 -1.7044692
0002e0 ae 2a 92 bf 92 6b 89 bf 52 c4 01 c0 4c 00 76 bf
       -1.1419275 -1.0735953 -2.0276074 -0.96094203
0002f0 d4 af 9f bf 75 91 9f bf b0 fc b6 bf ba c2 9d bf
       -1.2475533 -1.2466265 -1.4295864 -1.2325051
000300 26 54 cb bf 32 8f 62 bf aa d4 99 bf 5a 0f 79 bf
       -1.5885055 -0.8849975 -1.2018025 -0.9728905
000310 9d 80 b4 bf d0 42 88 bf 82 71 68 bf ac c8 cd bf
       -1.410175 -1.064539 -0.907982 -1.6076865
000320 3e 85 e3 bf f2 d0 6f bf b2 50 74 bf 84 75 26 c0
       -1.7775037 -0.936782 -0.9543563 -2.6009226
000330 74 75 de bf 26 b8 76 bf 0d e0 9c bf 4e ed 7e bf
       -1.7379594 -0.9637474 -1.2255875 -0.9958085
000340 9f 9d 2d c0 de 47 9c bf 3b 94 b6 bf 95 a5 bd bf
       -2.7127454 -1.2209432 -1.4263986 -1.4816157
000350 b7 b5 8e bf 6d 99 5e bf c6 f3 94 bf 50 c3 0a c0
       -1.1149205 -0.8695286 -1.1636894 -2.168171
000360 7a d3 e7 bf 1c da f8 bf a7 93 d1 bf 5b d3 c1 bf
       -1.8111413 -1.9441562 -1.6373185 -1.5142626
000370 77 4c b8 bf bb 74 80 bf e7 66 70 bf 4a 8b bd bf
       -1.4398335 -1.0035623 -0.93907017 -1.4808133
000380 49 43 d4 bf bb 75 60 bf b6 b4 8f bf c6 5f d5 bf
       -1.6583034 -0.8767964 -1.1227024 -1.6669853
000390 7c f2 b7 bf f8 57 7a bf 84 02 ed bf 5e d2 86 bf
       -1.4370875 -0.9779048 -1.8516393 -1.0532949
0003a0 81 14 a9 bf 76 de 0d c0 4f a7 ea bf 78 b3 91 bf
       -1.3209382 -2.216703 -1.8332309 -1.1382895
0003b0 fb f9 b1 bf 90 2e a6 bf 8e 3e 26 bf 4a d9 56 bf
       -1.3904413 -1.298296 -0.649392 -0.83925307
0003c0 ea 96 d0 bf a9 00 49 bf 22 3f f7 bf fb 95 02 c0
       -1.6296055 -0.7851663 -1.9316142 -2.040404
0003d0 48 d3 8a bf a6 6f b7 bf 8b 84 3a bf 82 11 e0 bf
       -1.0845728 -1.4330947 -0.72858495 -1.7505343
0003e0 1d 62 ab bf 96 76 ba bf 9a 6e 67 bf b7 7b a9 bf
       -1.3389317 -1.456744 -0.9040314 -1.324088
0003f0 58 f7 67 bf 08 bd ca bf d0 a7 8a bf 11 20 82 bf
       -0.9061179 -1.5838938 -1.0832462 -1.0166036

routing_bias bf16 [256]
000000 9e 40 9e 40 9e 40 9f 40 9e 40 9e 40 9f 40 9f 40
       4.9375 4.9375 4.9375 4.96875 4.9375 4.9375 4.96875 4.96875
000010 9e 40 9f 40 9f 40 9f 40 9e 40 9e 40 9e 40 9e 40
       4.9375 4.96875 4.96875 4.96875 4.9375 4.9375 4.9375 4.9375
000020 9f 40 9f 40 9f 40 9e 40 9e 40 9e 40 9e 40 9f 40
       4.96875 4.96875 4.96875 4.9375 4.9375 4.9375 4.9375 4.96875
000030 9e 40 9e 40 9e 40 9e 40 9e 40 9e 40 9f 40 9f 40
       4.9375 4.9375 4.9375 4.9375 4.9375 4.9375 4.96875 4.96875
000040 9e 40 9e 40 9e 40 9e 40 9f 40 9f 40 9e 40 9e 40
       4.9375 4.9375 4.9375 4.9375 4.96875 4.96875 4.9375 4.9375
000050 9e 40 9f 40 9f 40 9f 40 9f 40 9e 40 9f 40 9f 40
       4.9375 4.96875 4.96875 4.96875 4.96875 4.9375 4.96875 4.96875
000060 9f 40 9f 40 9e 40 9e 40 9e 40 9e 40 9f 40 9f 40
       4.96875 4.96875 4.9375 4.9375 4.9375 4.9375 4.96875 4.96875
000070 9f 40 9e 40 9f 40 9e 40 9e 40 9f 40 9f 40 9f 40
       4.96875 4.9375 4.96875 4.9375 4.9375 4.96875 4.96875 4.96875
000080 9e 40 9e 40 9f 40 9f 40 9f 40 9f 40 9e 40 9e 40
       4.9375 4.9375 4.96875 4.96875 4.96875 4.96875 4.9375 4.9375
000090 9f 40 9e 40 9f 40 9f 40 9e 40 9e 40 9e 40 9f 40
       4.96875 4.9375 4.96875 4.96875 4.9375 4.9375 4.9375 4.96875
0000a0 9f 40 9f 40 9f 40 9f 40 9f 40 9e 40 9e 40 9f 40
       4.96875 4.96875 4.96875 4.96875 4.96875 4.9375 4.9375 4.96875
0000b0 9e 40 9e 40 9f 40 9e 40 9f 40 9e 40 9e 40 9e 40
       4.9375 4.9375 4.96875 4.9375 4.96875 4.9375 4.9375 4.9375
0000c0 9f 40 9e 40 9e 40 9e 40 9f 40 9f 40 9f 40 9e 40
       4.96875 4.9375 4.9375 4.9375 4.96875 4.96875 4.96875 4.9375
0000d0 9f 40 9f 40 9e 40 9e 40 9f 40 9f 40 9f 40 9e 40
       4.96875 4.96875 4.9375 4.9375 4.96875 4.96875 4.96875 4.9375
0000e0 9f 40 9e 40 9f 40 9e 40 9e 40 9e 40 9e 40 9f 40
       4.96875 4.9375 4.96875 4.9375 4.9375 4.9375 4.9375 4.96875
0000f0 9f 40 9e 40 9e 40 9f 40 9e 40 9f 40 9f 40 9f 40
       4.96875 4.9375 4.9375 4.96875 4.9375 4.96875 4.96875 4.96875
000100 9e 40 9e 40 9e 40 9f 40 9e 40 9e 40 9e 40 9e 40
       4.9375 4.9375 4.9375 4.96875 4.9375 4.9375 4.9375 4.9375
000110 9f 40 9e 40 9e 40 9e 40 9e 40 9e 40 9e 40 9e 40
       4.96875 4.9375 4.9375 4.9375 4.9375 4.9375 4.9375 4.9375
000120 9e 40 9e 40 9e 40 9f 40 9e 40 9e 40 9e 40 9f 40
       4.9375 4.9375 4.9375 4.96875 4.9375 4.9375 4.9375 4.96875
000130 9f 40 9f 40 9f 40 9e 40 9e 40 9f 40 9e 40 9f 40
       4.96875 4.96875 4.96875 4.9375 4.9375 4.96875 4.9375 4.96875
000140 9e 40 9e 40 9e 40 9e 40 9e 40 9e 40 9e 40 9f 40
       4.9375 4.9375 4.9375 4.9375 4.9375 4.9375 4.9375 4.96875
000150 9e 40 9e 40 9f 40 9f 40 9e 40 9e 40 9f 40 9e 40
       4.9375 4.9375 4.96875 4.96875 4.9375 4.9375 4.96875 4.9375
000160 9e 40 9e 40 9e 40 9e 40 9e 40 9e 40 9e 40 9f 40
       4.9375 4.9375 4.9375 4.9375 4.9375 4.9375 4.9375 4.96875
000170 9e 40 9f 40 9e 40 9e 40 9e 40 9e 40 9e 40 9e 40
       4.9375 4.96875 4.9375 4.9375 4.9375 4.9375 4.9375 4.9375
000180 9e 40 9e 40 9e 40 9f 40 9f 40 9f 40 9e 40 9e 40
       4.9375 4.9375 4.9375 4.96875 4.96875 4.96875 4.9375 4.9375
000190 9f 40 9e 40 9e 40 9f 40 9e 40 9e 40 9e 40 9e 40
       4.96875 4.9375 4.9375 4.96875 4.9375 4.9375 4.9375 4.9375
0001a0 9e 40 9e 40 9e 40 9e 40 9e 40 9e 40 9f 40 9e 40
       4.9375 4.9375 4.9375 4.9375 4.9375 4.9375 4.96875 4.9375
0001b0 9f 40 9f 40 9e 40 9f 40 9e 40 9e 40 9f 40 9f 40
       4.96875 4.96875 4.9375 4.96875 4.9375 4.9375 4.96875 4.96875
0001c0 9e 40 9e 40 9f 40 9e 40 9e 40 9e 40 9f 40 9f 40
       4.9375 4.9375 4.96875 4.9375 4.9375 4.9375 4.96875 4.96875
0001d0 9e 40 9e 40 9f 40 9f 40 9f 40 9f 40 9f 40 9e 40
       4.9375 4.9375 4.96875 4.96875 4.96875 4.96875 4.96875 4.9375
0001e0 9f 40 9f 40 9f 40 9f 40 9e 40 9e 40 9e 40 9e 40
       4.96875 4.96875 4.96875 4.96875 4.9375 4.9375 4.9375 4.9375
0001f0 9e 40 9e 40 9e 40 9e 40 9e 40 9f 40 9e 40 9e 40
       4.9375 4.9375 4.9375 4.9375 4.9375 4.96875 4.9375 4.9375
